data/20220509-135847/model.pth (torch, 8399 bytes, 7 tensors)

weight f4 [32, 4]
000000 d7 98 46 3f 10 97 71 3d 53 9f aa 3f a3 e4 2a 3e
       0.77576965 0.058981955 1.3329872 0.1668878
000010 26 73 b5 3c 76 b3 95 3e 3f c2 a8 be da f7 90 be
       0.022149634 0.2923848 -0.32960698 -0.28314096
000020 da 74 dc 3e 37 09 ae be 21 17 f7 bd bb 4b a2 be
       0.430579 -0.33991405 -0.12064958 -0.31698403
000030 a4 60 15 be bd 7f a7 3e 9e eb b2 be c7 25 93 be
       -0.14587647 0.32714644 -0.34945387 -0.2873976
000040 0a e4 f2 3e e9 00 fa 3e 7f 83 90 3f 7a 11 0d 3f
       0.47439605 0.4882882 1.129013 0.5510479
000050 c7 13 12 be 32 59 b7 3e 6d c4 f1 3e 38 2e 81 3e
       -0.14265357 0.35810238 0.47220173 0.25230575
000060 e7 78 95 3e 94 a1 da 3e 65 9d bb 3f e9 b4 df 3e
       0.29193804 0.427014 1.4657408 0.4369271
000070 f9 a2 28 3e 19 71 4a be fc c5 a0 be 08 d7 d7 3e
       0.16468419 -0.19769706 -0.3140105 0.42156243
000080 e7 f0 73 3e ad f3 54 be 51 34 36 3f b8 c2 11 3e
       0.23822366 -0.2079608 0.7117358 0.14234436
000090 a6 20 d9 be ba b9 2d 3e 08 cd fc 3e ec 7d 18 3f
       -0.4240772 0.1696538 0.49375176 0.5956714
0000a0 fe 5b 65 bd 51 2c e0 bd f3 ee 2c bc 6d a4 94 be
       -0.055995934 -0.10945953 -0.010555017 -0.29031697
0000b0 4a 52 0a bf 45 b9 f5 be 69 0a 03 c0 22 f5 34 bf
       -0.54031813 -0.47992912 -2.0475104 -0.70686543
0000c0 8e 57 8a 3e 39 d7 e8 be b0 16 e2 be 55 a4 62 3e
       0.27019924 -0.45476702 -0.44157934 0.22133
0000d0 33 96 02 be e4 1d 74 3c 19 a0 2c 3f fe 55 57 be
       -0.12752609 0.014899705 0.6743179 -0.21028897
0000e0 07 a6 2a 3f f7 0f d7 3e f6 2d da 3d d9 d3 3c bd
       0.6665959 0.42004368 0.106532976 -0.04610047
0000f0 bd ff 8e bc 1a 11 e6 bd 6e d0 56 3e e2 2a 1b 3f
       -0.01745593 -0.112337306 0.20977947 0.6061231
000100 5f 59 09 3e 55 4b b9 be e7 ac fa be c5 d5 09 bf
       0.13412999 -0.36190286 -0.4896004 -0.5384181
000110 76 db 2a 3f c9 d3 c8 3e c7 38 06 40 74 da ef 3e
       0.6674112 0.3922408 2.0972154 0.46846354
000120 9b 5d 9b 3e ec 6b d7 bd 73 78 66 3d ac e2 9e be
       0.30344853 -0.10518631 0.056267213 -0.31032312
000130 00 18 a1 bd ee f1 f8 3e 85 b0 26 3e f0 ff 23 be
       -0.07865906 0.48622078 0.16278274 -0.16015601
000140 d7 2d 92 bb 87 0b e3 be 07 47 9c bd 02 4b 9d 3e
       -0.004461031 -0.44344732 -0.07630735 0.3072129
000150 37 17 fa bd b4 c7 aa 3e bf 10 92 3d e3 a7 df 3e
       -0.12211459 0.33355486 0.071321 0.43682775
000160 dd 72 05 3e f5 74 c3 be fa ef 15 3f 44 a9 80 be
       0.13032098 -0.3817517 0.585693 -0.2512914
000170 e7 29 b3 3d 71 84 df 3d a6 dd 07 3f dd 48 a0 3e
       0.087482266 0.10913933 0.53072584 0.3130559
000180 19 19 c2 be 64 3b e7 3e c1 fd 57 bd 61 ed 88 3e
       -0.37909773 0.451625 -0.052732233 0.26743606
000190 1f 28 6c bf 7c 7c 1c bf 16 9b 9b bf 20 36 a6 be
       -0.9224872 -0.6112745 -1.2156703 -0.3246317
0001a0 36 81 75 3e 57 a4 ee 3d d5 06 22 bf 59 dd ed be
       0.23975071 0.11652439 -0.63291675 -0.46457937
0001b0 04 5d fa 3c 17 86 d2 3e 09 9b 80 bd 3c 56 c8 3e
       0.030561931 0.41117927 -0.062795706 0.39128292
0001c0 51 f6 05 be e3 75 39 3e b9 1b 25 3e fa 22 09 3c
       -0.13082244 0.18111376 0.16123857 0.0083701555
0001d0 42 45 3c be f4 7a c7 3e 80 ce a1 be d9 dd ac be
       -0.18385795 0.38960993 -0.3160286 -0.33763006
0001e0 40 57 06 bd e0 f7 cb bc a0 10 b4 be a0 de 82 bd
       -0.03279805 -0.02489847 -0.35168934 -0.063901186
0001f0 3a fd 32 3e 75 4a ad be c6 b8 b5 be e0 87 18 3e
       0.17479411 -0.3384587 -0.35492533 0.14895582

bias f4 [32]
000000 3c 00 b5 be 5e 19 84 3f 72 63 79 3f 4b 18 5a 3f
       -0.3535174 1.0320241 0.97417367 0.8519332
000010 80 a6 db be fd 82 45 3f d5 7a d7 bd 5e b6 39 3f
       -0.42900467 0.77153 -0.10521475 0.72543895
000020 0c 36 37 3f 65 a1 96 be 76 31 4a 3f 7a 69 61 be
       0.71566844 -0.2942001 0.7898172 -0.22012892
000030 ba d2 10 3f f3 8d 5f 3f cc 72 9b be 78 b4 d5 3e
       0.56571543 0.8732597 -0.3036102 0.4173925
000040 51 f2 53 3f 8c 66 bb 3b ef 08 84 3f 83 08 24 3f
       0.8279162 0.0057190116 1.0315226 0.6407549
000050 c0 e5 08 bf 78 a5 55 3f d5 58 5b 3f 11 74 5d 3f
       -0.5347557 0.8345561 0.8568242 0.8650523
000060 f8 6d 84 3f ac d2 05 bf b6 27 b2 be cb ea 64 3f
       1.034606 -0.52274585 -0.34795922 0.89420766
000070 e6 45 80 3f ee 3b 8b 3d 02 d2 be be f9 3a 5d 3f
       1.0021331 0.0679854 -0.37269598 0.8641811

weight f4 [32, 32]
000000 d8 4f 09 bf 0f c8 93 3e cc fb d1 3e 55 5c 68 3e
       -0.53637457 0.2886357 0.41012418 0.22691472
000010 07 a2 0a bf 7e f5 10 3f 3f 6c 41 be 88 ab 23 3f
       -0.54153484 0.5662459 -0.18888949 0.6393361
000020 93 31 2b 3f 16 0f b6 be 8f 39 a5 3e b4 eb 16 bf
       0.6687252 -0.35558385 0.32270476 -0.58953404
000030 42 48 02 3f 43 c0 10 3f cd 31 5b be bd e0 30 3e
       0.50891507 0.5654337 -0.21405716 0.17273231
000040 d3 cf 48 3d 89 8f 13 be d1 c1 fd 3e ce 2c 8a 3e
       0.04902632 -0.14410223 0.49561933 0.26987308
000050 a1 f1 1a be e4 06 06 3f 52 1f ac 3e e1 95 28 3f
       -0.15131237 0.52354264 0.33617646 0.658537
000060 d0 9a 09 3f 1e 09 24 bf 05 de 90 be 29 4c 4e 3f
       0.5375185 -0.6407641 -0.28294387 0.8058496
000070 d8 a8 d9 3e 13 43 db bd 52 1c c4 3d 53 8d 19 3f
       0.4251163 -0.10706153 0.09575714 0.5998127
000080 1a c7 fc 3d 91 02 f3 bc ed bb 70 3d a4 5c c2 bd
       0.12342663 -0.02966431 0.05877297 -0.09490326
000090 16 14 4e 3d 2b e7 d0 bd 8b 99 a2 bd 56 96 45 be
       0.050312124 -0.10200342 -0.07939442 -0.1929563
0000a0 c4 84 af 3d d4 c4 2e be 55 8b 39 3d 4a d4 93 bd
       0.08570245 -0.17067271 0.045298893 -0.07218225
0000b0 d2 6a e9 3d c9 45 11 3c d6 1a f5 bd 7a 1c ed bd
       0.113973275 0.008866736 -0.11968009 -0.11577697
0000c0 44 7a 4b 3a 32 fe 91 3d 72 af e8 bc 22 0e 98 be
       0.00077620544 0.07128562 -0.028403971 -0.29698282
0000d0 6a 04 8c 3d c3 25 88 be ec 01 8a 3c 98 43 0e be
       0.068367794 -0.2659131 0.01684662 -0.13892972
0000e0 db b4 e9 bd da 2a cc 3d 02 86 81 3c 2e 2a 80 be
       -0.114114486 0.09969111 0.01581097 -0.2503218
0000f0 4c dd 82 bd 92 24 73 be fa 56 9e 3d ac bd 92 be
       -0.06389865 -0.23744419 0.07731433 -0.28660333
000100 f6 d1 a8 3d c0 58 d7 bc 1e 34 0d be f0 a1 6c 3c
       0.08243172 -0.026287436 -0.13789412 0.014442906
000110 f8 11 17 3d 36 7f 57 bd 1f ca 32 3e 7f 40 e5 bc
       0.03688237 -0.052611552 0.17459916 -0.027984856
000120 55 41 af 39 68 bf 55 be 0a ab ad 3d 44 e3 35 3d
       0.00033427277 -0.20873797 0.08479889 0.04440619
000130 f3 de 5b 3d 84 1e fa bd 43 01 1b 3e e6 2b c3 3a
       0.053679418 -0.12212852 0.151372 0.0014890402
000140 ec 72 21 be b7 27 92 bb eb c9 24 be d8 21 8f bd
       -0.15766495 -0.004460301 -0.1609265 -0.06988877
000150 a0 c0 5b 3d b8 da 5b be 22 b9 98 3d 52 4e 5a be
       0.0536505 -0.21470153 0.07457186 -0.2131894
000160 0e 95 ee bc d7 ea 0d 3c c9 28 1d 3e 43 e2 d9 bd
       -0.02912381 0.008661947 0.1534759 -0.10638859
000170 86 57 40 be 20 13 6d bc e0 de 16 3d 5b c2 8d bd
       -0.18783388 -0.014469892 0.036833644 -0.06921836
000180 78 6f da be 88 0b a9 3e aa bc 18 3f 44 f9 0b 3f
       -0.4266317 0.3301661 0.5966288 0.54677224
000190 bd bb 13 bf f2 0b 31 3f 34 3a 98 be 02 64 b2 3e
       -0.5770834 0.6915885 -0.29731905 0.34841925
0001a0 8f 4c e7 3e aa 34 1e bf 3a 63 cb 3e 5e 02 30 bf
       0.45175597 -0.6179911 0.3972414 -0.6875361
0001b0 ab 19 a4 3e 12 2e 33 3f 26 14 f9 be 38 3c e5 3d
       0.32050833 0.6999217 -0.48648185 0.111931264
0001c0 05 b8 12 3e fa ce be be f6 3f cf 3e bb 91 c1 3e
       0.1432801 -0.37267286 0.40478486 0.37806496
0001d0 1d 80 8d be 4f bf 03 3f 3a 5d 1e 3f 9e 65 10 3f
       -0.27636805 0.5146379 0.61861 0.56405056
0001e0 08 ef 0a 3f 20 83 f7 be 11 3d d7 be cd c0 c8 3e
       0.5427098 -0.48342228 -0.42038777 0.39209595
0001f0 97 fc 14 3f 2a 89 d1 bd 2e 7a c8 3d e7 0e e7 3e
       0.5819792 -0.1023124 0.09788929 0.45128557
000200 4b 68 e4 bd bf 4f a9 bc 3e 22 57 3d 18 b3 d6 bd
       -0.11152705 -0.020667909 0.05252289 -0.10483378
000210 82 cd a9 3d 02 07 08 be 98 72 b7 bd 08 77 86 3c
       0.08291151 -0.13283923 -0.08957404 0.01641418
000220 9d 1f 08 be be 0a b2 bd ea e5 e6 3d c9 f8 10 be
       -0.1329331 -0.08693455 0.112743214 -0.14157404
000230 98 b5 c4 3c 51 ff 9e bc 3f da 01 3e 00 e0 ed 3c
       0.024012372 -0.019408854 0.1268091 0.029037476
000240 00 32 23 be 10 ef 4f 3d 4d 45 29 be c2 ca e4 3d
       -0.15937042 0.050765097 -0.16530342 0.111714855
000250 00 d4 9d 39 0e c7 25 be fc 6a 47 bd 08 f3 e8 bd
       0.00030103326 -0.16189215 -0.048686013 -0.113744795
000260 70 3b 35 be a0 d4 6b 3d 6c 23 32 3d f4 c5 3f bd
       -0.17698455 0.057575822 0.043490812 -0.046819642
000270 df c3 c7 3d e8 38 16 be a0 ef 81 3d 44 8f 92 3d
       0.09754156 -0.14670146 0.06344533 0.07156232
000280 87 fb 19 bf 46 50 8b 3e be cf 2f 3f ea c0 c3 3e
       -0.60149425 0.2720968 0.68676364 0.3823312
000290 e4 55 f6 be be 2e 09 3f fb 29 f6 be d3 bc 1a 3f
       -0.48112404 0.5358695 -0.48078904 0.6044437
0002a0 68 21 11 3f a7 d3 1a bf 4e dc 6d 3e 46 cb 57 bf
       0.566916 -0.60479206 0.23228571 -0.84294546
0002b0 32 1b d7 3e 89 0e 38 3f 4c 0d e8 be 55 3e 13 3e
       0.42012936 0.7189718 -0.45322645 0.14379247
0002c0 6d f1 2e 3d 6e d0 9d be 4c 98 1d 3f a2 df 99 3e
       0.04271071 -0.30823082 0.6156051 0.3005343
0002d0 0f 9a ff bd 13 f0 0b 3f 90 c9 07 3f bc 9a 54 3f
       -0.12480556 0.546632 0.53041935 0.83048606
0002e0 4f cc e4 3e ee 69 18 bf 62 ed b5 be e4 8a 49 3f
       0.44687125 -0.59536636 -0.3553267 0.78727555
0002f0 ad 5c 35 3f a8 e1 85 3d 78 5d 7a 3d 46 6d 2b 3f
       0.70844537 0.06537181 0.061124295 0.66963613
000300 56 6d df 3d d0 ec b6 3d 64 fe 4d be 4b 57 83 3d
       0.10909526 0.08931887 -0.20116574 0.06413134
000310 88 f0 3b bd 0f 59 bc bd bc 26 ca bd 3d 9c 29 be
       -0.045883685 -0.09196674 -0.09870669 -0.16563506
000320 c7 a4 06 3e 4c 5f 00 be 86 63 b4 bd be 21 0a be
       0.13148795 -0.12536353 -0.08808045 -0.13489434
000330 81 54 34 3e 4b 56 cd bd 1f 94 29 3c 4a 9e 05 be
       0.1761036 -0.10026225 0.010350256 -0.13048664
000340 7b 61 92 3d c8 d0 a0 3c 53 e5 63 be 24 ea a2 3b
       0.07147499 0.019630805 -0.22255449 0.0049717594
000350 2b 8c a9 bd 96 57 ee 3d 06 ce 02 be 8c 58 6e 3d
       -0.08278688 0.116377994 -0.12773904 0.058189914
000360 2e 0d 08 be c8 12 7c bd 3f 1f 0d 3d 49 e2 62 3d
       -0.13286278 -0.06154135 0.034453627 0.055391584
000370 7f a1 25 be 5c 12 32 bd 00 0a c5 3a 6c af 4e bd
       -0.16174887 -0.04347454 0.0015032887 -0.050460264
000380 40 b1 4e bb e1 18 29 be 73 f9 e2 bd 04 1e 49 bd
       -0.0031538755 -0.16513397 -0.11082735 -0.04910089
000390 9d ae 0f 3e 28 84 1a bd 58 76 8d 3c 08 6e 03 be
       0.14031453 -0.03772369 0.017268345 -0.12834942
0003a0 91 5a 80 bd 80 44 19 3c 75 53 a7 bd 64 8a 2e 3d
       -0.06267274 0.009354711 -0.08170215 0.04261245
0003b0 e8 50 fe bc 52 90 63 bd fa 41 ec 3d ed 21 98 bd
       -0.031044438 -0.055557556 0.115360215 -0.07428346
0003c0 ae 1d db 3d 68 65 39 bd d7 60 d7 bd c8 bb aa bd
       0.1069902 -0.045262724 -0.105165176 -0.08336598
0003d0 ac 43 28 be 0e 8b 93 3d fb 26 1c 3e 86 f8 fc 3d
       -0.16432065 0.07204257 0.15249245 0.123520896
0003e0 40 1d ea bc a2 b6 a8 bd 00 82 2e be 81 a4 24 3e
       -0.0285784 -0.082379594 -0.17041779 0.16078378
0003f0 60 31 22 bc e0 9e d0 bc 38 ee f5 3c b2 95 fd bd
       -0.009899467 -0.025466383 0.030020818 -0.12382068

bias f4 [32]
000000 a5 d2 07 3f c4 eb 87 bd 7c 3f 5a be 6a da 21 3f
       0.53055793 -0.066367656 -0.2131328 0.632239
000010 70 38 36 be fe 17 f3 3e d9 61 97 bd ce 37 15 be
       -0.17794967 0.47479242 -0.0739171 -0.14572069
000020 42 83 08 bc e6 e9 bf 3d 2d b2 93 3d 00 6b 47 bc
       -0.008332076 0.093707845 0.07211719 -0.012171507
000030 e0 96 ce 3e 5f 9d 7d 3d fb 69 82 bd cc a9 bf 3e
       0.40349483 0.06191766 -0.063678704 0.37434232
000040 a6 5b 19 3f 28 83 ec 3e 40 6a 0c 3f 2c 91 0e 3f
       0.5990547 0.46193814 0.54849625 0.55690265
000050 8c 80 f3 3e e4 a7 2e 3f 4a ac 2b 3e a5 a5 0c 3f
       0.4755901 0.6822493 0.16764942 0.54940253
000060 32 b5 2d 3c 1b 09 93 3e d9 c8 ee 3e 9a bf fa 3e
       0.010602282 0.28717884 0.4663761 0.48974305
000070 65 93 60 bc 77 0a 24 3f 52 76 45 be 9f 2b 09 3f
       -0.013707017 0.6407847 -0.19283417 0.53582186

weight f4 [2, 32]
000000 4c 36 eb bd b3 a3 1a bd 0b 05 df bd 12 ae c3 3c
       -0.11484966 -0.037753772 -0.10889634 0.023886714
000010 fb c9 84 3d b4 d8 0c be e9 0c 3c bd 0b 34 b2 bd
       0.06483837 -0.1375454 -0.04591075 -0.08701333
000020 78 a3 97 bd 7e 3e 19 be 12 62 88 bd 86 86 19 be
       -0.07404226 -0.14965245 -0.066593304 -0.14992723
000030 d6 63 93 bd 2e f0 c6 bd 3e 82 d3 3d a8 2b 99 3e
       -0.071967766 -0.097137794 0.10327576 0.2991612
000040 91 2f 66 be 19 ab 69 3d 5c ab 87 bd 77 3a ca 3d
       -0.22479083 0.057047937 -0.06624481 0.098744325
000050 f0 2e 0d bd df 3c e6 bc a6 a4 28 3f ee 91 15 be
       -0.03446859 -0.028105197 0.65876234 -0.14606449
000060 34 8a 77 3c 64 00 ed 3d 50 4f fb 3e d6 f7 a8 be
       0.015108634 0.1157234 0.49083948 -0.33001584
000070 e5 0a 3d 3e b7 e0 b8 be 21 b9 8b 3e 72 e8 14 3e
       0.18461187 -0.36108944 0.2728968 0.14541796
000080 f4 bc 6e 3e 61 c7 03 be 4f 92 63 be bc 3e ba 3d
       0.23314267 -0.12869026 -0.22223781 0.09093997
000090 87 5a d3 bc 8f 17 6e 3d a1 21 c8 3d 7f ef 17 be
       -0.025800003 0.058127936 0.09772039 -0.14837454
0000a0 80 65 f3 bc 81 9c 8d 3d 16 76 3b be 0d f3 f5 bd
       -0.029711485 0.069146164 -0.18306765 -0.12009249
0000b0 fc 13 36 3e 97 ac 30 3d 50 e8 c1 bd d5 d3 a0 be
       0.17781061 0.043133345 -0.09468138 -0.31411615
0000c0 6e 4e 1b 3e 1e ff 3e be a6 b2 67 bd 93 d6 08 be
       0.15166637 -0.18652007 -0.056566857 -0.13363104
0000d0 6b b3 bd bc bd 05 8a 3d 54 51 2b bf cb 08 12 bd
       -0.023156842 0.06739376 -0.6692097 -0.035652917
0000e0 38 3d 10 3e e6 a5 07 be 09 69 f3 be c5 2b 75 3e
       0.14085853 -0.13246879 -0.47541073 0.23942478
0000f0 79 82 ca 3d 26 db 46 3e 4d a3 17 be 27 85 dd bd
       0.09888167 0.19419536 -0.14808388 -0.108164124

bias f4 [2]
000000 d9 d8 23 3d c2 e1 64 bd
       0.040001724 -0.055879362

weight f4 [1, 32]
000000 46 b3 2c 3f 6b eb 99 ba 29 df ce bd 80 0b 38 3f
       0.6746105 -0.0011743134 -0.10101158 0.7189255
000010 e3 ba 2b 3d 60 b7 2a 3f 09 a5 0b be c0 bc d9 bb
       0.041926276 0.6668606 -0.13637175 -0.006644815
000020 6e 4f 89 bd f1 e3 65 3d 40 d9 a4 3d e4 cc 1e be
       -0.06704603 0.056125585 0.0804925 -0.15507847
000030 c1 d8 34 3f 1d 46 17 bd a1 0d a4 bd 25 73 35 3f
       0.7064324 -0.0369321 -0.08010412 0.7087882
000040 5c 80 38 3f 86 87 46 3f 00 62 3e 3f fe 3b 21 3f
       0.7207086 0.7755054 0.74368286 0.62982166
000050 e5 57 41 3f 4f 9e 11 3f 0f b3 e0 3d a4 e4 2c 3f
       0.7552474 0.56882185 0.10971653 0.6753638
000060 00 5b 0e bd be fa 34 3f 8a 95 14 3f 60 4c 23 3f
       -0.034754753 0.706951 0.5804068 0.63788414
000070 d0 25 34 bd ef a4 26 3f d8 da 06 3d df e5 23 3f
       -0.043981373 0.6509542 0.03292355 0.6402263
