data/PPO_runs/20220509-014017/model.pth (torch, 8399 bytes, 7 tensors)

weight f4 [32, 4]
0	0x3b13d417	0.0022556835
1	0x3ee3b4f7	0.44474003
2	0x3ed2b9e6	0.41157454
3	0x3e5b577c	0.21420091
4	0x3d8bf8d6	0.06834571
5	0x3ee6d65b	0.45085415
6	0x3e384d1c	0.17998165
7	0xbccb1da7	-0.024794413
8	0xbf90313f	-1.1265029
9	0xbf38ea0b	-0.7223212
10	0xbff68675	-1.9259783
11	0xbf2008cd	-0.6251343
12	0x3da80029	0.082031555
13	0xbc930653	-0.017947352
14	0x3f0cbaba	0.5497242
15	0x3e0d7bae	0.13816711
16	0x3d858682	0.06519796
17	0x3cf567dc	0.02995675
18	0xbf0029ef	-0.50063986
19	0x3e240841	0.16018774
20	0x3e9faab2	0.31184918
21	0x3e77df2f	0.24206232
22	0x3f47f445	0.781071
23	0xbcab9ded	-0.020949328
24	0x3f480ba6	0.78142774
25	0xbe9d6172	-0.30738407
26	0xbf47476e	-0.7784337
27	0xbf163a27	-0.58682483
28	0x3db64a33	0.08900871
29	0xbeb88bcb	-0.36044154
30	0xbd695a63	-0.056970965
31	0xbee52442	-0.44754225
32	0xbe8fc045	-0.28076378
33	0x3dbcab91	0.09212411
34	0x3f107bfc	0.56439185
35	0xbc96a28d	-0.018388057
36	0x3f98d3be	1.1939619
37	0xbd2e8793	-0.042609762
38	0xbf0be6b6	-0.5464891
39	0xbee955b7	-0.45573208
40	0xbf8f6ee8	-1.1205721
41	0x3ee65ec5	0.44994178
42	0x3fcbc901	1.5920717
43	0x3f2fba05	0.6864322
44	0x3e43b0a8	0.19110358
45	0xbedbcb5a	-0.42928582
46	0xbe203117	-0.15643726
47	0xbed0c496	-0.40774983
48	0xbee79e39	-0.45237902
49	0x3f85e895	1.0461603
50	0x3f5b8895	0.8575528
51	0xbd8c0e44	-0.068386585
52	0x3ed12422	0.4084788
53	0x3e7e683f	0.24844454
54	0x3faec470	1.3653698
55	0x3efcd8af	0.49384066
56	0xbe1d5091	-0.15362765
57	0x3ebe16a6	0.37126654
58	0x3f1a187b	0.60193604
59	0x3eebf1a1	0.46082786
60	0xbe31bca5	-0.17357118
61	0x3d9dde20	0.077083826
62	0xbdeaafb1	-0.11459292
63	0x3eac8846	0.33697718
64	0x3dc2af1b	0.09506055
65	0x3f034142	0.5127145
66	0x3eb8bb7a	0.36080533
67	0xbf044da5	-0.51680976
68	0xbe9c4ff4	-0.3052975
69	0x3e968b60	0.2940321
70	0xbe7f8758	-0.24953973
71	0x3e91667a	0.28398496
72	0x3e5f575e	0.21810672
73	0xbe41a195	-0.18909295
74	0x3e8e0318	0.27736735
75	0x3e85a5e2	0.2610312
76	0x3eeacb15	0.45858064
77	0x3dfa90ee	0.122346744
78	0x3fc33703	1.5251163
79	0x3f2995e9	0.6624437
80	0x3e4bce40	0.19902897
81	0x3d9d7402	0.07688142
82	0xbe4cedf9	-0.20012654
83	0x3e063628	0.13106596
84	0xbe92489b	-0.2857102
85	0x3e734b8a	0.23759285
86	0xbe2c5303	-0.16828541
87	0xbc9e8498	-0.019350335
88	0x3c87101b	0.016487172
89	0x3f5b4ef0	0.85667324
90	0x40035326	2.05195
91	0x3f227165	0.63454276
92	0xbdfc5fbc	-0.123229474
93	0xbf21994b	-0.6312453
94	0xbfdedf54	-1.7411904
95	0xbf43f0a6	-0.76539075
96	0xbdb4445e	-0.088021025
97	0x3e8a0e05	0.2696382
98	0xbc2b5f1d	-0.0104596885
99	0x3e06d221	0.13166095
100	0x3ea5486f	0.32281825
101	0x3f385f81	0.7202073
102	0x3f8295da	1.0201981
103	0x3f3b10ef	0.73072714
104	0xbf9ce0fe	-1.2256162
105	0xbed5eb9c	-0.41781318
106	0x3f2b9a46	0.6703228
107	0xbe29c6cc	-0.16579741
108	0x3e859572	0.2609058
109	0xbcef04bf	-0.029177068
110	0xbe9f9749	-0.3117011
111	0x3eab6acf	0.33479926
112	0x3e90140a	0.2814029
113	0x3e61f1a1	0.2206483
114	0x3efe7b47	0.49703428
115	0x3eb5db8d	0.35519066
116	0x3c9038dc	0.017605238
117	0xbe1e4ef2	-0.15459803
118	0xbeba149d	-0.36343852
119	0x3eb7682f	0.35821673
120	0xbe373635	-0.17891772
121	0x3eabec71	0.33578828
122	0x3f6c4b54	0.9230244
123	0xbeef00dc	-0.46680343
124	0x3e3d3a9d	0.1847939
125	0x3d16c9ff	0.036813732
126	0x3e8800df	0.26563165
127	0x3ea9e3c6	0.3318159

bias f4 [32]
0	0x3f4cc545	0.7998851
1	0x3f93c552	1.1544592
2	0xbd4d0996	-0.05005797
3	0x3f44d34e	0.76884925
4	0xbea6a503	-0.3254777
5	0x3f95b218	1.1694975
6	0xbf16f24d	-0.5896347
7	0x3f906658	1.1281233
8	0x3f767bd2	0.96282685
9	0xbea16223	-0.31520185
10	0xbec8cb61	-0.39217666
11	0x3f759d4e	0.9594315
12	0x3f06252f	0.5240049
13	0xbef35309	-0.47524288
14	0x3f5774d8	0.84162664
15	0x3f707c3c	0.93939567
16	0x3edd51dd	0.4322652
17	0xbef33a2e	-0.47505325
18	0x3f9aae32	1.208441
19	0xbe80c702	-0.2515183
20	0x3f344b47	0.70427364
21	0x3f82fa7f	1.0232695
22	0xbe0c7090	-0.13714814
23	0xbdededb3	-0.11617603
24	0xbf0dcc16	-0.55389535
25	0xbe967a4e	-0.29390186
26	0xbde336fc	-0.11094472
27	0x3f385acc	0.72013545
28	0x3f63e192	0.8901607
29	0x3f876c43	1.0579914
30	0x3f1a7a82	0.6034318
31	0x3f8ef9c4	1.1169972

weight f4 [32, 32]
0	0x3f2c71a3	0.67360896
1	0x3f3cacf1	0.7370139
2	0xbfb59f75	-1.4189287
3	0x3ec3e69c	0.38261878
4	0x3d0d8fd6	0.034561
5	0x3f00eab5	0.50358135
6	0xbf055246	-0.52078664
7	0x3f012d96	0.50460184
8	0x3f3567fd	0.708618
9	0xbf136ac7	-0.57584804
10	0xbf5e7fb6	-0.8691362
11	0x3f476a00	0.7789612
12	0x3ed1d2fd	0.40981284
13	0xbeabaa60	-0.33528423
14	0x3ec66b04	0.3875352
15	0x3eb976dc	0.36223495
16	0x3e984a44	0.2974416
17	0x3dfd8719	0.123792835
18	0x3f34698d	0.7047356
19	0xbe981bcb	-0.29708704
20	0x3f298bd6	0.66229
21	0x3f223bd0	0.63372517
22	0xbf9473a3	-1.159779
23	0xbf5edce3	-0.87055796
24	0xbc9dbb97	-0.019254489
25	0xbf00cd25	-0.50313026
26	0xbf2ca599	-0.6744018
27	0x3ea7eb24	0.32796586
28	0x3ee9db31	0.45675042
29	0x3eeee5c4	0.46659672
30	0x3ebc42b2	0.36769634
31	0x3f10c548	0.5655103
32	0xbd461039	-0.048355315
33	0xbdcc8b88	-0.09987551
34	0xbcaf7840	-0.021419644
35	0xbe808983	-0.25104913
36	0x3d638b6e	0.055552892
37	0xbe58e1f8	-0.2117995
38	0x3c3e66e9	0.011621215
39	0x3dd96dc6	0.10616641
40	0xbe48f9dc	-0.19626564
41	0x3e1f6af9	0.1556815
42	0x3de1bdca	0.110225275
43	0xbe1fafb0	-0.15594363
44	0x3d092e07	0.03349116
45	0xbe176110	-0.1478312
46	0xbe7323ae	-0.2374408
47	0x3dce7459	0.10080785
48	0xbe102265	-0.1407562
49	0x3c8de3d8	0.017320558
50	0x3cca5f86	0.024703752
51	0xbd7313a5	-0.059344906
52	0xbe0c515e	-0.13702914
53	0x3d306527	0.043065216
54	0x3d12b270	0.035814703
55	0xbe53097a	-0.20609084
56	0xbcbe8708	-0.023257747
57	0xbd0445bc	-0.032293066
58	0xbe0c16dd	-0.13680597
59	0xbda10ce5	-0.078637876
60	0xbdcf33af	-0.1011728
61	0x3d2122e5	0.03933992
62	0xbdfd8650	-0.12379134
63	0xbe74ca81	-0.23905374
64	0x3f06ea8a	0.5270163
65	0x3f1f7ac4	0.622967
66	0xbf9f4c94	-1.2445245
67	0x3ee1d91a	0.44110948
68	0x3d443a37	0.04790708
69	0x3f269725	0.6507438
70	0xbf00a5c3	-0.5025293
71	0x3f3f771f	0.7479114
72	0x3ef96fc5	0.48718086
73	0xbf230e92	-0.6369411
74	0xbf8f265b	-1.118358
75	0x3f4b0c55	0.7931569
76	0x3e899a78	0.26875663
77	0xbf09c0e4	-0.5380995
78	0x3ed79e5b	0.42113003
79	0x3eb9f9c6	0.36323375
80	0x3e92e9fd	0.28694144
81	0xbba3dd8d	-0.005000776
82	0x3eeb555f	0.4596357
83	0xbf1992f2	-0.59989846
84	0x3f4a8671	0.7911139
85	0x3f4bd08a	0.7961508
86	0xbfa02263	-1.2510494
87	0xbfa123aa	-1.2589009
88	0x3da21f07	0.07916074
89	0xbf32d514	-0.6985638
90	0xbf6e93bf	-0.9319419
91	0x3e30a49f	0.17250298
92	0x3eebe877	0.46075794
93	0x3f0f185b	0.5589654
94	0x3ed37508	0.41300225
95	0x3f0dfa7c	0.55460334
96	0x3f3ff5b4	0.7498429
97	0x3ec1ec01	0.3787537
98	0xbf9ab57f	-1.2086638
99	0x3f3420ac	0.70362353
100	0xbd41d940	-0.047326326
101	0x3f3e4241	0.74319845
102	0xbeb0ae7a	-0.34508115
103	0x3f028534	0.509845
104	0x3ee0e3d4	0.4392382
105	0xbf1f5226	-0.62234724
106	0xbf424ab6	-0.7589525
107	0x3f42d281	0.76102453
108	0x3ed80ac7	0.42195722
109	0xbf0b7f55	-0.5449117
110	0x3ec6e78e	0.38848537
111	0x3f1ecf2f	0.6203489
112	0x3da52f8c	0.080657095
113	0xbd9d9a20	-0.07695413
114	0x3f44c8fb	0.7686917
115	0xbe70db69	-0.23521198
116	0x3f215cae	0.6303204
117	0x3f36e549	0.7144361
118	0xbf9d1d08	-1.2274485
119	0xbf89806d	-1.0742317
120	0x3db96b36	0.09053652
121	0xbec6bc38	-0.38815475
122	0xbf58c47e	-0.84674823
123	0x3efeb962	0.4975081
124	0x3f421caf	0.7582502
125	0x3f29f470	0.6638861
126	0x3e346222	0.1761556
127	0x3f12531b	0.5715806
128	0x3f45df91	0.7729426
129	0x3f317926	0.6932548
130	0xbfaaad02	-1.3334048
131	0x3f1fd57d	0.6243513
132	0x3dd1e37a	0.10248466
133	0x3f434903	0.7628328
134	0xbe8f46aa	-0.279836
135	0x3f3b1f15	0.730943
136	0x3f0fbd27	0.56148
137	0xbe9def23	-0.3084651
138	0xbf55adde	-0.83468425
139	0x3f3cbc54	0.73724866
140	0x3ee3d193	0.4449583
141	0xbf110841	-0.5665322
142	0x3ec5602e	0.38549942
143	0x3eaac6c9	0.33354786
144	0x3e82933c	0.25502956
145	0xbe163b2d	-0.14671011
146	0x3f1efd10	0.6210489
147	0xbeaabc90	-0.33346987
148	0x3f4afa1e	0.792879
149	0x3ee909e3	0.45515355
150	0xbf83c1d9	-1.0293533
151	0xbf6de550	-0.9292803
152	0x3dd39775	0.103316225
153	0xbf0e7ef8	-0.5566249
154	0xbf6e5b82	-0.9310838
155	0x3eb68686	0.35649508
156	0x3ed8194b	0.42206797
157	0x3ef473ae	0.47744507
158	0x3f042fd8	0.51635504
159	0x3f27372f	0.6531858
160	0x3d2040b3	0.039124202
161	0xbd2a4f7a	-0.0415797
162	0x3dc7d63e	0.0975766
163	0xbcdb80e7	-0.026794864
164	0x3c8f5383	0.017495876
165	0xbdafc752	-0.08582939
166	0xbd934aa0	-0.07191968
167	0xbdc833b3	-0.09775486
168	0x3d656985	0.056008834
169	0xbe887a2b	-0.26655707
170	0xbe62abb3	-0.2213581
171	0x3d6a4c0f	0.05720144
172	0x3ca9f3e8	0.020746186
173	0xbe77a252	-0.24183014
174	0xbd480347	-0.04883125
175	0xbe896eee	-0.26842445
176	0x3bf66d88	0.0075203814
177	0x3dea7f42	0.11450054
178	0xbdf832d8	-0.12119073
179	0xb7a7e5fb	-2.0015044e-05
180	0xbcda1561	-0.026621522
181	0xbe0206cd	-0.12697907
182	0x3bd8b1b0	0.006612979
183	0xbd934f54	-0.07192865
184	0xbe8b8fe0	-0.27258205
185	0xbe3ee42d	-0.1864173
186	0xbdb9fb33	-0.090811156
187	0xbd068609	-0.03284267
188	0xbe425cb0	-0.1898067
189	0xbd9cf3f8	-0.07663721
190	0x3ca10ea2	0.019660298
191	0xbe7ada62	-0.24497369
192	0x3cd8c72c	0.02646216
193	0xbe809528	-0.25113797
194	0xbd5cdcf6	-0.053921662
195	0xbde791f5	-0.11307136
196	0xbe0a1f76	-0.13488564
197	0xbc63f3e8	-0.013913132
198	0xbddbcc6c	-0.1073235
199	0xbd9aa57b	-0.07551094
200	0xbe8f4fc7	-0.27990553
201	0xbc46ab86	-0.012125855
202	0xbde26ff9	-0.11056513
203	0xbdeed930	-0.11662519
204	0xbc77f118	-0.015133165
205	0xbbbd1900	-0.0057708025
206	0xbe83e767	-0.25762483
207	0xbe405e0c	-0.18785876
208	0xbe07ea10	-0.13272882
209	0xbd8ac5c9	-0.06776006
210	0xbda1a68b	-0.07893094
211	0xbb5e9a00	-0.0033966303
212	0xbb5bed77	-0.0033558288
213	0xbe875ed4	-0.26439536
214	0xbe04ab78	-0.12956035
215	0xbcfd96c0	-0.030955672
216	0x3d3107b0	0.043220222
217	0x3dbd1cf6	0.092340395
218	0x3d3f18f0	0.04665464
219	0xbe015387	-0.1262952
220	0xbe5fe87e	-0.21866032
221	0x3e15907b	0.14605896
222	0xbe019f02	-0.12658313
223	0xbe7dddd3	-0.2479165
224	0x3da650a8	0.08120853
225	0xbe5e2262	-0.21692804
226	0x3de1df66	0.11028938
227	0xbe193cca	-0.14964595
228	0xbde68001	-0.112548836
229	0xbd80602c	-0.06268343
230	0xbdb76d83	-0.089564346
231	0xbe79c679	-0.24392118
232	0xbe118f93	-0.14214925
233	0xbdecf9ac	-0.11571059
234	0xbe18de54	-0.14928561
235	0xbe6a525f	-0.22882985
236	0x3d8179d6	0.063220665
237	0xbd2dbcff	-0.04241657
238	0x3ba7162c	0.0050990786
239	0x3d4edffb	0.050506573
240	0xbdaa3afd	-0.08312032
241	0xbded1cee	-0.115777835
242	0xbdba77eb	-0.09104904
243	0x3da18171	0.07886017
244	0xbddef630	-0.108868
245	0xbe283e2c	-0.16429967
246	0x3df248b6	0.11830275
247	0xbd809818	-0.062790096
248	0x3deebde2	0.11657311
249	0xbd9d1c55	-0.076714195
250	0x3ca782b8	0.020448074
251	0xbbef9681	-0.0073116426
252	0x3db326ce	0.08747636
253	0xbe334d50	-0.17509961
254	0x3df762ea	0.12079413
255	0xbd657fa2	-0.056029923

bias f4 [32]
0	0x3f121b56	0.5707296
1	0xbd9dbb27	-0.07701712
2	0x3ed14974	0.40876353
3	0x3f2a5bff	0.66546625
4	0x3ed15ce9	0.40891197
5	0xbc47b0e9	-0.012188175
6	0xbe02e95b	-0.1278433
7	0xbcc5ec37	-0.024160488
8	0xbc041fbd	-0.008064208
9	0x3d3a3be1	0.04546726
10	0x3d5f10be	0.054459326
11	0xbcc008f0	-0.023441762
12	0x3dd0a66f	0.10187995
13	0xbe00c35b	-0.12574522
14	0x3ebd5190	0.3697629
15	0x3f04788a	0.5174643
16	0xbe0c02a9	-0.1367289
17	0x3dda6b29	0.106649704
18	0x3f3b07dc	0.7305887
19	0xbdce52f4	-0.10074416
20	0x3ebfb2b4	0.37441027
21	0xbe6982eb	-0.22803847
22	0x3ece1ed2	0.4025789
23	0x3f2d5497	0.677072
24	0xbe347323	-0.17622046
25	0xbe2df919	-0.16989554
26	0xbdab6bda	-0.083701804
27	0xbbc99d09	-0.0061527533
28	0xbd9036bc	-0.0704169
29	0xbe6b637d	-0.2298717
30	0xbc50166e	-0.01270066
31	0x3f167553	0.5877277

weight f4 [2, 32]
0	0x3e6a4f33	0.22881775
1	0xbde46287	-0.11151605
2	0x3e59bb77	0.21262918
3	0xbe4605e9	-0.19338192
4	0x3e5f59cb	0.21811597
5	0xbd63864f	-0.05554801
6	0x3e729cb7	0.23692594
7	0xbe2ffe4b	-0.17186849
8	0xbd9c9e11	-0.07647336
9	0xbda87d42	-0.08227016
10	0x3e085ed6	0.13317427
11	0x3d5575e4	0.052114382
12	0x3d728986	0.059213184
13	0x3d22069c	0.039557084
14	0xbe9a4d12	-0.30136925
15	0x3ec6f976	0.388622
16	0x3e8c1517	0.2735984
17	0x3f597768	0.84947824
18	0xbe7bd3ce	-0.24592516
19	0x3d8549b4	0.065081984
20	0xbd23c640	-0.039983988
21	0x3dc17bce	0.09447442
22	0x3e6e3a12	0.2326434
23	0xbd5f52af	-0.054522213
24	0xbdcf3150	-0.101168275
25	0xbc98e84e	-0.018665459
26	0xbe9f381c	-0.31097496
27	0xbd64dc41	-0.055874113
28	0xbe0cdba1	-0.13755657
29	0xbf7470ee	-0.9548482
30	0xbd87aa7c	-0.06624314
31	0xbe538e26	-0.20659694
32	0x3cccb795	0.024989882
33	0xbd5abbe8	-0.053401858
34	0xbe47ced2	-0.1951249
35	0x3d187950	0.037225068
36	0xbe568af5	-0.20951445
37	0xbd8c9fe7	-0.068664365
38	0x3d457454	0.048206642
39	0xbd2bc7ca	-0.04193858
40	0xbd8d530d	-0.06900606
41	0x3e79fab4	0.24412042
42	0xbe216b7f	-0.15763663
43	0x3c0be000	0.0085372925
44	0xbd83e6d3	-0.064405106
45	0xbe45afd6	-0.19305357
46	0x3e60556b	0.21907584
47	0xbd50b80f	-0.050956782
48	0xbccc6d85	-0.024954567
49	0xbf444834	-0.76672673
50	0x3e68962e	0.22713539
51	0x3e4cad77	0.19988047
52	0xbd49db0d	-0.04928117
53	0x3cc2f855	0.023800055
54	0x3b8e596a	0.004344155
55	0xbe04b4d0	-0.129596
56	0xbdbc751e	-0.09202026
57	0x3c85aa47	0.016316546
58	0x3e111870	0.14169478
59	0x3b3c53f6	0.0028736568
60	0x3e9013b9	0.28140047
61	0x3f775158	0.96608496
62	0x3e292e12	0.1652148
63	0x3e6d436e	0.23170254

bias f4 [2]
0	0xbc94da7c	-0.018170588
1	0x3d6722b9	0.0564296

weight f4 [1, 32]
0	0x3f5775ca	0.84164107
1	0xbc2f8107	-0.010711915
2	0x3f5d96fb	0.865585
3	0x3f5316ba	0.82456553
4	0x3f56cb6e	0.8390416
5	0x3d259db9	0.04043362
6	0x3d640523	0.05566896
7	0x3d52e1ef	0.051485
8	0xbc1c2d3c	-0.009532269
9	0xbba4ab09	-0.005025272
10	0xbcd6365b	-0.026148966
11	0xbd563fbc	-0.052306876
12	0xbcabbc2b	-0.020963749
13	0xbd05eb92	-0.03269536
14	0x3f63ce72	0.88986886
15	0x3f4719cd	0.77773744
16	0x3c2eea95	0.010676046
17	0x3e35e420	0.17762804
18	0x3f4589c0	0.77163315
19	0xbddcdd5b	-0.10784408
20	0x3f927c6d	1.1444222
21	0xbd1f8cb7	-0.038952556
22	0x3f550bea	0.83221304
23	0x3f6228f4	0.8834374
24	0x3d2c2a3e	0.042032473
25	0xbdf89c38	-0.12139171
26	0x3b9e20b7	0.0048256773
27	0xbdb54d2b	-0.08852609
28	0x3c1f4512	0.0097210575
29	0xbf9f1286	-1.2427528
30	0xb9a6d336	-0.00031819352
31	0x3f673f5f	0.9033107
