data/PPO_runs/20220509-135845/model.pth (torch, 8399 bytes, 7 tensors)

weight f4 [32, 4]
000000 56 fb b8 3e 92 f2 cd 3c ca ac 5b bf 1a 43 63 be
       0.36129254 0.02514008 -0.8581053 -0.22193566
000010 f2 81 43 ba f4 d7 ce 3c 1d 02 62 3f 31 43 b5 3e
       -0.0007458023 0.025249459 0.88284475 0.35402825
000020 bc 5b 6a be bf d1 66 bf 75 75 01 bf 80 c7 d0 be
       -0.22886556 -0.901638 -0.5056985 -0.40777206
000030 4d 8f 9d be 64 e2 a9 3e b3 16 4e 3e a1 8b aa be
       -0.30773392 0.33180535 0.20125847 -0.33309653
000040 20 8e 7a be df ae 58 3e 8f 99 ab 3e 2e 7e 4d 3e
       -0.24468279 0.21160458 0.33515593 0.20067665
000050 07 e9 8f 3e 28 df c4 be 5b 49 26 bf 42 07 54 3e
       0.28107473 -0.38451505 -0.6495568 0.20705894
000060 3c 32 1b 3e 73 4f 38 be d9 fa 23 be 74 95 93 3d
       0.15155882 -0.17999057 -0.1601366 0.0720624
000070 f2 84 7c bf 94 56 b7 be e0 07 83 bf 09 ec 64 be
       -0.9864036 -0.3580824 -1.0236778 -0.22355665
000080 83 0d 28 3e 11 a8 f8 3d c3 bf d9 be 23 33 c0 be
       0.16411404 0.12141431 -0.42529115 -0.37539014
000090 f6 f7 5f be 84 af 22 3f ab ed 55 3f b6 5a 0b bf
       -0.21871933 0.63549066 0.8356578 -0.5443529
0000a0 ea c9 8c 3e 54 ff 75 bd 3c db 3f be 02 31 43 3e
       0.27497798 -0.060057953 -0.18735975 0.19061664
0000b0 85 fe 4e be 4a 49 ac 3e fc 04 bf 3e c3 25 c4 be
       -0.20214279 0.33649665 0.3730849 -0.3831006
0000c0 28 ad 9a 3e 35 82 65 be ef 52 83 be 00 4d b1 be
       0.30210233 -0.22412951 -0.2564921 -0.3462906
0000d0 20 d2 fb bc 96 be 5b bd 85 75 98 3e d8 22 86 3e
       -0.030739844 -0.053648554 0.2977716 0.2619846
0000e0 0b 6a 46 3f 17 79 bc 3e d9 9e 83 3f f6 dd de 3e
       0.7750556 0.36811134 1.0282851 0.43528718
0000f0 66 7a 95 3e 21 1b a5 3e 64 be 9f bf fe 62 de bd
       0.29194945 0.3224726 -1.2479978 -0.10858725
000100 03 50 1c bd 47 22 3c 3d 2e 71 84 bd cf e8 b0 3e
       -0.038162243 0.045931127 -0.064669 0.3455262
000110 a4 c8 58 be e7 8a 22 bf 64 ab 85 3f e7 13 61 3e
       -0.21170288 -0.634932 1.0442929 0.21980248
000120 ee cc 49 be e5 52 b0 3e 75 ee d3 3f d6 22 9a 3e
       -0.1970708 0.34438244 1.6557146 0.30104703
000130 4b 7e 5e 3d 00 8b 80 3e 5d 86 d6 3e 9e 6e dc 3e
       0.05431966 0.2510605 0.41899386 0.43053144
000140 2f 62 98 3e 13 7b ff 3e 0e 9d 64 3f 4d 71 17 3e
       0.29762408 0.49898586 0.89302146 0.14789315
000150 ae 4d 20 3f 06 3c 40 3f 0f 81 57 3e 57 5e 0f 3f
       0.6261853 0.7509159 0.21045326 0.56003326
000160 42 74 75 3d 2b bc 18 bd dd ed e9 bd 49 84 13 3e
       0.059925325 -0.037288826 -0.11422322 0.14405932
000170 7a e4 7e 3d f3 b0 6a be 7f 2f f9 be 41 8a 6f 3e
       0.06222961 -0.22919063 -0.4866905 0.23392583
000180 73 a2 03 be 90 ce 68 3e 38 d5 a7 3f 56 5f ec 3e
       -0.12854938 0.22735047 1.3111944 0.46166486
000190 3d 5b 0d 3e 7b 3f fd be f9 48 3b 3f 01 f7 9f be
       0.13804336 -0.49462494 0.7315822 -0.31243137
0001a0 14 50 e5 3e 59 42 6d 3d 26 ed 2a 40 52 36 02 3e
       0.44787657 0.057924602 2.6707244 0.12716034
0001b0 ae 72 54 3e d0 0c 1e 3f 74 40 02 3e d2 39 8a 3e
       0.20746872 0.617383 0.127199 0.26997238
0001c0 e6 48 b2 3e d9 b5 d6 be b3 81 14 bf aa b1 4a 3b
       0.34821242 -0.41935614 -0.58010405 0.003092865
0001d0 c8 05 df 3c d7 f5 fe 3e 78 ea 20 3f c8 ab dd bd
       0.027224436 0.49796936 0.6285777 -0.1082378
0001e0 5f 71 84 bd 5e 2a 10 3f 26 8c 9b bc b0 97 8c 3e
       -0.06466936 0.5631465 -0.018987726 0.27459478
0001f0 37 2f de 3d 92 32 c8 3e 80 8e f8 3f 64 a0 c4 3e
       0.10848849 0.39101082 1.9418488 0.38403618

bias f4 [32]
000000 a4 69 be be a3 5e 67 3f 18 60 b4 bd f4 3a 72 3f
       -0.37189972 0.9037878 -0.08807391 0.94621205
000010 3c ad 52 3f 03 69 31 3f b4 50 2b 3f 0f 7a 02 be
       0.82295585 0.6930086 0.6692002 -0.12741874
000020 59 64 90 3f 7c a6 02 3f 00 ad 7e 3f 2a 8b 88 3f
       1.1280624 0.51035285 0.9948273 1.066747
000030 9a 13 63 3f 68 09 6c 3f 73 d1 90 be 91 c1 17 bf
       0.88701785 0.9220185 -0.28284797 -0.59279734
000040 b5 d2 50 3f a8 bd 0e bf a5 c4 5b 3f 1a f2 80 3f
       0.81571513 -0.5575814 0.8584693 1.0073884
000050 ca c6 df be d6 76 96 be 56 44 88 3f 64 58 7e 3f
       -0.43706352 -0.2938754 1.0645854 0.99353623
000060 43 91 6c 3f f7 7e 6d 3f 63 3b 85 bd 14 26 16 bf
       0.9240915 0.9277186 -0.06505468 -0.5865185
000070 b0 4b 17 3f 04 e0 53 3f b2 1e a5 bd f1 e8 c4 bc
       0.59099865 0.82763696 -0.08062495 -0.024036856

weight f4 [32, 32]
000000 90 7f 29 bf 36 f0 9a 3e c9 4e aa be 8f b4 e4 3e
       -0.6621027 0.3026139 -0.33263233 0.44669005
000010 ac ca fe 3e 4d a4 b3 3e 3a 5a ac 3e d1 01 20 bf
       0.49764 0.3508629 0.33662587 -0.6250277
000020 e3 45 dd 3e 6b cb 10 3e b6 70 f9 3e b8 cc b6 3e
       0.43217382 0.14140098 0.48718804 0.35703063
000030 13 17 26 3f 8c 82 38 3f 3f 04 1a bf 84 ac 8f be
       0.6487896 0.720742 -0.6016273 -0.28061306
000040 54 26 1b 3f 62 c1 e0 be 08 74 17 3f 8c 69 22 3f
       0.6060536 -0.4389754 0.59161425 0.634423
000050 fb 9e a4 bc e0 c1 1c bf ec 4a 0f 3f 86 74 2b 3f
       -0.020095339 -0.6123333 0.55973697 0.66974676
000060 46 4a 1d 3f 23 c5 ee 3e f5 4b 00 bf 9c f6 c6 be
       0.6144146 0.46634778 -0.501159 -0.38860023
000070 4e aa 66 3e 19 04 ac 3e bb e4 ac bc 57 40 4a bf
       0.22525904 0.33596876 -0.021105161 -0.79004425
000080 9b 46 06 3e 53 a9 39 be ee dc b3 bd 77 22 35 be
       0.13112871 -0.18130998 -0.08782373 -0.17688929
000090 9c df e6 b8 c5 f9 98 3d 0b c1 9d 3d da 0c 1a be
       -0.00011008905 0.07469515 0.07702836 -0.15043965
0000a0 3f 38 08 be 86 f9 5b bd 96 92 26 3d 26 7a c3 bc
       -0.13302706 -0.05370476 0.04066714 -0.023861956
0000b0 1a e9 51 be b4 15 25 be 26 52 ba ba 22 35 36 be
       -0.20499077 -0.1612156 -0.0014215156 -0.17793706
0000c0 d7 85 25 be 93 73 b7 3d ef 95 37 bd ef 52 42 be
       -0.16164337 0.08957591 -0.044820722 -0.18976949
0000d0 66 c7 b9 bd 56 8c 92 3d 14 bc fc 3c fb 34 75 be
       -0.09071235 0.07155673 0.030851401 -0.23945992
0000e0 d0 a9 ac 3d 12 f6 1b 3d da 8a 29 be 1e b5 fc 3d
       0.08430827 0.038076468 -0.16556874 0.12339233
0000f0 d5 fd 5a be 3c 69 b4 bc 59 83 29 3e 2a 42 87 3d
       -0.21385892 -0.022022836 0.16554011 0.06604417
000100 d2 3b b2 3c 9c 3a d0 bc a9 9c 1d 3e 4e ab cf bd
       0.02175704 -0.025418572 0.15391792 -0.10140096
000110 3a 82 c5 3d c6 d7 10 be 40 ac 1e bd 9d 9b 1d be
       0.09643979 -0.14144811 -0.03873849 -0.15391393
000120 57 3b de 3d 75 aa 03 3e d4 e0 d1 3c 25 b8 5a be
       0.10851162 0.12857993 0.025619902 -0.21359308
000130 86 1c e9 3c bf 29 8d 3d 01 1d 4e be 87 7c 2a 3e
       0.028455984 0.06892728 -0.20128252 0.16649066
000140 3b 93 b9 3d 47 ab bc bd 48 9f c2 3c a3 4e 3e be
       0.09061285 -0.09212356 0.023757592 -0.18584685
000150 01 c4 99 bd c8 0a a2 bc cc 37 e2 bd 81 a8 22 bd
       -0.07508088 -0.019780532 -0.11045799 -0.03971148
000160 64 a8 5e be 64 c2 a9 3c 1b 80 b7 bc 44 07 2c 3d
       -0.21743923 0.020722575 -0.022399953 0.041999117
000170 de 6d d8 ba 60 8b a0 3b 1a 38 da 3d c0 69 88 bc
       -0.0016512235 0.0048994273 0.10655232 -0.016651988
000180 b9 99 04 bf e6 59 ba 3d 3b a7 13 be fa d6 bf 3e
       -0.5179706 0.09099178 -0.14419262 0.37468702
000190 a7 bc c8 3e 04 f7 7f 3e 95 fa 99 3e 27 08 38 be
       0.3920643 0.24996573 0.3007399 -0.1797186
0001a0 79 57 01 3f b7 8d c1 3e 77 84 f4 3e bc 2e 1b 3f
       0.505241 0.37803432 0.47757313 0.60618186
0001b0 14 52 2d 3f 1a 01 be 3e 03 fb 95 be 4f 20 dd be
       0.67703366 0.37110215 -0.2929307 -0.43188712
0001c0 f3 c5 d6 3e 28 0d cc be bb b1 58 3e 77 9c ae 3e
       0.41947898 -0.39853787 0.21161549 0.34103748
0001d0 a6 6d 8b be 02 e0 a8 be a3 a4 00 3f 43 cf 16 3f
       -0.27232093 -0.32983404 0.50251216 0.58910006
0001e0 d1 9a 81 3e 84 56 16 3f 08 c2 50 bf eb 9f d4 be
       0.25313428 0.5872576 -0.8154607 -0.41528258
0001f0 d6 b1 f1 3e 4d 40 11 3f 26 cd 77 be e6 71 5a bf
       0.4720599 0.5673874 -0.24199352 -0.85330045
000200 ed 50 49 be c3 02 3b be c9 57 43 bd 97 a4 19 bd
       -0.19659777 -0.18262772 -0.04769114 -0.03751048
000210 33 47 56 be ea 23 63 be cb 22 8b 3d d3 67 9e 3b
       -0.20925598 -0.22181669 0.067937456 0.004834154
000220 da 40 37 be f8 d7 9c bc 52 da 4c 3d f3 d4 8a be
       -0.17895833 -0.01914595 0.050012894 -0.27115592
000230 37 6c 19 3d 93 08 22 be 8b af 4c be 40 4b 6a be
       0.037456717 -0.15823583 -0.1998884 -0.22880268
000240 d8 03 0c 3d e0 a7 81 be 3b 9c 87 bd 42 61 79 3d
       0.034183353 -0.2532339 -0.066215955 0.060883768
000250 c2 14 41 be 64 d7 04 be 34 cd ed bd 08 91 72 bc
       -0.18855575 -0.1297279 -0.11611405 -0.014805086
000260 88 56 87 be 50 c8 1b 3d 1c 8e 2c 3b 96 c0 2d be
       -0.26433206 0.03803283 0.002632982 -0.16967997
000270 9a 06 4a be ec f1 21 be 14 31 00 be b8 26 ea 3c
       -0.19729081 -0.15814942 -0.12518722 0.028582916
000280 b1 84 d0 be fa e7 2a 3e f8 d2 17 3e 6b 83 2e 3f
       -0.40726236 0.16690055 0.14826572 0.6816928
000290 6c d1 b8 3c 81 ba 76 3e ed c6 04 3e cd 47 04 be
       0.022560798 0.24094583 0.12966509 -0.12918015
0002a0 05 c0 34 3f c8 0c f0 3e 85 9a ce 3e 59 fa 12 3f
       0.706055 0.4688475 0.40352264 0.5741325
0002b0 62 81 0d 3f fe 59 ff 3e 6d af ab be e7 cd be be
       0.5527555 0.49873346 -0.33532277 -0.37266466
0002c0 51 98 d4 3e 55 3c b7 be 33 61 1f 3e e9 42 03 3f
       0.41522458 -0.35788217 0.15564422 0.5127397
0002d0 89 5c 36 be 32 fb 0f bf 40 f3 01 3f d3 7e ce 3e
       -0.17808737 -0.5624267 0.50761795 0.40331134
0002e0 25 d0 47 3e 61 0d eb 3e be 7e 59 bf 6e 93 e1 be
       0.19512995 0.45908645 -0.8495902 -0.44057792
0002f0 dc 28 8a 3e bf 91 d8 3e ac af 2d be 29 24 44 bf
       0.26984298 0.42298695 -0.16961545 -0.76617676
000300 a7 6d d6 be d7 d4 0e 3f cb 66 b6 be fd 04 59 3e
       -0.41880533 0.5579352 -0.356253 0.21193309
000310 05 4e ff 3e aa 52 8c 3e 29 9a bc 3e 4c 7e 15 bf
       0.49864212 0.27406818 0.36836365 -0.5839584
000320 4d 0d 08 3f 95 08 3a 3e e5 4e 28 3f c6 1d d5 3e
       0.53145295 0.18167336 0.65745384 0.41624278
000330 72 e5 de 3e 68 17 0e 3f 99 1a e4 be de 55 d3 be
       0.43534428 0.55504465 -0.44551542 -0.4127645
000340 40 8f 1f 3f 88 f9 e3 be 39 9b 16 3f 34 00 44 3f
       0.6232796 -0.44526315 0.588306 0.7656281
000350 13 8c 2a 3d 1c b9 f1 be 65 e4 04 3f 71 7b 07 3f
       0.04163749 -0.4721154 0.51911 0.5292273
000360 f0 3e 49 3f f6 f4 21 3f d1 4d 30 bf d4 dc 86 bd
       0.7861166 0.63264406 -0.6886874 -0.06585088
000370 be 31 f9 3e 4d 45 27 3f a7 74 e5 bd 50 c8 07 bf
       0.48670763 0.6534012 -0.1120389 -0.5304003
000380 d3 c3 ad be e5 17 a0 3d d2 0c bb 3d 54 36 29 3f
       -0.33938465 0.078170575 0.09133305 0.66098523
000390 56 8b 69 3e e5 5f 78 3e b8 bc 9d 3e ec 03 ad be
       0.22807059 0.24255331 0.30808043 -0.33792055
0003a0 0a 44 26 3f 1b 70 a9 3e 99 e6 e4 3e a9 d6 e3 3e
       0.6494757 0.33093342 0.44707182 0.4449971
0003b0 c5 e6 2f 3f b2 e0 17 3f 67 23 f9 be a3 7c eb be
       0.687115 0.5932723 -0.48659822 -0.45993528
0003c0 62 e6 12 3f b4 d7 fd be d9 86 b2 3e 7e 4c 15 3f
       0.57382786 -0.4957863 0.34868506 0.5831984
0003d0 8f 79 ac be 5d 6d 97 be 76 43 e5 3e 1f 6d 8e 3e
       -0.33686492 -0.29575625 0.4477803 0.27817628
0003e0 e0 21 93 3e 5c b5 e9 3e 80 a4 2c bf 63 64 c2 be
       0.28736782 0.4564618 -0.6743851 -0.37967214
0003f0 bc f5 9c 3e 42 5d 8a 3e b2 17 28 be 81 4e 2c bf
       0.3065623 0.27024275 -0.16415289 -0.6730729

bias f4 [32]
000000 0c d7 22 3f 35 fe 41 bc 02 cb 34 be ea 8c 0b 3f
       0.63609385 -0.011840393 -0.17655566 0.5451189
000010 76 1d 03 bd 80 2e fc 3e 85 6e ce 3e af 68 12 3f
       -0.032010518 0.49254227 0.40318695 0.57190984
000020 c7 c1 0f 3f ad 28 59 be 34 01 16 38 ac d5 b8 3e
       0.56155056 -0.21206923 3.5763907e-05 0.3610052
000030 cc 09 b7 3e b6 38 f7 3e a0 d0 51 be e2 55 d0 bd
       0.35749662 0.48285455 -0.2048974 -0.10172631
000040 f0 dd d1 bd 35 55 98 3e 79 e6 3f be ad 6b b7 3e
       -0.10247409 0.29752508 -0.18740262 0.35824338
000050 80 29 4a bb 87 77 63 3d 12 dd 5d be 77 19 39 be
       -0.003084749 0.055533912 -0.21666363 -0.1807612
000060 3d 0d ef 3e 23 b1 5c be cc 62 0e 3f 3b d2 c8 3e
       0.46689788 -0.21551947 0.556195 0.39222893
000070 74 73 f5 3e a7 19 b3 3e fe 2d 10 3f 20 69 f2 3e
       0.47939646 0.3498051 0.5632018 0.4734583

weight f4 [2, 32]
000000 24 44 60 be 86 06 45 bd 56 de 70 3d 94 8b 74 3e
       -0.21900994 -0.048101924 0.058805786 0.2388137
000010 04 74 3b be 79 21 4f 3e b2 e5 84 bd 4b e5 ec 3d
       -0.18305975 0.20227613 -0.064891234 0.11567172
000020 e5 9d 5d 3e 8c 8e 86 bd 6f 4f b3 3d b0 95 86 be
       0.21642263 -0.065701574 0.08755385 -0.26286077
000030 f2 db cd 3e c8 44 95 be 15 34 97 bd 9d fe 23 be
       0.40206867 -0.29154038 -0.07382981 -0.16015096
000040 8b 9e fb bd e7 a2 ee 3e 9f 54 2d 3e 42 c0 9c be
       -0.12286099 0.4660866 0.16926812 -0.3061543
000050 8e e4 ca 3d 72 f0 1b 3e c1 dc ec bc 34 e6 a5 bd
       0.099068746 0.15228441 -0.028913857 -0.081005484
000060 9f 46 c8 3c 9e 4e 40 bd 6f 7d 81 3c ee dd 6e be
       0.024447737 -0.046949975 0.015806882 -0.23326847
000070 d4 7e 4e bd db 6f 18 3d 1c eb 8e 3e a1 9b 0b be
       -0.05041392 0.03721605 0.2791375 -0.13633586
000080 89 af 0b 3d 3f 81 a8 3d 5b 4c 17 3e fc 62 d0 bc
       0.03410295 0.08227777 0.14775221 -0.025437824
000090 26 05 99 3c 0c c1 82 be dc 70 a9 3e 45 56 04 be
       0.018679213 -0.25537908 0.33093917 -0.12923534
0000a0 6c 0f 66 be 22 3c cf 3b c8 17 06 be 42 3b d7 3d
       -0.2246682 0.006324307 -0.1309501 0.105093494
0000b0 62 b6 f4 be 27 eb 97 3e c9 c9 6e bd 8c e9 0a be
       -0.47795397 0.29671595 -0.058297906 -0.13565654
0000c0 86 84 89 3d 52 2b 9c be 25 3e 74 bd de ae cf 3d
       0.0671473 -0.305018 -0.05962958 0.10140775
0000d0 f5 3c 2e 3e d9 96 12 be 9e f3 fa bc 3e 11 42 be
       0.17015441 -0.14315356 -0.030633744 -0.1895189
0000e0 e1 f8 f7 bd 3f 82 17 3c 05 58 05 3d 10 ec 7d 3e
       -0.12108017 0.009247362 0.032554645 0.24797082
0000f0 ea a5 30 3e 38 85 58 be a4 b9 52 be 31 8b e4 3d
       0.17250791 -0.21144569 -0.20578629 0.11159361

bias f4 [2]
000000 99 1d 2a be b7 bb 0f 3e
       -0.16612853 0.14036451

weight f4 [1, 32]
000000 35 5f 28 3f 8f 85 94 3c 04 a3 b5 3d f9 20 37 3f
       0.65770274 0.018130092 0.088689834 0.7153469
000010 ca 2e 01 bd 2a 06 21 3f 5f 17 27 3f 11 89 2c 3f
       -0.031538762 0.6290003 0.65270036 0.67396647
000020 b9 e6 1d 3f 81 6e 14 bd e6 1f ce bd 78 26 f8 3e
       0.6168018 -0.036238197 -0.10064678 0.4846685
000030 54 2e 0f 3f 30 54 1e 3f 11 d8 7d 3d 78 53 82 3c
       0.55930066 0.6184721 0.061973635 0.015908942
000040 cb bf b3 3c b2 d2 12 3f c1 73 61 bc 03 0e 3a 3f
       0.02194204 0.57352746 -0.013760508 0.7267763
000050 ce 6e c2 bd 5f 9a 40 3d e1 1f b2 bc b3 da 6b bc
       -0.094937906 0.04702222 -0.021743717 -0.014395404
000060 2b 24 3a 3f f7 76 ad bd 4d fd 27 3f ad 83 34 3f
       0.7271144 -0.08469956 0.6562088 0.7051342
000070 56 40 34 3f 2e 97 5b 3f b5 d1 23 3f 06 cf 2c 3f
       0.7041067 0.85777557 0.6399186 0.6750339
