data/20220508-151250/model.pth (torch, 8399 bytes, 7 tensors)

weight f4 [32, 4]
000000 e1 0f 3c 3e e1 fe 91 3e 87 dc 84 3f 53 ed 47 3f
       0.18365432 0.2851477 1.03798 0.78096503
000010 08 ab a9 3e 1d b4 53 bd 34 97 13 3e 75 db 5b 3c
       0.331383 -0.05168544 0.14413148 0.013419022
000020 fd 59 52 bf 22 c4 88 3e 88 53 7b 3f dd ec 61 3f
       -0.8216856 0.26712137 0.98174334 0.8825205
000030 a8 45 e0 bd 36 42 f4 be cc 0b c2 bf d3 b7 3a bf
       -0.10950786 -0.47706765 -1.515985 -0.72936743
000040 f5 f8 06 bf 8a 29 c4 3e 6c c4 c9 3e 28 a9 3b be
       -0.5272363 0.38312942 0.3940767 -0.18326247
000050 9f 37 a0 be 78 bf 98 3d 5a b6 80 3c 90 37 1d be
       -0.31292436 0.07458395 0.015711952 -0.15353227
000060 27 d0 6b 3f 2e aa ac 3d 09 a6 d0 bf 53 fd 09 bf
       0.9211449 0.08430897 -1.630067 -0.5390217
000070 2e a4 12 3d 75 0a 06 3f d8 4d c3 3f 47 38 5a 3f
       0.035801105 0.52359706 1.5258131 0.8524212
000080 8f df 6c be 3c da a6 be 6f 97 a0 bf 95 29 35 bf
       -0.23132156 -0.32588375 -1.2546214 -0.70766574
000090 de 0c 1c bb 21 0e 87 3e 55 f8 ac 3e ea 35 8c 3e
       -0.002381138 0.26377967 0.33783212 0.27384883
0000a0 57 cb 3e be 83 c6 10 3e 8f 1f 90 3e 20 c7 ca 3e
       -0.18632255 0.14138226 0.28149077 0.39605045
0000b0 04 b8 b9 3e 37 c7 05 3f 0f c0 c1 3d b9 ad c0 3e
       0.36273205 0.522571 0.094604604 0.3763254
0000c0 9d 53 4f bf 09 26 c1 3e 43 5d 60 3f c5 d2 31 3f
       -0.8098696 0.3772433 0.87642306 0.69462234
0000d0 ca a8 bb bd d8 c1 85 be 22 9f 8e 3e 35 a8 c4 be
       -0.09163053 -0.26124454 0.27855784 -0.38409582
0000e0 8e d7 35 bc a1 35 5b be 27 96 b4 3e e1 68 70 3c
       -0.0110987555 -0.21407177 0.35270807 0.014673443
0000f0 7d a7 e0 3e 59 e3 eb be 51 cf 75 be 66 f8 ae 3d
       0.43877783 -0.4607189 -0.24004866 0.08543472
000100 43 fd b1 be cf 50 24 be 3e d2 60 3f 7a 57 1c 3f
       -0.34763536 -0.16046451 0.87820804 0.6107098
000110 e3 b7 7f 3e aa 72 fd be 63 13 a6 be 25 da 09 be
       0.24972491 -0.49501544 -0.32436666 -0.13462122
000120 d3 c0 9e be 4d df 7c be ed 72 d0 bf ad 15 1c bf
       -0.31006488 -0.24694557 -1.6285073 -0.60970575
000130 0f ae 46 3e 6c 8f 6f 3e 94 84 b1 be 33 24 70 3e
       0.19402336 0.23394555 -0.34671462 0.23451309
000140 c0 76 67 3e 54 66 f4 bd 66 39 f4 3c 01 a6 cc be
       0.22603893 -0.1193358 0.029812526 -0.399704
000150 2a 15 fb bb d0 cd e3 3e 48 d7 b0 3e fb 9f 2f be
       -0.007662435 0.4449296 0.34539247 -0.17150871
000160 42 3c 8a bd e5 1f 68 be e8 a6 14 bf 71 b7 21 3f
       -0.067497745 -0.22668417 -0.5806718 0.63170534
000170 2d 1d 06 bf 8d 99 a1 be 18 9a fe 3c e7 61 9e 3d
       -0.5238827 -0.31562462 0.031079337 0.07733517
000180 95 91 32 bf 15 54 e7 3d 73 34 29 3f fe a6 c1 3e
       -0.6975339 0.11295334 0.66095656 0.37822717
000190 7b 4a 02 3e 47 97 ea 3d fc 12 09 bd c2 f8 2d 3e
       0.12723725 0.11454635 -0.03346537 0.16989425
0001a0 3d 55 bd 3e a9 d8 3c bf 4a 43 14 bf 1e e0 f3 3e
       0.36979094 -0.737681 -0.57915175 0.47631925
0001b0 6c d4 91 3e 7c 12 0d bf 8a 90 f7 3d dc 35 b2 3e
       0.28482378 -0.5510633 0.120881155 0.34806716
0001c0 5c f2 c5 be 5c 91 7b 3e c8 b3 12 3f 4e 56 ad be
       -0.38661468 0.24567169 0.57305574 -0.33854908
0001d0 d8 10 7e be 48 40 a1 3c 5d 91 7a be 63 f2 68 be
       -0.24811113 0.019683972 -0.24469514 -0.22748713
0001e0 51 5d a2 3e 75 67 c7 bd be 65 3a 3c 12 6f 8e be
       0.3171182 -0.0973653 0.011376796 -0.27819115
0001f0 45 e4 a1 be eb 28 89 3e 9f 8f b3 be c0 f8 9a 3e
       -0.31619468 0.2678903 -0.35070512 0.30267906

bias f4 [32]
000000 72 74 c4 3c da 34 7b 3f 80 78 9f be 72 49 82 be
       0.023981307 0.9812752 -0.31146622 -0.2544666
000010 f9 0c 3e 3f e3 f9 80 3f 1a 2f 13 be 3d 40 5f 3c
       0.74238545 1.0076259 -0.14373437 0.013626155
000020 a9 a0 a0 be 38 7f 73 3f 0d 0c 25 3f eb 5e 52 3f
       -0.31372574 0.95115995 0.64471513 0.82176083
000030 25 76 a1 be 64 cf 73 3f 5d bb 86 3f 22 9b 4a 3f
       -0.3153545 0.9523833 1.0525929 0.79142964
000040 1a 19 8c be 5e f4 2a 3f ae cf c6 be b6 af 7c 3f
       -0.273629 0.66779125 -0.38830322 0.98705614
000050 6f dc 89 3f fc 5d a3 3e b0 1c f3 3e e2 98 27 bf
       1.0770396 0.31907642 0.47482824 -0.65467656
000060 c5 e6 87 be 27 a3 40 3f 28 97 0a 3d 1d c6 cb 3e
       -0.2654325 0.7524895 0.03383556 0.39799586
000070 5e 31 13 3f 5d ef 8d 3f 82 16 57 3f 64 c1 76 3f
       0.57497203 1.1088673 0.8401872 0.9638884

weight f4 [32, 32]
000000 93 51 06 bd 31 5d 37 be 61 ec d0 bd 13 7c 49 be
       -0.03279264 -0.17906643 -0.10201336 -0.19676237
000010 97 51 ff 3b bf 70 c1 bd e0 a2 9a bb 04 11 45 3d
       0.0077917087 -0.09445333 -0.0047191232 0.04811193
000020 2e a3 5b be 2e da 64 be 06 61 bf bc c6 5a 3b bc
       -0.21448967 -0.22348854 -0.023361694 -0.011435216
000030 a2 0b 32 be 7d 89 38 bd 1f 2b 35 be a9 de f6 bd
       -0.1738725 -0.045052994 -0.1769223 -0.12054188
000040 03 7c 1a be 31 f7 1d 3c 38 89 11 be f4 78 6b 3d
       -0.15086369 0.009641455 -0.14212501 0.057488397
000050 a4 81 a3 bd ff fe 28 bb 59 6f 13 be c5 d3 d1 bd
       -0.07983711 -0.0025786755 -0.14397945 -0.1024547
000060 9f da 37 3d e0 f9 07 be 7f b0 f1 3d 10 5e ec bd
       0.044886228 -0.13278913 0.11801242 -0.115413785
000070 e5 e6 88 be f2 83 0d be 41 84 cc bd 72 94 1c be
       -0.2673866 -0.13819864 -0.09986163 -0.15291002
000080 51 a9 1b be 69 e3 1d 3e 1b a6 8f bd c0 00 77 3d
       -0.15201308 0.15418781 -0.07014104 0.06030345
000090 45 85 18 bd 6d 1e 6c be 78 1e 47 bd 20 51 19 3c
       -0.03723647 -0.23058482 -0.04861304 0.009357721
0000a0 42 64 be 3d 50 d3 87 bc 80 1b 1b bd 9e 0f f3 ba
       0.092964664 -0.016580254 -0.037868023 -0.0018544083
0000b0 e8 2a 9b 3c 83 a5 ed bd c2 7f 1b be 88 b6 9b 3c
       0.018941358 -0.116038345 -0.15185454 0.019007936
0000c0 15 59 2e be 80 cd df 3c 9c 0f 7a bd e0 6b 24 be
       -0.1702617 0.02731967 -0.061050043 -0.16056776
0000d0 4d c8 b6 3c 1a 4b 58 be fa ff f8 3d b0 20 2f bd
       0.022312308 -0.21122399 0.12158199 -0.042755783
0000e0 e0 fd e7 bb 46 09 1a be 5d 8e 71 3c d2 fa ff 3d
       -0.007079825 -0.150426 0.014743415 0.12499012
0000f0 4d 36 40 bd b2 97 e4 3d f6 77 cb bd 1a 60 17 be
       -0.046926785 0.11161746 -0.0993499 -0.14782754
000100 8b 8a 9b 3d 6c 9b 63 be 9b bc 02 be a3 22 27 be
       0.07594784 -0.22227257 -0.1276726 -0.16321807
000110 a2 e0 47 3d 44 b2 2d be a9 f6 30 3e 12 fe b1 3d
       0.04879821 -0.16962534 0.17281593 0.08691038
000120 51 30 55 be 24 96 50 be b2 24 b1 bd 96 f5 69 be
       -0.20819212 -0.20369774 -0.08649577 -0.2284759
000130 a1 77 2a 3e 3e 0c 59 bd 57 8c c4 bd ba 5f 6c be
       0.16647197 -0.05299019 -0.0959708 -0.23083392
000140 f2 c9 2c bb bb 37 66 be 15 dc 14 bd 81 ba 2f 3b
       -0.0026365486 -0.22482197 -0.0363427 0.0026814046
000150 5d 6d 2f be da 8e 9a 3c dd 39 e3 bc 90 d6 9f 3d
       -0.17131563 0.018866945 -0.027737552 0.078045964
000160 de f5 2b 3d ee 45 af bd 40 a8 7a 3b 32 7a 9f 3d
       0.041982524 -0.0855826 0.0038247257 0.07786979
000170 8d b6 03 3b be b5 8c 3d 5e f3 5c be 61 a4 22 bd
       0.0020097822 0.06870602 -0.21577212 -0.039707545
000180 6a 74 83 3d 77 33 7c be f1 fe ae bd cf 40 cb bc
       0.064186886 -0.24629007 -0.0854472 -0.024811177
000190 a8 79 05 be 15 82 4d 3c 16 a3 9b 3d 20 73 9b 3c
       -0.1303469 0.012543221 0.075994655 0.018975794
0001a0 ab 4c 0d 3d aa 44 47 3d 10 c8 33 bc 02 d3 f6 bd
       0.034496944 0.048649468 -0.010972992 -0.12051965
0001b0 3a f0 da 3d 3c 30 bf bd 4d 55 74 3d ce 10 1a bd
       0.10690351 -0.09335372 0.05965166 -0.037613682
0001c0 74 ec 57 be 33 27 d5 bc 23 35 b5 3b 2a 23 50 be
       -0.21086293 -0.026019668 0.005530016 -0.20325914
0001d0 f9 f6 78 be fa b0 26 bc 72 42 f5 bd 66 74 83 be
       -0.24312963 -0.01017403 -0.11975564 -0.25674742
0001e0 49 08 07 3d 1f c2 fb bd ba 77 ee 3c 60 2c 8a bd
       0.032966886 -0.12292885 0.029109824 -0.06746745
0001f0 54 41 10 3c 95 5f af bd 5b 7c 72 bc fe e1 71 be
       0.008804638 -0.08563153 -0.0148001565 -0.23621365
000200 d5 bb d5 bd 9a 4c 93 bd 5e 7a b8 3d 0b 4d 08 be
       -0.10436217 -0.07192345 0.09007715 -0.1331064
000210 3c d0 85 be 03 4c df 3b af 18 1b 3e 70 e3 38 3c
       -0.26135433 0.006814481 0.15146135 0.011284694
000220 c7 b8 ab bd 6d c8 24 bd a9 6a 20 be 53 dc 86 be
       -0.08384853 -0.040230203 -0.15665688 -0.2633997
000230 d7 59 c7 bd 1c 03 10 be bd 3b 18 be c8 58 5e be
       -0.097339325 -0.14063686 -0.14866538 -0.21713555
000240 ea f4 f4 3d 51 1e c7 3c 05 29 ab bd ae 90 76 be
       0.11960776 0.024306448 -0.08357433 -0.24078628
000250 a9 bf 8f bd 16 59 83 be 34 85 69 be 6c df 67 bd
       -0.07018978 -0.25653905 -0.22804719 -0.056609556
000260 48 cd cf 3c c2 b7 f8 bd c4 5e 12 3e 32 7e 26 be
       0.02536644 -0.12144424 0.14293963 -0.16259077
000270 af 5e 55 be 45 33 c8 bd cc b7 1a bd da 0c 1a bc
       -0.208369 -0.09775404 -0.03777294 -0.009402478
000280 b3 c3 87 bd 34 83 50 3d e4 8d 7b bd 76 72 65 bc
       -0.066291235 0.050906375 -0.061414614 -0.01400434
000290 8a 63 cf 3d bd 32 d5 3c f1 ab b6 bd 1c 86 1b 3d
       0.101264074 0.02602517 -0.08919514 0.037969694
0002a0 e6 8c 7d 3d dc c7 31 be f1 77 ca bd 6e 7d 3c be
       0.06190195 -0.17361397 -0.09886158 -0.18407223
0002b0 90 e9 0d bc 1d c7 31 bd 63 c0 87 bd e7 eb e4 bd
       -0.008661643 -0.04340278 -0.06628492 -0.11177807
0002c0 d4 4e 45 3d 57 2f 6e be 55 ec 0b be 26 a3 4e be
       0.04817088 -0.23260246 -0.13664372 -0.20179424
0002d0 94 14 2d 3c 2e 79 b2 bd e7 dc 31 3e 73 b1 87 bd
       0.010563988 -0.087145194 0.17369424 -0.06625643
0002e0 2c 4f 79 bd 38 5c f3 bd d3 53 8f bd 63 99 cc bd
       -0.06086652 -0.11882824 -0.0699841 -0.09990194
0002f0 e6 6f 01 be 80 ca 6f be a3 5d fe bd 82 e0 d7 3d
       -0.12640342 -0.23417091 -0.124202035 0.10540868
000300 5c 43 5d bf ce 55 ea 3d 07 07 94 be da 83 9e 3f
       -0.8643091 0.11442147 -0.2891161 1.2383988
000310 c3 65 1c 3e 15 25 cc ba d0 68 79 3f cb 12 02 bf
       0.15273194 -0.0015575016 0.97425556 -0.50809926
000320 ae be 43 3f 32 26 f7 be b2 a6 fe be 3d 33 90 be
       0.7646283 -0.48271328 -0.49736553 -0.28164092
000330 f5 2a 56 3e 46 ff ad 3e b4 9f 77 be 91 a3 45 3c
       0.20914824 0.3398382 -0.24182016 0.012062923
000340 c7 d6 59 be b9 5e 15 3f 84 ee 1d 3f cd ac 26 bd
       -0.21273337 0.5834766 0.6169207 -0.04069214
000350 57 e5 98 3e 45 13 77 be 72 12 72 bd c5 92 31 3e
       0.29862472 -0.24128444 -0.059099622 0.17341144
000360 f8 8b a0 bd 0d 4c 2e be e0 09 d1 3e 21 a4 b0 bd
       -0.07839197 -0.17021199 0.40827847 -0.08625055
000370 16 46 ae 3d 3d c8 90 3d f4 e3 f6 3e 4f 1c 20 be
       0.085094616 0.070694424 0.4822079 -0.15635799
000380 95 5b d4 be b8 e2 2d 3f 08 4f 45 bf 98 65 82 bf
       -0.41476122 0.6792407 -0.7707372 -1.0187254
000390 89 ca f2 3e 72 8f 3d 3f 3b ee 3c bf 75 a1 99 bf
       0.47420147 0.74047005 -0.7380101 -1.2002398
0003a0 57 16 37 bf 51 04 01 3f 49 48 3c 3e e4 f9 7b 3e
       -0.7151846 0.5039721 0.1838695 0.24607044
0003b0 11 2e 57 bf 4b d6 4a 3f a1 ca de 3e 6f 27 d0 3e
       -0.84054667 0.79233235 0.4351397 0.40655085
0003c0 96 2c 17 bf b6 98 e2 3e 6b 64 78 bf 27 6d 3a 3f
       -0.5905241 0.44257134 -0.97028226 0.72822803
0003d0 1d 9c fd 3e 54 20 d2 3e 5b 4e 4c 3e 2d 04 ef be
       0.49533167 0.4104029 0.19951765 -0.46682873
0003e0 b1 fb 33 bf 6f ff 1a 3f 6c f8 a2 3e db 9e 2e 3e
       -0.70305926 0.6054601 0.31830156 0.17052786
0003f0 40 ad d8 3e 33 9f 44 3f 58 fc 16 3f cb 7b e1 3e
       0.4231968 0.7680542 0.58978796 0.4403976

bias f4 [32]
000000 ed c0 8f bc 28 b4 06 be e7 45 c0 3d 7d 40 bb 3c
       -0.017548049 -0.13154662 0.09388333 0.022857899
000010 04 6b 01 3c e9 81 00 be 62 37 84 bc 68 76 d1 3e
       0.00789905 -0.12549557 -0.01613969 0.4091065
000020 87 84 d0 3e 00 56 e5 3e d0 8c 8b 3d 87 03 19 3f
       0.4072611 0.44792175 0.06813967 0.5977101
000030 4f e4 1f 3f d6 44 e1 3c 2f 35 1d bd 27 a8 a6 bd
       0.62457746 0.027498644 -0.038380798 -0.08137541
000040 2d 88 9b bd bc 2f f4 3e d5 bd 24 3f d8 3d 60 be
       -0.07594333 0.47692668 0.6435216 -0.21898592
000050 fc 64 e1 bd 17 88 1c be ae c9 2d 3f 27 3a fc bd
       -0.11005589 -0.15286289 0.67885864 -0.12315779
000060 88 58 71 bd 99 14 18 3f 01 7e 15 be 5f 36 d4 bd
       -0.05892232 0.5940643 -0.14598848 -0.10361933
000070 31 59 05 3f b0 12 01 3f 89 2b 0e 3f bc 5d 8a 3c
       0.5208922 0.5041914 0.5553518 0.0168904

weight f4 [2, 32]
000000 5d c2 18 3e 33 6a 03 bd 91 79 bf bd fc d8 c4 3b
       0.14917894 -0.0320837 -0.09349359 0.006007312
000010 01 d6 88 bd 57 e3 10 3e c3 bb 6e 3f 42 9e 12 bc
       -0.06681443 0.14149223 0.9325525 -0.008948864
000020 12 be 66 be 63 0a 8c 3e 8e fb c7 3d aa 0d 21 3e
       -0.22533444 0.27351674 0.09764777 0.15727869
000030 a8 73 8e be eb af 81 bd 2f b5 70 bc 59 7c a6 3d
       -0.27822614 -0.06332382 -0.014691635 0.08129186
000040 20 5e 18 bc 32 54 fa 3d 23 a2 2c be 57 0f 76 3d
       -0.009299785 0.1222309 -0.16858725 0.060073223
000050 26 de 2d be ec be 8f 3b e6 13 d2 bd c6 fa 2b 3e
       -0.16979274 0.0043867733 -0.102577016 0.16794881
000060 6f 7b 48 bc 7b 7f 39 be ec 2a 66 3e a6 1d fe 3d
       -0.01223646 -0.18115036 0.22477311 0.12407999
000070 90 65 c3 3d 5c 76 35 3e 2a 06 b1 3c 34 dd d1 3d
       0.09540856 0.17720932 0.021609385 0.10247269
000080 a2 df 28 be 45 fd b6 bd b0 8f 9c bd 3c 72 f9 bd
       -0.16491559 -0.08935026 -0.07644594 -0.121799916
000090 d7 1d 41 be 27 d3 c5 bc a2 f7 84 bf aa c7 1e be
       -0.18859039 -0.024148537 -1.0388072 -0.15505853
0000a0 40 07 da bc e4 94 c5 3c 5e 1c 44 be b9 b9 cc bd
       -0.026614785 0.024118848 -0.19151446 -0.09996361
0000b0 0a b4 3d 3e 3d da 2c be 22 52 d4 3c 28 6f ce 3d
       0.1852571 -0.16880126 0.02591807 0.10079795
0000c0 41 01 17 3e 8a cc b5 bd 40 4a e2 3d 41 36 91 bd
       0.14746572 -0.08876903 0.11049318 -0.07090426
0000d0 ff 83 22 be fe 86 8b 3c a8 a9 f1 3b 18 43 c9 bd
       -0.15870665 0.017032143 0.007374961 -0.0982725
0000e0 fb f2 cd bd 22 1f 0c 3e 0a ba a9 3d a5 64 b1 3b
       -0.100561105 0.13683751 0.08287437 0.005413609
0000f0 75 9d 15 be b6 23 66 be a2 1a 26 3e 83 9c 24 bd
       -0.14610846 -0.2247456 0.16221097 -0.040188324

bias f4 [2]
000000 ab 8c 77 bd 3e a5 79 3e
       -0.060436886 0.24379441

weight f4 [1, 32]
000000 69 c1 c4 3b e8 3f 8a bd c1 e8 ef 3c 20 0a b6 bd
       0.0060045016 -0.067504704 0.02928579 -0.0888865
000010 b4 78 99 ba 33 6a 9e bd fb 89 3a bf 61 68 3b 3f
       -0.0011708946 -0.077351 -0.7286679 0.73206145
000020 ac 0f 47 3f 65 82 65 3f 53 45 53 bd 07 3d 36 3f
       0.7775829 0.8965209 -0.051579785 0.7118687
000030 75 9e 3c 3f d3 30 b3 ba 0e 1c 04 bd e0 98 ab bd
       0.73679286 -0.0013671167 -0.032253318 -0.08378768
000040 55 13 0b 3e f8 d6 37 3f 34 74 30 3f 55 42 e7 bd
       0.13581593 0.7181239 0.6892731 -0.11291949
000050 d8 37 f9 bc 8c 7e ea bd dd 88 34 3f a1 68 8c 3c
       -0.030422136 -0.11449918 0.70521337 0.017139735
000060 bc ee 86 bc 11 aa 3c 3f 09 44 dc 3c fe a5 a0 bd
       -0.01647126 0.73697 0.02688791 -0.078441605
000070 9a 22 34 3f e7 da 42 3f 6c f0 31 3f 94 4b ba 3c
       0.703653 0.7611527 0.6950748 0.022741117
