data/PPO_runs/20220509-013933/model.pth (torch, 8399 bytes, 7 tensors)

weight f4 [32, 4]
-0.5726387 0.30738288 0.42011106 0.35163617 -0.37494844 -0.38786066 -0.47467667 -0.40771532
-0.8637129 -0.2538541 0.21371512 0.16350669 -0.07587371 -0.5162165 -0.14427048 0.23675585
1.0926158 0.48465636 1.0579677 0.48588562 -0.21779305 0.13484207 -0.50675684 -0.020580871
-0.42929414 0.09781093 -0.85530216 0.059546217 -0.122020595 -0.31208888 -0.98875594 -0.3929563
-0.68100524 0.38731942 0.6347598 -0.15508671 -0.6233123 -0.77023757 -1.201751 -0.6339822
-0.15053116 -0.82136273 -1.8341095 -0.64581907 0.056980986 -0.60946316 -0.5413674 0.42245814
0.1657799 -0.56148034 -0.17126209 0.267991 -0.20598859 -0.47782108 0.0015327726 0.10226205
0.30229783 -0.24399114 -0.38020602 -0.046438757 -0.0019307219 0.13759096 0.12871818 0.22608075
-0.3909237 0.40499863 0.2901889 -0.5027989 0.1939281 -0.25848413 -0.36862645 0.060478102
-0.21831435 0.51167715 -0.19313025 -0.7413559 -0.33246666 0.4522192 -0.0675108 -0.5681101
0.3354378 -0.47553468 -0.43335688 -0.42969158 -0.7500369 -0.562859 -1.8903145 -0.71333706
-0.1971997 -0.3317638 -0.47457287 -0.6641876 -0.055262357 -0.3270667 -0.28534144 -0.51403546
0.12927422 -0.41707012 -0.29377192 0.13281591 -0.48025817 -0.63143843 -2.5368652 -0.60337675
-0.11900891 -0.004474299 0.0024320816 -0.48749238 0.071617596 -0.107601665 -0.7308863 0.031838067
0.0017359771 -0.012797649 -0.8295396 -0.23588014 -0.10854806 -0.3744192 -0.6703218 -0.15609382
-0.34026268 -0.2632231 -0.24368016 -0.16796121 -0.29699603 -0.1902794 -0.39806533 -0.048540205
00000000: 7398 12bf 4a61 9d3e cc18 d73e a809 b43e
00000010: 3ef9 bfbe ac95 c6be d208 f3be 10c0 d0be
00000020: 4a1c 5dbf 2af9 81be 23d8 5a3e 4c6e 273e
00000030: ad63 9bbd c426 04bf a4bb 13be 2070 723e
00000040: d6da 8b3f e124 f83e 7c6b 873f 00c6 f83e
00000050: 2405 5fbe 0a14 0a3e d1ba 01bf 3799 a8bc
00000060: 71cc dbbe 1951 c83d 15f5 5abf bce6 733d
00000070: efe5 f9bd 1dca 9fbe 1c1f 7dbf 9131 c9be
00000080: 5c56 2ebf bb4e c63e 9e7f 223f 0dcf 1ebe
00000090: 6591 1fbf 4a2e 45bf fad2 99bf a84c 22bf
000000a0: d724 1abe d444 52bf 1ac4 eabf 6654 25bf
000000b0: e564 693d c705 1cbf 0e97 0abf 6f4c d83e
000000c0: 35c2 293e 2dbd 0fbf 545f 2fbe 1e36 893e
000000d0: acee 52be f7a4 f4be 50e7 c83a c46e d13d
000000e0: c8c6 9a3e d0d8 79be 5daa c2be 9136 3ebd
000000f0: 4710 fdba a5e4 0c3e b3ce 033e b681 673e
00000100: 2727 c8be fb5b cf3e a493 943e 6eb7 00bf
00000110: 1695 463e 0858 84be 9bbc bcbe e3b7 773d
00000120: cc8d 5fbe 46fd 023f f0c3 45be 80c9 3dbf
00000130: 1239 aabe 4689 e73e 1a43 8abd aa6f 11bf
00000140: 81be ab3e 4879 f3be f4e0 ddbe 8900 dcbe
00000150: 6b02 40bf 8717 10bf d3f5 f1bf 429d 36bf
00000160: b8ee 49be f2dc a9be 37fb f2be 3308 2abf
00000170: c85a 62bd 4975 a7be 4618 92be d497 03bf
00000180: 7660 043e 378a d5be 4669 96be e500 083e
00000190: 66e4 f5be f3a5 21bf 005c 22c0 e676 1abf
000001a0: f2ba f3bd 249d 92bb 8f63 1f3b 9a98 f9be
000001b0: 3fac 923d 435e dcbd 5d1b 3bbf a268 023d
000001c0: ba89 e33a 3bad 51bc b55c 54bf 908a 71be
000001d0: 724e debd e0b3 bfbe 369a 2bbf 0fd7 1fbe
000001e0: e936 aebe 2ec5 86be 4b87 79be 06fe 2bbe
000001f0: dd0f 98be 9ad8 42be 38cf cbbe 18d2 46bd

bias f4 [32]
0.59166723 -0.5249032 -0.3387581 1.0996006 -0.08891845 0.9147174 0.74778247 0.92742914
0.6933799 -0.020437432 -0.019868957 0.6267392 1.1214108 -0.40157697 -0.6417394 -0.57511216
0.4950073 0.9992376 0.36572784 0.120255865 0.972296 -0.21974722 1.1693083 0.87623525
0.8521383 -0.010899629 1.0614444 0.83686364 0.9720082 0.82030195 0.9954616 0.7678582
00000000: 8177 173f 0e60 06bf b471 adbe b6bf 8c3f
00000010: e01a b6bd eb2a 6a3f ac6e 3f3f ff6b 6d3f
00000020: 5881 313f 676c a7bc 39c4 a2bc fb71 203f
00000030: 648a 8f3f 7f9b cdbe 0949 24bf 8d3a 13bf
00000040: 9971 fd3e 09ce 7f3f ae40 bb3e b548 f63d
00000050: 64e8 783f 6a05 61be e5ab 953f f450 603f
00000060: bc25 5a3f 5c94 32bc 69dd 873f b23c 563f
00000070: 88d5 783f 4fff 513f 92d6 7e3f 5b92 443f

weight f4 [32, 32]
0.11653681 -0.16882287 -0.13335538 -0.15686691 0.09401859 0.0058497386 -0.12365596 -0.17746837
-0.0054341992 -0.0456925 -0.16792578 0.023425728 -0.0011759695 -0.087922074 0.13857518 0.15962549
-0.22799419 -0.17005248 0.08356167 -0.03832312 -0.1334558 -0.11660355 -0.08218339 0.07947739
-0.20177902 0.08210011 -0.15870488 0.05229626 -0.21659887 -0.19326793 -0.16226767 -0.2197928
1.0535966 -0.1622554 -0.3914534 0.5070505 -1.182256 0.539068 0.46313348 -0.14361578
1.1943789 -1.257504 -1.714408 0.20422748 0.4368457 -0.11600451 -0.09360462 0.13270707
0.25271037 0.5937479 0.037133496 -0.008295659 0.23594797 -0.9655098 0.009476978 0.20526288
0.626574 -1.3264099 0.49151734 0.7150655 0.3350415 0.09001177 0.24243855 0.25717685
0.15921795 -0.14284919 -0.19229132 -0.13593227 -0.12609059 0.10763576 -0.05830205 -0.19316779
-0.0044175256 -0.053823695 -0.20268585 -0.15464212 -0.1430191 -0.037922848 0.06974149 -0.08481718
0.014507189 -0.114563 -0.05948556 -0.11264536 -0.15037319 -0.28391057 -0.26282504 -0.07133221
-0.21841395 -0.14877683 -0.22680794 0.07385791 -0.06710312 -0.1259714 -0.04289307 -0.11510855
0.014495701 0.010558963 -0.016081959 0.017838253 -0.14069033 -0.14461522 0.03487762 -0.02480965
-0.09242922 -0.019389344 -0.015777797 -0.22767092 0.05306276 0.01682558 0.114164636 0.10905446
0.035590753 -0.20938146 -0.052875936 -0.006592363 0.114499316 -0.131676 -0.11278621 -0.14495635
-0.14746241 -0.006497373 -0.08639319 -0.061698128 0.025149226 -0.05232349 -0.09216927 -0.20139045
-0.033577774 -0.664258 -0.83039993 0.5437358 -0.78702813 0.7888791 0.65136176 0.6955897
0.492564 -0.34076372 -1.0370762 0.46570334 0.3350734 -0.088035144 0.13336693 -0.009953396
0.27736586 0.5513855 0.2561783 0.19363941 0.68471336 -0.94102585 0.71984 0.6903307
0.5822761 -0.16101862 0.7917748 0.59528893 0.6979325 0.50972575 0.51354104 0.59009415
-0.13883431 0.07867171 0.068822816 -0.17313598 -0.13023393 -0.06582427 0.083412424 -0.1733022
-0.17024273 -0.13498297 -0.05569333 0.08738141 -0.16387524 -0.06527722 0.1965233 0.046770975
0.023444667 0.05519279 -0.16111691 -0.06824445 0.10944531 -0.14493357 -0.13177562 -0.11823991
-0.11417006 -0.15262492 -0.21977828 0.056029066 -0.09546169 0.082650356 -0.0492044 -0.23484403
0.30843446 -0.80841374 -0.8963583 0.46923047 -1.0060607 0.7301577 0.57658 0.55268186
0.49063644 -0.63815933 -1.213957 0.21222079 0.64690226 -0.18653195 -0.12062773 -0.2233456
0.27151003 0.61697537 -0.1364928 0.06676566 0.70718515 -1.1949377 0.6701045 0.6226671
0.5483761 -0.5089114 0.44926926 0.6118143 0.7564584 0.5253802 0.6622643 0.785912
-0.08965717 -0.050408468 0.048976287 -0.037067257 -0.15301794 -0.0066121244 -0.09288734 0.16707855
-0.21211343 0.14184722 0.01191671 -0.071878165 0.050845064 0.065871805 0.013303597 -0.006595686
-0.16533735 -0.027002903 -0.024270447 0.0306013 0.06213077 -0.16522622 0.034433503 -0.07488062
0.005184844 0.169836 -0.0545379 -0.05729476 -0.12605524 -0.010854474 -0.13639484 -0.18890916
00000000: daaa ee3d e7df 2cbe 508e 08be b8a1 20be
00000010: d28c c03d 2aaf bf3b 563f fdbd 45ba 35be
00000020: 5e11 b2bb 0f28 3bbd bcf4 2bbe 50e7 bf3c
00000030: fd22 9aba 7d10 b4bd a7e6 0d3e dd74 233e
00000040: 4f77 69be 3d22 2ebe 6122 ab3d b4f8 1cbd
00000050: a3a8 08be d8cd eebd c44f a8bd 0bc5 a23d
00000060: 299f 4ebe 1a24 a83d 8883 22be 9a34 563d
00000070: 18cc 5dbe 07e8 45be 7f29 26be 5d11 61be
00000080: 41dc 863f 4826 26be 946c c8be 10ce 013f
00000090: 2a54 97bf 5c00 0a3f d51f ed3e 0410 13be
000000a0: 68e1 983f e4f5 a0bf b971 dbbf 0221 513e
000000b0: 3daa df3e c693 edbd c7b3 bfbd 5de4 073e
000000c0: 4163 813e ddff 173f 4b19 183d 84ea 07bc
000000d0: 589c 713e a62b 77bf 5445 1b3c 6f30 523e
000000e0: 2767 203f cdc7 a9bf 29a8 fb3e 880e 373f
000000f0: 8f8a ab3e 1758 b83d d041 783e afac 833e
00000100: 080a 233e 0f47 12be 04e8 44be d431 0bbe
00000110: e41d 01be 2370 dc3d 21ce 6ebd c7cd 45be
00000120: e4c0 90bb 3c76 5cbd e18c 4fbe 815a 1ebe
00000130: 9973 12be fd54 1bbd a0d4 8e3d a1b4 adbd
00000140: 90af 6d3c 02a0 eabd 21a7 73bd 9cb2 e6bd
00000150: 6efb 19be ba5c 91be 0191 86be 9f16 92bd
00000160: e8a7 5fbe f458 18be 5740 68be d142 973d
00000170: 5c6d 89bd a6fe 00be a5b0 2fbd 08be ebbd
00000180: 607f 6d3c 80ff 2c3c 50be 83bc 8721 923c
00000190: 2011 10be 0316 14be d6db 0e3d 9b3d cbbc
000001a0: 884b bdbd 67d6 9ebc 7040 81bc 9122 69be
000001b0: 5658 593d ccd5 893c 26cf e93d f257 df3d
000001c0: 9cc7 113d 1868 56be 7094 58bd c004 d8bb
000001d0: 9e7e ea3d 13d6 06be 75fc e6bd 706f 14be
000001e0: 6300 17be eae7 d4bb eaee b0bd 2db7 7cbd
000001f0: c005 ce3c 2851 56bd 3ec3 bcbd 4c39 4ebe
00000200: d988 09bd d00c 2abf 1795 54bf 4532 0b3f
00000210: ad7a 49bf fbf3 493f a5bf 263f 2b12 323f
00000220: 5931 fc3e 9578 aebe eabe 84bf ab70 ee3e
00000230: be8e ab3e c54b b4bd 5791 083e 9213 23bc
00000240: e602 8e3e 9a27 0d3f cd29 833e 6949 463e
00000250: 6049 2f3f 12e7 70bf 6f47 383f 83b9 303f
00000260: 0c10 153f 11e2 24be c1b1 4a3f db64 183f
00000270: b4ab 323f 637d 023f 6d77 033f 6910 173f
00000280: 952a 0ebe a21e a13d faf2 8c3d 8f4a 31be
00000290: 0b5c 05be e0ce 86bd 22d4 aa3d 2276 31be
000002a0: 1c54 2ebe fa38 0abe b01e 64bd 06f5 b23d
000002b0: e9ce 27be 10b0 85bd 673d 493e ec92 3f3d
000002c0: 080f c03c d611 623d d5fb 24be bfc3 8bbd
000002d0: dd24 e03d 7769 14be 30f0 06be c427 f2bd
000002e0: fed1 e9bd b549 1cbe 8f0d 61be bc7e 653d
000002f0: 6b81 c3bd 9744 a93d 8e8a 49bd f47a 70be
00000300: 1feb 9d3e 34f4 4ebf bd77 65bf fa3e f03e
00000310: 99c6 80bf 9deb 3a3f bf9a 133f 8f7c 0d3f
00000320: b334 fb3e 695e 23bf f162 9bbf 6850 593e
00000330: 639b 253f 3b02 3fbe ac0b f7bd b5b4 64be
00000340: 5d03 8b3e 19f2 1d3f c5c4 0bbe 6fbc 883d
00000350: 160a 353f b8f3 98bf f88b 2b3f 1c67 1f3f
00000360: 6062 0c3f 0448 02bf 9f06 e63e dd9f 1c3f
00000370: 42a7 413f 517f 063f 278a 293f 8731 493f
00000380: 2e9e b7bd 1c79 4ebd 5c9b 483d d6d3 17bd
00000390: bcb0 1cbe 85aa d8bb b83b bebd a416 2b3e
000003a0: 4334 59be 6640 113e 4e3e 433c dc34 93bd
000003b0: ea42 503d cce7 863d 55f7 593c a020 d8bb
000003c0: 324e 29be 3135 ddbc d1d2 c6bc 94af fa3c
000003d0: d67c 7e3d 1031 29be 250a 0d3d 035b 99bd
000003e0: a0e5 a93b 7de9 2d3e 2263 5fbd e9ad 6abd
000003f0: a014 01be f7d6 31bc 17ab 0bbe 6771 41be

bias f4 [32]
0.05801465 0.35394764 -0.07569152 -0.054505397 0.43773338 0.01850161 0.5077839 -0.16513999
0.5175473 0.5010412 -0.14392297 -0.11014356 -0.24664982 -0.17511679 -0.06681125 -0.24306987
0.6611097 0.3913016 0.48825482 0.4330785 0.44099703 -0.17740783 0.48018065 -0.10281348
-0.2711066 -0.11455001 0.45449486 -0.20231362 0.051148485 0.030587688 -0.1398964 -0.06911838
00000000: c5a0 6d3d a038 b53e 2804 9bbd 0d41 5fbd
00000010: 971e e03e b090 973c 20fe 013f 751a 29be
00000020: fb7d 043f 3c44 003f 8b60 13be f292 e1bd
00000030: c591 7cbe d151 33be 56d4 88bd 4fe7 78be
00000040: 7c3e 293f af58 c83e 89fc f93e 77bc dd3e
00000050: 5dca e13e 66aa 35be 3dda f53e e08f d2bd
00000060: 7cce 8abe 3299 eabd 8db3 e83e 4d2b 4fbe
00000070: 1381 513d 0893 fa3c 0041 0fbe f08d 8dbd

weight f4 [2, 32]
0.021841917 -0.7172934 0.046423074 -0.052289322 0.013528639 -0.10535652 -0.016677497 0.18495241
0.17155893 -0.038196623 -0.19316344 0.10066022 -0.097538695 -0.12152238 0.23556621 0.05011649
0.09160961 -0.3273606 0.085266255 0.1814691 -0.28536364 0.031665027 -0.092207946 0.3126396
0.02947864 0.16744265 0.16699956 0.11187812 0.12980933 0.048974067 -0.06932186 0.19762616
-0.025338285 0.616834 0.0066652666 0.07555312 -0.21282688 0.07457844 0.087475434 0.12935624
-0.0956052 -0.09444587 0.33633876 0.07724239 0.076477304 -0.053110067 -0.13548915 0.07438199
-0.1624256 0.34608647 -0.268075 -0.33797476 0.27826747 -0.11154479 -0.0006783864 -0.20506145
0.022090927 -0.13731018 -0.41949534 0.16398118 0.050741576 -0.02887687 -0.060373638 -0.042085674
00000000: d2ed b23c 8aa0 37bf 1f26 3e3d 542d 56bd
00000010: 3aa7 5d3c 29c5 d7bd 3f9f 88bc 2a64 3d3e
00000020: 25ad 2f3e 1074 1cbd a3cc 45be f226 ce3d
00000030: 5ec2 c7bd bae0 f8bd 4538 713e f346 4d3d
00000040: d29d bb3d cf9b a7be 13a0 ae3d 09d3 393e
00000050: 2f1b 92be 30b3 013d 85d7 bcbd 4c12 a03e
00000060: 307d f13c 1676 2b3e ef01 2b3e 5b20 e53d
00000070: bdec 043e 0899 483d 9ff8 8dbd 835e 4a3e
00000080: 3c92 cfbc d5e8 1d3f 4f68 da3b 98bb 9a3d
00000090: 4aef 59be 95bc 983d 5226 b33d f675 043e
000000a0: a9cc c3bd d66c c1bd 9834 ac3e 4231 9e3d
000000b0: 22a0 9c3d f189 59bd abbd 0abe 9655 983d
000000c0: e652 26be 3f32 b13e 2041 89be 070b adbe
000000d0: 1379 8e3e 9871 e4bd bed5 31ba a1fb 51be
000000e0: 08f8 b43c 0a9b 0cbe 18c8 d6be afea 273e
000000f0: 66d6 4f3d 308f ecbc 594a 77bd 0762 2cbd

bias f4 [2]
0.03261655 -0.017660823
00000000: ee98 053d 6ead 90bc

weight f4 [1, 32]
0.035374314 0.663126 -0.14849846 0.015664777 0.77595496 -0.044790294 0.74713403 0.05577082
0.7863339 0.8151288 -0.023710063 0.15091614 -0.084669985 -0.09685246 0.026791306 0.013029265
0.7810671 0.7437857 0.82159096 0.90230805 0.704991 -0.1055529 0.7372241 -0.87862533
-0.1410293 0.006069273 0.85982895 -0.04600962 -0.011236987 -0.035592213 -0.09905048 0.017078843
00000000: a8e4 103d a0c2 293f fb0f 18be 6b53 803c
00000010: fca4 463f 0776 37bd 2d44 3f3f f16f 643d
00000020: 2e4d 493f 48ac 503f 9b3b c2bc c389 1a3e
00000030: 7567 adbd 955a c6bd 7179 db3c b378 553c
00000040: 03f4 473f bd68 3e3f c953 523f a9fd 663f
00000050: 4a7a 343f 1e2c d8bd b8ba 3c3f 97ed 60bf
00000060: fc69 10be c1e0 c63b c01d 5c3f 9574 3cbd
00000070: 571b 38bc 24c9 11bd fada cabd eee8 8b3c
