data/PPO_runs/20220509-030401/model.pth (torch, 8399 bytes, 7 tensors)

weight f4 [32, 4]
00000000: cc2e d4bd eda8 0ebe ceae 883e edb0 053e
00000010: 6236 aabe 5f0f 7d3e 5893 aa3d a28b ca3e
00000020: 2e31 9b3e b60b 10bf 9f56 d0be 8af5 c13d
00000030: d1f0 16bd 230b 0c3d 1bdb 4dbf 7967 bc3e
00000040: 8c55 ca3d 0d73 d6be 40e7 8d3c 7e58 04be
00000050: 138b 9e3e ed0d 9cbe ea7f eabd fb6d 99be
00000060: ad8f fd3e a33a 413e db97 873d 6c3e 6a3e
00000070: e4ad 1fbe ebb5 09bf 01c8 e23e 5c39 e63c
00000080: 75ec 0a3e 0eaf 4e3b ef10 b43e 39ba d53e
00000090: bf73 aebe 0307 b43e c389 373e d6c0 793d
000000a0: 9e9d 823d edf1 debd 114b 303e 7688 d8bd
000000b0: 581e 743d b0ce 453c 99ed a3be efd3 8e3c
000000c0: fcf5 033e cd92 43be 7b49 8b3c 245f 013f
000000d0: fac7 c5be e28d 9c3c 3cd8 a13e 17d6 15bd
000000e0: 34f5 41be e8f6 f93e a974 233f c498 06bf
000000f0: 4c6b ae3e b290 ad3e 32ef ca3d af53 1e3e
00000100: b863 07be c903 7abe e319 e0be 0f70 e4be
00000110: 2f56 a8be 28fd 373e a1c6 0ebd 7f8e 66be
00000120: cb00 d53e e2cd 7b3e 3582 063f 3caf 003e
00000130: 5021 22bd 91f4 e8bd b4be a1bc 3f25 fe3e
00000140: 566c 5cbd 297f c63d b0f3 c1bd 0e2a c5bd
00000150: 206d adbe cd4e 9c3e a360 903e 2d29 0bbf
00000160: 19d9 c4be 0a7c 7d3e 75f7 68be a4d9 cb3e
00000170: 233a 093e f4e4 0a3f d12c ad3f 8e58 633f
00000180: cf8c 12be baa2 d43e 65cc 103e a546 bd3d
00000190: faa5 bb3b 6423 0e3f b40b d33e a755 243e
000001a0: 04f4 4c3f 367e 6c3b c6d5 05bf 4977 6dbe
000001b0: a642 48be e61f 253e 0ccf b43d 5fc2 06bd
000001c0: 0d07 1f3f 6447 4d3e e392 893e 22d1 87bc
000001d0: 562e a6be f6ca 45be 8dc1 2abf 2df0 12bf
000001e0: 7336 59be 2d6d b13e c68c 313f eeb4 3d3f
000001f0: 3ae2 0abf 72b2 8d3e fa15 023f d912 263f
-0.10360488 -0.13931628 0.26695865 0.13055773 -0.33244616 0.24712895 0.08328885 0.39559656
0.3031096 -0.5626787 -0.40691087 0.09470661 -0.036850754 0.03419031 -0.80412453 0.36797693
0.09879598 -0.41884652 0.017322183 -0.12924382 0.3096548 -0.30479375 -0.11450179 -0.2996672
0.49523678 0.18870024 0.06620761 0.22875375 -0.15593678 -0.5379321 0.44293216 0.028103523
0.13566764 0.0031537446 0.3516917 0.4174364 -0.34072682 0.351616 0.17923646 0.06097492
0.06377719 -0.108859874 0.17216136 -0.10572903 0.05959925 0.012073204 -0.3201721 0.017435042
0.12886804 -0.19098969 0.017002812 0.505358 -0.38629133 0.019110624 0.31610286 -0.036581125
-0.18941194 0.48821187 0.63849884 -0.5257685 0.34066236 0.33899456 0.09908904 0.1546161
-0.13221633 -0.24415506 -0.4376975 -0.44616744 -0.32878253 0.17967665 -0.034857396 -0.22515295
0.41602167 0.24590257 0.5254243 0.12566847 -0.03958255 -0.11374772 -0.019744255 0.49637792
-0.053814255 0.096922226 -0.09470308 -0.09627162 -0.33872318 0.3052887 0.28198728 -0.54359704
-0.38446882 0.24754348 -0.22750647 0.39814484 0.13401084 0.54255605 1.3529302 0.88807
-0.14311527 0.415304 0.1414047 0.0924199 0.005726573 0.5552275 0.41219866 0.16048299
0.8005984 0.003608597 -0.5227932 -0.23190035 -0.19556674 0.1612545 0.088285536 -0.03290021
0.62120134 0.20046765 0.26869878 -0.016579214 -0.32457227 -0.19315705 -0.66701585 -0.5739773
-0.21212177 0.34653607 0.6935543 0.741042 -0.54251444 0.27675205 0.50814784 0.6487251

bias f4 [32]
00000000: 26c5 483f ceb0 4c3f 07a5 053f 557a 233f
00000010: f02c 553f 2285 463f 946d bbbe 0ebf debe
00000020: 5574 823f 3352 ed3e 0b05 74be 000f 8bbe
00000030: a955 273f 2471 773f c21b ba3d 1cf1 803f
00000040: c651 853f 74af 523f 9fc6 abbe 1aa8 423f
00000050: 8fce 313f c711 263f 43e0 3a3f 1082 82be
00000060: c1bd 893f 4d7f 9bbc 6a26 3bbe 6b2c a7be
00000070: dfd6 edbe 4ed2 65be afb7 24be 5eb2 0ebe
0.78425825 0.7995728 0.52204937 0.6385854 0.83271694 0.77546895 -0.3660704 -0.43505138
1.0191752 0.46351776 -0.23830049 -0.27159882 0.6536508 0.96657014 0.09087326 1.0073581
1.041558 0.8229897 -0.33549973 0.7603775 0.6945581 0.64870876 0.72998446 -0.25489855
1.0761033 -0.0189816 -0.18276373 -0.32651076 -0.46452996 -0.22443506 -0.16085695 -0.13935229

weight f4 [32, 32]
00000000: 05ad 183f 1cee 333f 039d fd3e 2dd9 293f
00000010: fb32 f73e 55fd c63e 1a49 14bf b905 59be
00000020: 535b c93e 1d8a 923e aeb8 4bbe 96e6 06be
00000030: ad48 e83e 70af 083f 10f5 243e 0a65 c03e
00000040: d5e3 083f 0f0c af3e 2f2a e7be 956f a13e
00000050: a42f 8f3e b482 4c3e 8d4a 263f eebb dfbe
00000060: 771c fd3e d2f9 fcbd 1185 0bbf 6d60 abbc
00000070: 8ab3 dbbe cb90 20bf 3d5b fabe 5f65 91be
00000080: 6cd4 3b3f 3abd 393f 5b1a f43e f61d 333f
00000090: 59aa b33e 39f1 123e e245 bfbe 9148 6abe
000000a0: 704b fd3e fba1 ea3e c712 a1bd a995 313d
000000b0: c4fd e13e 620c f33e c076 fdbc 9a1f 033f
000000c0: 28cf 9c3e 7c4d b53e b1b1 e8be e772 f33e
000000d0: 0555 ce3e 044c 703e 9237 213f 52b4 f7be
000000e0: 7329 0a3f 04be aebd 1706 0ebf 295a d5bd
000000f0: d7b8 24bf 0158 36bf 23fa e2be af6e 9ebe
00000100: 1734 0b3f 772b ed3e 5dff ec3e a207 ee3e
00000110: 5d0b 1f3f 6f78 113f f2fa cebe ab5d 8ebd
00000120: 761f 1e3f 3ac6 d23e 2aae 6c3d cd13 52bd
00000130: e09d bb3e e91f d43e 6812 623e 2a0c cd3e
00000140: ced7 0f3f 0e9c 993e db91 08bf 849e 053f
00000150: e514 dc3e 6896 9a3e 68df 0d3f 5b0b 1fbf
00000160: 608e 103f e259 183e f392 fbbe bee1 93bd
00000170: ba63 2cbf a64b 1abf 4b0f 0dbf a2e2 0bbf
00000180: 3372 db3e 10a8 c43e 84e9 e33e 8330 0d3f
00000190: 8104 183f a6d8 023f f454 aabe f2ac e6bc
000001a0: 204d 8f3e e892 893e f00a f4bd 75b8 da3d
000001b0: 4198 d03e 28e1 a93e ace1 8c3e 5f8b db3e
000001c0: 9704 2b3f 704e 023f 640e a7be be2c 9c3e
000001d0: eaa5 0f3f 047c de3e 73fd d83e 4511 29bf
000001e0: 311c 073f 9749 573d 2cde dabe 95aa 8c3d
000001f0: e5d5 0ebf 94c5 e8be 3a77 04bf a07b 23bf
00000200: 7d18 923e 4e3e 663e cdc4 f93e cbbe f23e
00000210: 2c37 0c3f d957 193f 8967 04bf 77c2 d5be
00000220: 0cc2 b83e 6e2d ee3d a666 ffbd e432 323e
00000230: a3c8 933e 2449 143f a286 b93e f909 873e
00000240: d96d 3a3f 5868 223f 10b1 bdbe cb00 cc3e
00000250: 92e0 e43e a327 383f 5c5f da3e 9c95 3ebf
00000260: f109 223f dabc 1abe a717 81be 8148 833b
00000270: 2f51 26bf c7f1 0bbf 55d2 03bf 040d 27bf
00000280: a848 7dbd e268 aa3d 154c 8bbd 8e8f 0cbe
00000290: d71d 643d 54f1 48be 0e8a a1bd 6b43 bdbd
000002a0: af0e 1a3b 1320 33be 5410 213d fa59 01be
000002b0: 1531 81be 17d6 48be fe0c 86bd dfd1 c9bd
000002c0: 96f4 eabd 64f4 ec3c 6de3 02be 6977 80be
000002d0: 5f35 47be 15ad a93d 425f 813d c921 09be
000002e0: de61 7abe 801b 893c 80ee 6a3c e55c e2bd
000002f0: a6b2 cb3d bfa4 e3bd 6fb0 80be 09ef cd3c
00000300: aa4c 1c3f e1fd 1d3f 55ae e63e 9b3e b63e
00000310: 222d 153f e6b9 653e a2ed 76be 318f 2fbe
00000320: 696a 193f a3ec 263f 9c8b 61be 9185 7abc
00000330: 1a05 043f 249f 0b3f da07 3d3e 0562 963e
00000340: 6c33 4c3e 226d ef3e 487f 08bf 108f ff3e
00000350: 5fb1 553e 9100 2f3e ec25 143f 8975 d2be
00000360: 6cff cc3e 137e a4bd 3eeb e5be f72a ad3d
00000370: 6060 02bf dff0 c6be c781 f5be 1458 fdbe
00000380: 13be 3dbe b0e6 ae3d 914f babd 66d9 a9bd
00000390: 09ac b6bd 5fab 5e3d ec06 5a3d 1ec2 c83d
000003a0: 4614 0bbe 87b5 083e 9661 10be 8e2f ce3d
000003b0: b470 a1bd 9fab a93d e608 84bd d25f 34bd
000003c0: be84 9e3d 594e 24be 80ae 773c ad99 19be
000003d0: 0bd4 97bd 785d 08be 9778 d23d b0b5 e23c
000003e0: a38c 183d fec2 fb3d dc1b 203d e841 e5bd
000003f0: cf84 b6bd f315 193e 121b 67bd 80dc cdba
0.59639007 0.702852 0.49533853 0.6634701 0.48281083 0.38865152 -0.57924044 -0.2119359
0.39327487 0.28620997 -0.19894668 -0.13173899 0.45367947 0.53392696 0.16109109 0.37577087
0.53472644 0.34188887 -0.4514937 0.31530443 0.27966034 0.19971734 0.64957505 -0.43698066
0.4943578 -0.12352337 -0.5449992 -0.020920003 -0.42910415 -0.62720937 -0.48897734 -0.28397653
0.73371005 0.7255436 0.47676358 0.6996759 0.35090902 0.14349832 -0.37358004 -0.22879244
0.49471617 0.45826706 -0.078649096 0.043355618 0.4413892 0.47470385 -0.030940413 0.51220095
0.30626798 0.35410678 -0.45448068 0.475486 0.4029924 0.23466498 0.6297542 -0.4837976
0.53969496 -0.08532336 -0.5547804 -0.10417587 -0.64344543 -0.71228033 -0.44331464 -0.3094382
0.5437636 0.46322224 0.46288577 0.46490198 0.62126714 0.5682439 -0.4042583 -0.069514595
0.61766756 0.4116686 0.057783283 -0.051288415 0.36643887 0.41430596 0.22077334 0.40048343
0.56188667 0.30001873 -0.5334756 0.52195 0.4298469 0.30192876 0.55419016 -0.621267
0.56467247 0.14878038 -0.4913555 -0.07220791 -0.6733967 -0.6027168 -0.5510146 -0.5464269
0.42860565 0.38409472 0.44514096 0.5515215 0.5938187 0.5111183 -0.3326794 -0.028158639
0.2798853 0.26869893 -0.11916149 0.10679714 0.4074116 0.33179593 0.27515924 0.4287977
0.6680388 0.50900936 -0.32628167 0.30502886 0.5611254 0.4345399 0.42380866 -0.66041976
0.5277739 0.052560415 -0.4274763 0.068684734 -0.5579513 -0.4546324 -0.51744425 -0.6386051
0.28534308 0.22484705 0.4878296 0.47411188 0.54771686 0.5989967 -0.5172048 -0.41749927
0.36085546 0.11629759 -0.124707505 0.17402226 0.2886401 0.57924104 0.3623553 0.26374796
0.72823864 0.63440466 -0.3704915 0.39844355 0.44702584 0.7193548 0.42650878 -0.74447036
0.6329642 -0.15111104 -0.25213358 0.004006446 -0.64967626 -0.546658 -0.51492816 -0.65254235
-0.06183687 0.08320786 -0.06801621 -0.13726637 0.05569252 -0.1962331 -0.0788766 -0.092413746
0.0023507287 -0.17492704 0.039322212 -0.1263198 -0.2523276 -0.19612919 -0.06545447 -0.09854483
-0.11472432 0.028925128 -0.12782069 -0.25091103 -0.19453953 0.08284966 0.06316997 -0.13391794
-0.24451396 0.016736746 0.014339089 -0.110528745 0.09946184 -0.11115407 -0.25134608 0.025138395
0.6105448 0.61715513 0.4505488 0.3559464 0.5827199 0.22434196 -0.24114087 -0.17144467
0.59927994 0.6520483 -0.22025913 -0.015290634 0.51570284 0.54539704 0.18460026 0.29371658
0.19941491 0.4676295 -0.53319216 0.49913836 0.20868443 0.1709006 0.57870364 -0.41105297
0.4003862 -0.08031859 -0.44906038 0.084554605 -0.50928307 -0.38855645 -0.47950575 -0.4948126
-0.18529539 0.08540094 -0.09097207 -0.082934186 -0.08919532 0.05436265 0.053229257 0.0980265
-0.13581952 0.13350497 -0.14099726 0.10067664 -0.078828245 0.08284687 -0.0644701 -0.044036694
0.07740162 -0.16045512 0.015117288 -0.15000029 -0.07413491 -0.13316905 0.10276907 0.027674526
0.037243497 0.12293051 0.03908907 -0.11194211 -0.0891205 0.14949779 -0.0564223 -0.0015705973

bias f4 [32]
00000000: 79f8 ab3e 8a57 053f 571d aa3e 9ccc c63e
00000010: a4a8 083f b2e6 a53d c6df 023f dd1a 1bbe
00000020: ab09 173f 1e4a 213f 266f a4bd ec21 d93e
00000030: d50a d43e bbaf 3abe 001c 383c f8e3 52be
00000040: 4f34 edbb 46b3 cb3e cef1 6c3d 0c26 a33e
00000050: 3b15 27be 49ad 84be 6069 80be bf0c a7bd
00000060: e166 073f 8898 fd3e 9b23 83bd 245e c2bd
00000070: cf7e 9b3e 39fb 073f 108b a9bd d586 f73e
0.33588007 0.520867 0.3322551 0.3882798 0.53382325 0.08100642 0.511227 -0.15146966
0.5899913 0.6300372 -0.080290124 0.42408693 0.41414514 -0.18231098 0.0112371445 -0.20594776
-0.0072389017 0.39785212 0.05784779 0.31864965 -0.16316693 -0.25913456 -0.25080395 -0.08156728
0.52891356 0.49530435 -0.064032756 -0.09490612 0.30370185 0.5311771 -0.08278477 0.48345056

weight f4 [2, 32]
00000000: 36ae 56bd 2a69 40be 4b73 b2bd cb94 b9bb
00000010: dbec 7e3d c6ee 863e 4220 b2be a224 a73c
00000020: ae97 2e3e d98c ab3e 2a42 c2be 2d1c a6bc
00000030: f217 2fbe b4dc ab3d 94f4 61bd 73ed 6a3e
00000040: b310 fbbd 3d8e 21be 7b3f 5c3e 9318 b33d
00000050: da68 a53d 9d09 b53c c41a 973d ecfe 66bd
00000060: c483 28be bb74 aa3d 3007 cd3c cefd a63d
00000070: ebbd 013f 9b00 323d 843e f83d 4eb7 6a3d
00000080: d4f1 303e 3cec 753e 73c2 c63d 874f ddbd
00000090: 1cff 32be 5fed 41be 0074 583e ba90 303e
000000a0: 4b49 1ebe 8d7c 41be 31bf 233f e0c2 74be
000000b0: 2e18 b93b 0af7 3bbd 56fd 8cbd 649a 1b3c
000000c0: b473 14bd dc2c 773e 5705 3bbe d7e1 ce3c
000000d0: 22a1 c73d 7922 ebbd 2cb5 223e a727 8dbd
000000e0: 214a 3e3e 18eb 063d 95dc 82bd 143c 8dbd
000000f0: ea66 2fbf 43a6 233e d0be dc3d a448 73be
-0.052412234 -0.18790117 -0.08713397 -0.0056634895 0.0622376 0.26354045 -0.34790236 0.02040321
0.17050049 0.33505896 -0.37941104 -0.020277107 -0.17098978 0.08391705 -0.05516489 0.22942142
-0.122590445 -0.15776916 0.21508591 0.087449215 0.080766395 0.02209931 0.07378152 -0.056395456
-0.16456515 0.08323046 0.025027841 0.08153878 0.50680417 0.04345761 0.12121299 0.05730372
0.1727975 0.24015898 0.09705057 -0.10806184 -0.17480129 -0.18938206 0.21138 0.17242709
-0.15457647 -0.18895169 0.6396361 -0.23902464 0.0056486344 -0.04588989 -0.068842575 0.009497259
-0.036243156 0.24138206 -0.18263756 0.025254173 0.097475305 -0.114811845 0.15889424 -0.06892329
0.18582965 0.032939047 -0.06389729 -0.068962246 -0.6851641 0.15981393 0.10778582 -0.23758179

bias f4 [2]
00000000: fae7 9d3b 6a6e 8bbd
0.0048189135 -0.06808169

weight f4 [1, 32]
00000000: 34d4 133f 1734 103f 26e5 253f ef29 273f
00000010: 4455 0f3f 1f54 97bd 94c0 293f 036c fdbd
00000020: 7e19 0c3f 2dab 0b3f 4411 e8be fb57 383f
00000030: 5308 273f d1c0 933d 5ee3 e43d 3cd3 963c
00000040: 52fc 99bd b176 143f dcbd 2f3d 4f28 1e3f
00000050: 4d92 083e d6b7 70bc 0fef 993d 4b30 0b3e
00000060: d4a0 2a3f 5f1d 353f 13fe 5ebc bd79 b33d
00000070: e382 dd3e eb72 0a3f c0c5 743c a079 213f
0.5774567 0.5632948 0.6480278 0.6529836 0.5598948 -0.07389092 0.66309476 -0.12374117
0.547264 0.5455807 -0.45325673 0.7200925 0.65247077 0.07214511 0.11176179 0.018411271
-0.075188294 0.5799361 0.042905673 0.61780256 0.1333706 -0.014692267 0.075163 0.13592641
0.66651654 0.7074794 -0.013610381 0.08763454 0.4326392 0.540816 0.014939725 0.6307621
