data/20220509-135852/model.pth (torch, 8399 bytes, 7 tensors)

weight f4 [32, 4]
000000 9e 3a 39 3f 51 15 1f 3f 91 6e eb 3f 82 1d 1b 3f
       0.7235507 0.621419 1.8393117 0.605919
000010 32 26 67 3e af fa 85 be 9a de 2f bf b3 d9 92 3c
       0.22573164 -0.2616782 -0.6869904 0.017926073
000020 ab 3f 5b be 04 1c 2e be 98 53 a8 be 0c 0d b9 be
       -0.21411006 -0.17002875 -0.32876277 -0.36142766
000030 38 bb 7a 3e 3e 59 95 bd d5 f5 c4 bd 86 57 99 3e
       0.24485481 -0.07292412 -0.09617201 0.29949588
000040 84 8a f7 bd 44 c6 eb bd 9e bf 75 bf c9 7c 42 bf
       -0.12086967 -0.115124255 -0.9599551 -0.7597166
000050 23 f8 db 3c 9a 81 a6 be 9e 6f 8e 3d f2 39 c2 bd
       0.02685172 -0.32520753 0.06954883 -0.094837084
000060 60 7f 72 3e cf df b5 be e5 cd 0b bf 57 57 8d 3e
       0.23681402 -0.35522315 -0.54611045 0.27605698
000070 08 ce 1c 3c e5 e7 3d 3e 1b 17 72 be 99 46 d5 3e
       0.009570606 0.18545492 -0.23641627 0.41655424
000080 f1 23 5d be 2d be f1 3e b8 bf 80 3d 4b 87 38 bd
       -0.21595742 0.47215405 0.062865674 -0.0450509
000090 84 02 5f be 4b f4 b2 3e de 33 11 bf 0b 94 cc 3e
       -0.21778303 0.34952006 -0.5671977 0.39956698
0000a0 49 ba 62 3d 35 95 ed be 76 1d 25 be 23 a2 b1 3e
       0.055353437 -0.46402898 -0.1612452 0.34694013
0000b0 df f9 81 3f aa 19 f8 3e 2c cf a3 3e 98 01 82 3e
       1.015438 0.4845708 0.31993997 0.2539184
0000c0 1b 36 51 ba 72 96 01 3c fa 49 b3 be 04 b6 95 bd
       -0.00079807796 0.007909404 -0.35017377 -0.07310107
0000d0 c9 9e 5a bf 6d 3e 74 be d5 6b 12 c0 0f 26 e6 be
       -0.85398537 -0.23851939 -2.2878315 -0.4495091
0000e0 f6 f0 52 be b3 0b 58 be 41 0b 4e 3f e6 c2 5a 3e
       -0.20599732 -0.21098213 0.8048592 0.2136341
0000f0 77 08 aa be 6f 1a ab 3e c6 ef f8 3e 97 f4 86 be
       -0.33209583 0.33418605 0.48620433 -0.26358482
000100 46 2e de bd 92 e1 6c bd c3 e3 4b 3e d1 5c dc 3e
       -0.1084867 -0.057832308 0.19911103 0.43039563
000110 89 44 4d bd 63 6e 90 be 5d ec 75 be 2b 3d f2 be
       -0.05011419 -0.28209218 -0.24015947 -0.47312292
000120 dc c2 d2 be 1f 77 33 bf b5 f2 eb bf cc d6 d4 be
       -0.4116429 -0.7010364 -1.8433443 -0.41570127
000130 a3 44 39 3f c6 2c b8 3d 82 04 06 3d 1a 53 1e be
       0.72370356 0.08992915 0.032719143 -0.15461388
000140 a0 19 a9 be 2e 46 a6 3e c1 07 3a bd 24 b3 6d 3e
       -0.33027363 0.32475418 -0.04541755 0.23212868
000150 95 0d 6a be 86 a4 09 be 87 72 37 be 1f 29 d6 be
       -0.22856744 -0.13441667 -0.17914782 -0.41828248
000160 0d ee 4f 3e 02 cf 1a bf f6 e3 74 bf 0c d5 a0 bd
       0.20305653 -0.6047212 -0.9566034 -0.078531355
000170 16 6b 20 3f 53 a6 eb 3d 3b e6 12 bf f9 2f 00 be
       0.626634 0.11506333 -0.57382554 -0.125183
000180 e5 93 dd bd e7 29 6e 3e 95 5a 7f 3e 91 f4 06 be
       -0.10819224 0.23258172 0.24936898 -0.13179232
000190 8a 5e 47 3c 22 41 81 be 1a d9 9a 3e 3c d4 89 be
       0.012168536 -0.25245005 0.3024376 -0.26919734
0001a0 35 7f 0d 3e 40 5e 83 be 5b 62 e8 be f7 6e a6 be
       0.13818057 -0.25657845 -0.4538754 -0.32506534
0001b0 5e c1 00 bf a8 24 32 3f 25 7d 2b be fc 3f 39 bd
       -0.50295055 0.69587183 -0.16746958 -0.045227036
0001c0 38 fb 82 bd 7c 17 33 be 1e bc 86 bf 54 e5 15 bf
       -0.063955724 -0.17489427 -1.0526159 -0.5855305
0001d0 33 11 3f 3f 42 e8 4b 3f 3c d0 f5 3f 78 1f 39 3f
       0.7463562 0.7965127 1.9204173 0.7231364
0001e0 7c c1 e5 3c 4a fe 04 3c b9 22 f7 bd 98 96 fe be
       0.028046362 0.008117268 -0.1206717 -0.4972427
0001f0 b8 da 6d be 68 75 8a bd 4d ec 8e bd dc 68 fa bd
       -0.23227966 -0.06760675 -0.069786645 -0.122270316

bias f4 [32]
000000 20 49 80 be 2b 1b 51 3f 3d e3 63 3f 68 0e 8f 3f
       -0.2505579 0.8168208 0.89018613 1.1176271
000010 28 71 5f 3e e9 b8 51 3f 97 24 86 3f e3 6f 8c 3f
       0.2182051 0.81922776 1.0479916 1.0971645
000020 33 a1 83 3f 39 9d 91 3f ec 08 5b 3f 25 76 ae be
       1.0283569 1.1376106 0.8556049 -0.34074512
000030 df db 44 3f 83 62 5f be c4 9c 02 bf 1b 29 11 3f
       0.76897997 -0.21814923 -0.51020455 0.56703347
000040 3b 91 61 3f 8d 65 80 3f 89 5c bd bd f2 00 89 be
       0.8811223 1.0030991 -0.09246165 -0.26758534
000050 1f ff 6d 3f 1e 4a 88 3f a7 ad 12 3f 6f 2a 56 be
       0.9296741 1.0647619 0.5729622 -0.20914625
000060 e3 8b 6d 3f 9f fd 58 3f 63 db 3b 3f c2 12 20 3f
       0.92791575 0.84761995 0.7338163 0.6252862
000070 92 6f 21 3f 72 c0 7d be a2 f7 5a 3f e6 43 51 3f
       0.6306087 -0.24780443 0.8553411 0.8174423

weight f4 [32, 32]
000000 ab ab 59 bd df 00 82 3d b6 74 44 be b8 ee 99 bd
       -0.05314223 0.063478224 -0.19185147 -0.07516235
000010 4c 5a 80 39 17 a2 38 be 2f 48 ea bc bc c3 d8 3d
       0.0002448134 -0.18030582 -0.028598873 0.10584208
000020 1c 24 cc bd 3d 88 dc bd 9d b2 bc bc 18 8c 94 3c
       -0.09967825 -0.10768173 -0.023034388 0.018133208
000030 3b 80 b7 3d cc 1f 7b bd 55 e6 da bc 33 42 a6 bd
       0.08960005 -0.06130962 -0.026721159 -0.08118095
000040 d8 e8 4c 3d ed 1e d1 bc 04 53 83 bd 4e 73 6c 3d
       0.050026745 -0.025527442 -0.06412318 0.05772715
000050 2e 99 df 3d 08 2e 6b be b9 08 1c be c6 e2 0b be
       0.109178886 -0.22966778 -0.15237702 -0.13660726
000060 4a dc e4 3c ae 64 8b 3c 4d 42 cf 3c 11 98 cd 3c
       0.027937073 0.017015781 0.02530017 0.025096925
000070 47 4a a0 3d 18 ba 9f 3c 7d d4 57 3c 46 4d d1 bd
       0.07826667 0.019497916 0.01317322 -0.10219817
000080 4c 37 50 bf 58 98 ec 3e 84 a9 c3 3e c1 91 2b 3f
       -0.81334376 0.4620998 0.38215268 0.6701928
000090 25 40 38 be da 73 23 3f 72 57 33 3f 10 50 3f 3f
       -0.17993219 0.6384865 0.70055306 0.7473154
0000a0 db 97 a9 3e c6 b3 33 3f fd 8b f3 3e 24 55 0d bf
       0.3312367 0.7019619 0.4756774 -0.5520804
0000b0 1e 80 c6 3e c5 d0 21 bf 05 7e 01 bf 74 e3 66 3e
       0.3876962 -0.6320918 -0.50582916 0.22547704
0000c0 84 b1 35 3f db 45 97 3e 5a 49 01 bf cc 58 69 bf
       0.7097399 0.29545483 -0.5050255 -0.9115112
0000d0 5e fc 0d 3f 07 4e de 3e 68 7b d4 3e 4d 12 65 bf
       0.55463207 0.43418905 0.41500401 -0.8948105
0000e0 65 68 09 3f 10 77 e9 3e e9 a4 30 3e 20 33 84 3e
       0.5367492 0.4559865 0.17250408 0.25820255
0000f0 1c a8 d8 3d cc 42 3e bf 43 37 4f 3e af 88 c3 3e
       0.10578939 -0.74320674 0.20235924 0.3819022
000100 99 c6 78 bf 79 67 2a 3f 5b 6c 3d 3f fb be 22 3f
       -0.97178036 0.66564137 0.7399346 0.63572663
000110 fe 82 d8 3c 37 2f 4e 3f 7c 8d 01 3f 62 b3 e9 3e
       0.02642965 0.80540794 0.50606513 0.4564467
000120 a8 16 17 3f 97 e0 2d 3f da 86 af 3e 68 71 cb be
       0.59018946 0.6792082 0.3428257 -0.3973496
000130 a3 4f 49 3f 70 68 5b bf 51 1a 28 bf 3f 3b f1 3e
       0.7863714 -0.85706234 -0.65665156 0.47115514
000140 98 85 56 3e dd c1 3b 3f 2f cf c2 be 0f 80 3d bf
       0.209494 0.73342687 -0.38048694 -0.74023527
000150 65 70 ee 3e b1 ac ee 3e 57 aa 2a 3f 89 4b 3a bf
       0.46570125 0.46616128 0.6666617 -0.7277151
000160 7c 78 2b 3f 76 22 31 3f 6d 80 c3 3e 43 28 cd 3e
       0.6698072 0.6919321 0.3818392 0.4006978
000170 8b 8e 3e 3e 0e 25 62 bf 33 cc c2 3e 14 40 04 3f
       0.18609063 -0.8833779 0.38046417 0.51660275
000180 50 07 5b bf bd dd d7 3e 88 d7 dc 3e af d7 18 3f
       -0.85558033 0.4216136 0.43133187 0.5970411
000190 0c 68 1b 3e a1 20 d6 3e 9a c6 fe 3e b8 bf 21 3f
       0.1517641 0.4182177 0.49760896 0.63183165
0001a0 2e e5 e5 3e dd 7f 22 3f 01 3f 44 3e 38 74 12 bf
       0.44901413 0.63476354 0.19164659 -0.57208586
0001b0 34 e0 21 3f b1 a4 11 bf 2d 48 29 bf 97 dc 04 3f
       0.6323273 -0.56891924 -0.66125757 0.51899093
0001c0 21 99 98 3e 26 71 12 3f 40 80 e0 be 22 23 1c bf
       0.29804328 0.572039 -0.43847847 -0.6099111
0001d0 63 b0 2c 3f 23 e6 1f 3f e5 19 f4 3e 7d 52 4d bf
       0.67456645 0.62460536 0.47676006 -0.8020399
0001e0 1a 84 0d 3f ca 65 23 3f a0 48 bc 3e 4b e5 bf 3e
       0.55279696 0.6382719 0.36774158 0.37479624
0001f0 ed ee e5 3e 7a 54 82 bf ef 70 03 3f 8a 43 30 3f
       0.44908848 -1.018203 0.513442 0.68853056
000200 e3 db 43 3f 31 d5 a2 3d f3 5c 07 bc c7 3e e5 bd
       0.76507396 0.07950819 -0.008261907 -0.111936145
000210 7a 63 86 3e 78 e2 dd 3d 72 9b 11 3e 53 1b 1b be
       0.2624777 0.10834211 0.14219454 -0.15147142
000220 66 dc 21 bd 06 67 84 3d 28 81 27 3e 1f b8 54 3f
       -0.03951683 0.06464963 0.16357863 0.83093446
000230 14 c5 4f bd 9c 8d 6d 3f a6 f9 36 3d 14 59 08 bd
       -0.050725058 0.92794204 0.044671677 -0.033288077
000240 29 a0 84 be c0 da 7e bc 60 b2 43 3f ac 5c 56 3f
       -0.25903443 -0.015555084 0.76444054 0.83735156
000250 21 c9 81 be 5b c6 14 3e c4 87 ba 3e 17 b6 7f 3f
       -0.25348762 0.14528792 0.36431706 0.9988722
000260 9e 56 23 3e 43 92 3b be 30 1b 88 3d 7a 25 51 be
       0.1595101 -0.18317513 0.066458106 -0.20424452
000270 b0 6c 9b 3e 7c 41 53 3f b3 de 2d 3e b5 51 8b 3d
       0.3035636 0.82521796 0.16979484 0.06802694
000280 ae df 9c 3d 91 78 0e be 60 44 0c 3d bb d9 74 3c
       0.07659851 -0.1391318 0.034244895 0.014944489
000290 d6 33 7e be 75 d8 72 be 47 a9 2e be f8 01 19 bb
       -0.24824461 -0.23715384 -0.17056762 -0.002334712
0002a0 8b 7f 23 3d 99 52 41 bd 4f e6 61 3d 3c f9 4c 3d
       0.039916556 -0.047197912 0.05515128 0.050042376
0002b0 b2 bc 6d be e5 f0 bc 3d 7a 96 14 3c 79 f6 a8 3d
       -0.23216513 0.092256345 0.0090690795 0.08250136
0002c0 74 a2 6b 3d 6e d3 91 3c c9 02 27 be 55 08 2d 3d
       0.057527974 0.017801013 -0.16309656 0.042244274
0002d0 0c f6 08 be 5b 94 4f be cf 19 24 3e 26 20 0b be
       -0.1337511 -0.20271437 0.1602547 -0.13586482
0002e0 e6 65 10 bb 15 fc 85 bd bb 59 32 be 7e c0 2f be
       -0.0022033392 -0.065422215 -0.17417042 -0.17163274
0002f0 48 94 cc 3c e2 37 cc 3d 4e dd 55 be 45 45 92 3d
       0.02497305 0.09971596 -0.20885202 0.07142118
000300 3c 25 97 3d bd ec 83 be 86 96 31 be 51 78 f4 bd
       0.07380149 -0.25766554 -0.17342576 -0.11937011
000310 2b cc 29 be e6 25 28 bd 75 08 34 be 16 e0 39 bd
       -0.1658179 -0.041051768 -0.17581351 -0.04537972
000320 77 95 4c 3d 14 e9 88 be 53 46 f7 3b f1 a1 09 be
       0.04994723 -0.26740324 0.007546225 -0.13440682
000330 f3 09 83 bc c1 08 3e be a6 6c 76 be 1e ae 2b bd
       -0.015995955 -0.18558027 -0.24064884 -0.041914098
000340 57 cd 2d bd cb df 8b 3d 80 5b 4b bd 81 b2 98 3e
       -0.042432155 0.068297945 -0.049647808 0.29823688
000350 cb 32 73 be a7 d6 a9 3d 84 2b 11 bd ca 1a ae 3c
       -0.23749845 0.08292895 -0.03544189 0.021253008
000360 ca 1b 43 3d d6 98 2f be f7 76 25 bd 27 4f 5c be
       0.047633924 -0.17148146 -0.040396657 -0.21514569
000370 38 6a 14 be b8 a4 87 bc a5 fb c1 bd c4 d1 b2 bc
       -0.14493644 -0.016558036 -0.094718255 -0.02182854
000380 e6 69 46 bf 08 7a 2f 3f 6f f2 55 3f 7c c7 a2 3e
       -0.7750534 0.6854558 0.8357305 0.3179282
000390 24 93 f4 3e 09 4a 01 3f c9 a1 d5 3e 33 1e 9a 3e
       0.4776851 0.50503594 0.41724995 0.30101165
0003a0 8f 7b 1f 3f 27 49 ac 3e d1 c2 2f 3d 50 1f 25 bf
       0.6229791 0.3364956 0.0429104 -0.64500904
0003b0 7d 44 12 3f 74 b8 f7 be 1d 01 00 bf 08 db d2 3e
       0.57135755 -0.48382914 -0.500017 0.41182733
0003c0 f7 0f 7c 3e 11 89 5d 3f 88 e6 05 bf 5e 26 3f bf
       0.24615465 0.8653727 -0.5230489 -0.7466792
0003d0 b9 e0 cb 3e 73 7f 33 3f 09 b5 33 3f 2f 39 3c bf
       0.39819887 0.7011635 0.7019811 -0.73524755
0003e0 a6 5d 22 3f 02 c1 2d 3f 9d dc 16 3f 65 8e 9b 3e
       0.63424146 0.6787263 0.5893038 0.30382076
0003f0 b9 87 1c 3f 64 c8 84 bf 43 d9 11 3f aa 05 18 3f
       0.61144596 -1.0373654 0.5697214 0.5938364

bias f4 [32]
000000 fc 94 24 be 68 24 d2 3e 93 d6 04 3f 08 e8 e9 3e
       -0.16072458 0.410434 0.51889914 0.45684838
000010 67 8f 07 be 83 11 0d be 8f 27 ab 3c a6 aa 0b 3f
       -0.13238297 -0.13776211 0.020892886 0.54557264
000020 c7 f1 c7 bc a4 ff 55 be 33 cd e5 3c 66 96 23 3f
       -0.02440728 -0.208983 0.028051948 0.63901365
000030 96 d6 1f 3f b2 11 41 be f3 b4 0c 3f 81 50 6f be
       0.6243681 -0.18854406 0.54963607 -0.23370554
000040 11 f5 b1 3e 00 e5 92 bc b5 7b 36 3c 15 b2 07 3f
       0.34757283 -0.017931461 0.0111378925 0.53006107
000050 e0 63 8c bd f6 ae 99 3e c9 e2 63 be ee 75 de 3e
       -0.06854987 0.30016297 -0.2225448 0.43449348
000060 82 a8 19 3e e0 fb 17 be a2 2e 03 be 0f 9f 2f 3f
       0.15005687 -0.14842176 -0.12810758 0.6860208
000070 b8 0b 2b be 8f 3f 07 3f d9 b3 bb bc 60 18 97 bd
       -0.16703689 0.5283136 -0.022912906 -0.07377696

weight f4 [2, 32]
000000 99 d0 07 be 0e 1a 74 be b2 c3 ef 3d 03 f2 0f 3e
       -0.13263167 -0.23838064 0.11707248 0.14057164
000010 49 66 9a 3e 27 9c 3d be 59 87 3a 3e ea 82 8c 3e
       0.30156162 -0.18516599 0.18215694 0.2744363
000020 8d 2b 9b 3d 69 32 0a 3e b2 2a 7b bd af ec 7b be
       0.07576666 0.13495792 -0.061320014 -0.24602006
000030 e7 90 3c bd f7 dd 37 3e 10 e5 1b 3e 77 34 87 3d
       -0.046036627 0.17955767 0.15224099 0.06601804
000040 0f 71 90 3e ba 65 a3 3d a1 a6 dd bd 2d 0d d2 bd
       0.28211257 0.07978387 -0.108227976 -0.10256419
000050 ce d2 77 3d 9d d8 e6 3d 99 55 50 be b3 06 20 be
       0.060503773 0.112717845 -0.20345153 -0.15627556
000060 0f 05 65 bf 6f 5e 43 3e a8 6f 33 bd 53 d1 13 bd
       -0.89460844 0.19078992 -0.043807656 -0.0360883
000070 b7 f3 4d be 78 57 af 3d a5 dc e8 bd 4e 8c c3 3d
       -0.20112501 0.08561605 -0.113702096 0.09548245
000080 ee 8b 5f 3e 31 99 9a 3e 80 28 cf bc 15 cc cb bd
       0.21830723 0.30195 -0.025287867 -0.09951035
000090 c5 e6 d1 be 21 5e af 3c 7e c4 57 be 93 70 8a be
       -0.40996376 0.021407189 -0.2107105 -0.27039012
0000a0 12 22 e8 3d a1 6a d9 3d 60 f6 19 bc 16 7d 79 3e
       0.113346234 0.10616041 -0.009397119 0.24364123
0000b0 bc 34 b7 bd 9d 36 1b 3e da 6c 5a bd 5f 22 56 3d
       -0.08945605 0.15157552 -0.053326465 0.052278873
0000c0 1e e5 e2 bd 40 62 6b bd 55 50 e4 bd 5d 09 88 3c
       -0.11078857 -0.057466745 -0.111481346 0.016606027
0000d0 c0 c1 46 bd 74 55 77 bc ea 06 be ba 9b e7 b3 3d
       -0.04852462 -0.015096057 -0.001449791 0.087844096
0000e0 61 07 59 3f 16 fd db bd a9 28 1f be 55 f7 8e 3e
       0.84776884 -0.10741632 -0.15542854 0.27923074
0000f0 93 c3 e4 bb 0c 94 82 3d 25 85 2d 3e 78 9f 0f bd
       -0.006981322 0.06375894 0.16945322 -0.03506419

bias f4 [2]
000000 80 4a 10 3e 70 1c ad 3d
       0.1409092 0.0845269

weight f4 [1, 32]
000000 f0 01 81 3c 66 62 46 3f 65 0c 2d 3f e3 72 3f 3f
       0.015747994 0.77493894 0.6759704 0.7478468
000010 3d c7 47 bf f7 7b bc bd 21 dd 38 3d ae ad 20 3f
       -0.7803839 -0.09203332 0.04513276 0.62765014
000020 00 cf d7 bc ed c2 a4 3c 9e 64 d3 bd d3 57 20 3f
       -0.026343822 0.02011248 -0.103219256 0.6263401
000030 ac 5d 43 3f bf d0 ca 3d af 92 44 3f 41 ea b3 bd
       0.76314807 0.099030964 0.7678632 -0.08784915
000040 b5 b2 2b 3f 8d c8 07 be 38 88 48 3d f7 c7 3d 3f
       0.6706956 -0.13260098 0.048958033 0.7413325
000050 f4 a4 e5 3c ea 8d 5c 3f 1f 99 f6 bb 45 13 3a 3f
       0.028032757 0.86154044 -0.0075255777 0.7268565
000060 b8 d1 09 bc 3b d9 c0 bc 2b 03 0e 3e 86 f2 36 3f
       -0.008411817 -0.023541084 0.13868396 0.7146381
000070 2b d4 55 3c 60 54 2a 3f 70 e2 2f bd 72 2c a1 3d
       0.013051073 0.66534996 -0.042940557 0.078698054
