data/PPO_runs/20220509-030616/model.pth (torch, 8399 bytes, 7 tensors)

weight f4 [32, 4]
000000 6b 6f 8a be 37 6a d2 3e 26 a6 84 3f e2 8c da be
       -0.2703813 0.4109666 1.0363204 -0.4268561
000010 77 4b 7c be fb 6f 11 3f d3 78 94 3e 81 6a e5 bd
       -0.24638163 0.56811494 0.28998432 -0.11201955
000020 e0 32 12 3d 22 ce 88 bd b0 d6 cd 3e 4e d9 19 3e
       0.03569305 -0.06679942 0.40202856 0.15024301
000030 fd 8c 1b 3e 6d 8e 38 be 40 f5 1c be f5 c7 34 3e
       0.15190502 -0.18023081 -0.1532793 0.17654403
000040 08 3a 19 3e f9 fa a6 be 10 94 27 3f 34 bd 7b 3e
       0.14963543 -0.32613352 0.654603 0.24583894
000050 3d db dd bd b3 57 3d 3f 7d 8f ba 3f dc 84 08 3f
       -0.10832832 0.73961943 1.4575039 0.5332773
000060 bf 24 b6 3d 3b ea 60 bc 89 e5 1f bf 5d 2c a2 be
       0.088937275 -0.01372772 -0.6245962 -0.31674471
000070 ef c2 82 3f 00 e6 b0 be dd 83 4c bf 51 34 0a bf
       1.0215739 -0.34550476 -0.7988871 -0.5398608
000080 fd 17 0f bf 7f c3 75 bf c4 e1 03 c0 b0 17 85 bf
       -0.5589598 -0.9600143 -2.0606546 -1.0397854
000090 c4 c4 a8 bf bd 4f 1f 3e d5 70 55 3f b1 b0 4e 3e
       -1.3185048 0.15557761 0.83375293 0.2018459
0000a0 57 be 8a 3e 26 12 f6 3e 7a 15 12 40 8d 3d 21 3f
       0.27098343 0.4806072 2.2825608 0.62984544
0000b0 7f 0d 18 be f6 58 ec 3e dc 81 fd bd 77 ea 79 3e
       -0.14848898 0.46161622 -0.12378284 0.24405847
0000c0 ef 0e 76 be 5c b3 b3 3e 3c 45 52 bd 1a 4a 91 3c
       -0.24029134 0.35097778 -0.05133556 0.01773553
0000d0 9d 00 04 3e 1b e1 54 3b 29 7a 80 3e d8 2a 92 be
       0.12890859 0.0032482806 0.250932 -0.28548312
0000e0 f0 54 11 be 6e fc d4 3d d1 9e 26 3f f3 5c a1 3e
       -0.14192557 0.1039971 0.65086085 0.31516227
0000f0 21 9d 88 3e a1 04 ef be 36 18 97 3e 7c 56 c2 be
       0.2668238 -0.4668322 0.2951066 -0.37956607
000100 73 22 fd bd cb a5 61 be a7 d5 6d 3e e0 a1 99 be
       -0.12360086 -0.22035901 0.23226033 -0.30006313
000110 cb 28 54 3e 6f 52 4d 3f e2 28 dd 3f 47 37 31 3f
       0.20718686 0.8020391 1.7278101 0.6922497
000120 2d 54 08 3f 87 b2 7f 3e 53 fd dd 3f 60 cc 15 3f
       0.5325344 0.24970447 1.7342933 0.58514977
000130 15 bd 17 bb 3c 56 81 be 85 e8 c3 bd c5 a6 2e 3e
       -0.0023153473 -0.25261104 -0.09565834 0.17055805
000140 4a 3a 6c 3e ed 60 90 3d 96 da 21 bd 0d c7 86 3e
       0.2306911 0.07049737 -0.0395151 0.2632374
000150 8a 2c 83 be ea 1a 93 3e 98 86 5e bd 81 85 82 3e
       -0.25619918 0.2873147 -0.054327577 0.2549248
000160 f2 c8 81 bf 3c 5b df be f1 81 d1 be 79 42 fa 3d
       -1.0139449 -0.43624294 -0.4091945 0.1221971
000170 0f 44 52 3e c7 56 06 3f 77 b9 1c 40 22 3b 45 3f
       0.20533775 0.5247616 2.4488199 0.77043355
000180 c2 43 7e bf a9 e2 d6 3d 42 61 af 3f 6f ef 12 3f
       -0.9932214 0.10492451 1.3701556 0.57396597
000190 20 3c e6 be 37 e8 ec 3e c0 53 47 be 6e 2a a1 3e
       -0.44967747 0.46270916 -0.19465542 0.31477684
0001a0 fc 2d 25 be 5f 6a 02 3e 7c 39 b1 bd 8e a0 51 bd
       -0.16130823 0.1273589 -0.086535424 -0.051178508
0001b0 48 23 74 be 88 2d 9b 3e 4e aa 96 3e dd 3b a2 bd
       -0.23841584 0.30308175 0.29426807 -0.07921574
0001c0 30 d0 b8 3d 28 9b 05 3e 02 37 39 bd b9 94 61 3e
       0.090240836 0.13047469 -0.045218475 0.2202939
0001d0 0c 74 85 3e 57 da 8b be 02 02 e5 3e a5 4f 8b 3e
       0.260651 -0.27315018 0.44728094 0.272092
0001e0 fa 96 ac 3e 60 38 cd be 09 54 71 be f4 30 a6 3d
       0.33708936 -0.40082073 -0.23567213 0.08114806
0001f0 7f 79 40 bd 36 fc 75 3e 70 94 16 3f ad b0 02 be
       -0.046990868 0.24021992 0.5882025 -0.12762709

bias f4 [32]
000000 95 b8 d8 3e ab 22 d5 3e 8f 6e 3f 3f f1 06 35 3f
       0.42328325 0.41628012 0.74778074 0.70713717
000010 8f 57 4c be f8 c8 8a bd 00 3a e8 3e d6 66 d6 be
       -0.19955276 -0.06776613 0.4535675 -0.41875333
000020 68 57 6a be a2 f8 93 be e3 b5 97 3e 28 e6 48 3f
       -0.22884905 -0.2890063 0.29630956 0.7847619
000030 96 bd 24 3f fe 9b 85 3f 81 bd 87 3f 82 ca 2b 3f
       0.64351785 1.043823 1.0604707 0.6710588
000040 e2 02 84 3f 8f 57 97 be bb 9b e0 be b0 8f 90 3f
       1.031338 -0.2955899 -0.43868813 1.129385
000050 59 db 5f 3f 81 ec d9 be 39 26 f5 be df 13 12 3e
       0.8744407 -0.4256325 -0.47880724 0.14265393
000060 db e8 ae be 87 b2 87 3f 8d d1 ed be b7 2b 48 3f
       -0.3416203 1.0601357 -0.46448937 0.78191704
000070 98 16 22 3f 64 df 6d 3f b6 6e 22 3f 11 ed 16 3f
       0.63315725 0.9291899 0.6345018 0.58955485

weight f4 [32, 32]
000000 d8 4a b3 bd 10 00 a9 bd 9b 08 59 be 1c 50 ab bc
       -0.0875451 -0.08251965 -0.21194689 -0.020912223
000010 db 3e 07 3e 58 75 19 bd be 70 07 3e e8 06 8a 3c
       0.13207571 -0.037465423 0.13226601 0.016848996
000020 1f d2 9f 3d 83 08 a3 bd f3 5a 33 be 1b be 00 bd
       0.07803749 -0.07960608 -0.17515163 -0.0314313
000030 4d 0c 19 3e a9 f6 2e bd 48 1b df bc de 89 49 3d
       0.14946099 -0.042715702 -0.027234688 0.049203746
000040 b3 02 f0 bd 74 16 6c 3d c0 30 97 3d c9 8f b2 bc
       -0.11719265 0.0576386 0.07382345 -0.021797078
000050 f3 ad cf bd 69 3a c4 bd f7 e1 f7 bd 4c 58 98 bd
       -0.101406 -0.09581453 -0.12103646 -0.07438716
000060 77 91 a1 bd f9 04 db bd ad ce 17 3e 69 87 80 3d
       -0.07889073 -0.10694308 0.14824934 0.062758274
000070 85 5f 1c bd 9e 24 5b bd b9 21 e8 3c be 27 5b be
       -0.038177032 -0.053501718 0.028336393 -0.21401879
000080 e7 a1 90 3e 8f bd 65 3e cd d2 dd 3e ee 88 ec 3e
       0.28248522 0.22435592 0.4332489 0.4619822
000090 10 a0 33 3d 97 80 12 bf 4d 09 93 3e 16 d7 46 bf
       0.04385382 -0.5722746 0.28718033 -0.77671945
0000a0 52 8b ad bf 17 2c d3 be 4d c9 b5 3d 0c 59 e6 3e
       -1.3558142 -0.41244575 0.08876286 0.44989812
0000b0 25 47 ea 3e 1f f0 00 3f ed 90 34 3f 34 43 94 3e
       0.45757404 0.50366396 0.7053364 0.28957522
0000c0 86 26 f6 3e ae f8 69 bf 1d 99 46 bf 90 d6 aa 3e
       0.48076266 -0.9139508 -0.7757738 0.33366823
0000d0 20 1e 20 3f 07 7c 98 3d d3 54 db be 7b 7e 94 be
       0.6254597 0.07445531 -0.42838153 -0.29002747
0000e0 3d 5a f8 be 6a 2c d5 3e 9f e5 83 bd f2 20 02 3f
       -0.48506346 0.41635448 -0.06440281 0.5083152
0000f0 ed 4b f1 3e 0c 4e 25 3f f3 80 bc 3e 59 1a 22 3f
       0.4712824 0.64572215 0.3681713 0.63321453
000100 f4 7c 1e be 95 2d 09 3e 6b de 6f bd 42 86 2e bd
       -0.15477353 0.13396294 -0.058561724 -0.042608507
000110 61 72 70 bd c9 a5 b3 3d 6a 89 de bd c9 c4 12 be
       -0.05870283 0.087718554 -0.108660534 -0.1433288
000120 14 a2 94 3d 6e 5b 23 be 82 de ad 3d 07 a2 26 be
       0.072574764 -0.15952846 0.084897056 -0.16272746
000130 6a 76 e9 3d fb 8b 1f 3e f3 b6 26 be 10 77 7c bc
       0.11399539 0.15580742 -0.16280727 -0.015409246
000140 ad fa 92 bd 35 dd 23 be 1d ee 66 be dc 08 ed bd
       -0.07176719 -0.16002353 -0.2255177 -0.115739554
000150 ab 36 01 be aa 22 c2 3d 73 88 13 be 51 07 ad 3c
       -0.1261851 0.09479268 -0.1440752 0.021121653
000160 93 ab 2c 3d 2e 26 42 be fe d5 cf 3d b8 44 19 bd
       0.042155813 -0.18959877 0.10148238 -0.03741905
000170 0d 88 29 be 47 06 8f 3d ad 44 3d 3b c7 29 e3 bd
       -0.16555806 0.06983619 0.0028880045 -0.11091953
000180 6a 39 4f 3d dc 50 32 be b7 fd 83 3c 98 d4 37 be
       0.050591864 -0.17413658 0.016112192 -0.17952192
000190 18 ce 84 bc 1c ff 35 3d 81 dc 7f bd 21 82 62 3d
       -0.016211554 0.044432744 -0.06246615 0.05529988
0001a0 1a 67 02 bd a2 21 c0 3d b5 f4 6a be 7d 5f 76 be
       -0.031836607 0.09381415 -0.22944911 -0.24059863
0001b0 dd d3 2e bc 02 02 a7 3a 1d 58 71 be 84 78 4f be
       -0.010670629 0.0012741687 -0.23568769 -0.20260817
0001c0 48 ab aa bd be 28 8d bd 72 45 ba 3d aa e3 88 bc
       -0.083334506 -0.068925366 0.09095277 -0.016710121
0001d0 8e 49 7e bc 85 52 e6 bd 80 fc ae 3c 78 50 f8 bc
       -0.0155204665 -0.11246208 0.021360636 -0.030311808
0001e0 b0 16 76 3c c9 9a 7d be aa ea ed 3d f1 59 41 bd
       0.015020058 -0.24766077 0.11617024 -0.047204915
0001f0 18 50 59 be cd cf 87 bd 67 38 30 bd 12 57 05 be
       -0.2122196 -0.06631432 -0.04302254 -0.13021496
000200 23 c3 64 be cf a0 39 be cf 25 2b 3e ca 40 ca bd
       -0.22340064 -0.1812775 0.16713642 -0.09875639
000210 1c f4 10 be 9c ad 5c 3d 89 6d 2f be 80 2d 82 bc
       -0.1415562 0.053876504 -0.17131628 -0.015890837
000220 cc b4 20 be f9 c9 8c bd b8 03 5d 3d 6b 7e 8f bc
       -0.15693969 -0.06874461 0.053958625 -0.017516335
000230 70 4e ee bd cc 74 92 3d ae a0 6b be f1 b6 34 3d
       -0.116360545 0.071511835 -0.23010513 0.04411978
000240 8a f1 9a 3c b0 b4 c1 bc 4e e6 08 be 1b 0c bf bd
       0.018914003 -0.023645729 -0.13369104 -0.09328481
000250 4c 21 86 bd e1 8e 33 be b1 92 2e 3e 1b ec 14 3e
       -0.065493196 -0.17534973 0.17048146 0.14543192
000260 9e e9 ef 3d 5d d3 4b be ee 6b e4 bd 9d 89 d5 bd
       0.11714481 -0.19904847 -0.111533985 -0.10426638
000270 22 be 27 be cc eb 17 be 04 9e 94 3a 63 5e 87 3c
       -0.16381124 -0.14836043 0.0011338596 0.0165245
000280 f9 b2 c1 3d 66 79 8c 3d 63 10 26 3f 97 08 27 3f
       0.094579645 0.068590924 0.64868754 0.6524748
000290 87 74 a7 3c 44 0f f5 be f8 a5 66 bc c3 1f 96 bf
       0.020441307 -0.4786321 -0.014077656 -1.1728443
0002a0 fe 18 94 bf 7e 88 16 bf 80 03 a6 3e cf d4 0d 3f
       -1.1570127 -0.5880202 0.32424545 0.55402845
0002b0 45 1f ec 3e 37 68 d5 3e 1e 63 06 3f 68 3f 85 3d
       0.46117607 0.41681072 0.5249499 0.065062344
0002c0 9a fc a1 3e 34 f1 13 bf 1b ba be be 87 f4 22 3f
       0.31638032 -0.5778992 -0.37251362 0.6365437
0002d0 28 fa 01 3f 62 da c0 3d fd d2 75 be b0 6b db 3d
       0.50772333 0.09416653 -0.24006267 0.10713899
0002e0 1a 3b 06 bf f7 34 02 3f ab 4f f7 3b 28 69 be 3e
       -0.5243393 0.5086207 0.007547339 0.37189603
0002f0 91 67 0f 3f 45 f6 18 3f b7 92 02 3f 8a 2a ad 3e
       0.56017405 0.5975078 0.5100512 0.33821517
000300 a2 95 55 be c9 cd d7 3d 68 e8 21 be 5b b1 3b be
       -0.20857862 0.10537297 -0.15811312 -0.18329374
000310 b0 7f 3c bd 9b 23 09 be c6 19 ee 3d d5 de c0 3d
       -0.04602021 -0.13392489 0.1162601 0.09417502
000320 c6 c2 90 3d 82 87 54 be 93 7e ac 3d 32 f8 8d 3d
       0.070684 -0.20754817 0.084225796 0.06932105
000330 05 50 34 3c 68 c7 3a be 4e 4a d0 bd 2c 8e c9 bd
       0.011005406 -0.1824013 -0.101704225 -0.0984157
000340 85 70 7b be 66 6b 3e 3a 89 48 1b bc dd 71 40 bd
       -0.24554642 0.00072639284 -0.009477743 -0.04698359
000350 9e 23 9d 3d f2 ac 93 3d 2c 94 85 be 0c e7 5f 3d
       0.07672809 0.07210721 -0.2608961 0.054663703
000360 96 cb e6 bd 93 ce e6 bd e3 4b 0e be 33 cb 45 be
       -0.112693 -0.1126987 -0.13896136 -0.19315796
000370 d2 34 65 3b ba c7 6e be e3 75 91 3d 38 0a 3b be
       0.003497411 -0.23318377 0.07102563 -0.18265617
000380 ec 5e 47 be 5b e0 41 be 04 29 82 3c 85 2f 1a bd
       -0.19469804 -0.18933241 0.015888698 -0.037642974
000390 38 1b 1b be 11 a0 2f be b0 30 ab 3d b2 e4 92 bd
       -0.15147102 -0.17150904 0.08358896 -0.071725264
0003a0 6f b9 0b be 81 3f 39 3d c1 f6 68 be ab e7 84 3b
       -0.13644956 0.045226578 -0.22750379 0.0040559373
0003b0 1b b6 dd bd 2d a6 7b bd 17 2b 54 be b9 90 2a bd
       -0.108257495 -0.061437774 -0.20719562 -0.041641925
0003c0 e2 3b bd bd 57 c2 be 3d 81 61 d1 3d 7a 74 9c 3d
       -0.09239937 0.09314411 0.102236755 0.07639404
0003d0 7a e9 7e be ac c9 00 bd 36 bf 12 bd 3c 31 e6 3c
       -0.24893752 -0.03144233 -0.035826884 0.028099649
0003e0 e5 d7 95 bd eb ba 6a be af fa 30 be c5 80 4a 3d
       -0.07316569 -0.22922866 -0.17283128 0.04943921
0003f0 90 6e ce bd e6 b1 22 be 2d 6a a0 3d 9a 41 35 bd
       -0.10079682 -0.15888175 0.078327514 -0.044252016

bias f4 [32]
000000 94 8e f7 bd 5f d8 0f 3f e5 15 08 be 92 b3 e4 3c
       -0.120877415 0.5618953 -0.13289602 0.027917657
000010 e0 a4 e1 bc 73 a6 fc 3e cb 7a 7b be d2 53 2a 3d
       -0.027544439 0.4934574 -0.2455856 0.041583844
000020 a0 94 01 3f 00 60 5c be dc 0f 18 3f 1b 46 fd 3e
       0.5061741 -0.21520996 0.593992 0.4946755
000030 31 64 60 be a3 39 0c 3f 09 c9 76 bd e0 87 a0 bd
       -0.2191322 0.54775447 -0.060250316 -0.07838416
000040 90 11 ea 3e c2 a7 ed bd 24 b4 16 3f ac 90 b2 3d
       0.45716524 -0.11604263 0.5886862 0.08719
000050 d1 30 e3 3e 13 11 01 3f bd ef ff 3e 8f d6 6c bd
       0.4437318 0.5041668 0.49987593 -0.057821807
000060 db 09 dc 3a dd 1d c7 3e e8 7e d3 3e 6d d5 f4 3e
       0.0016787605 0.3888997 0.4130776 0.4781908
000070 29 6a 1a 3f cb 5e 15 3f a3 88 0a 3f e7 f6 a3 3e
       0.6031824 0.5834777 0.5411474 0.3202431

weight f4 [2, 32]
000000 75 ef 5a 3d 9c 08 97 3d 3a 74 43 bc 4f 0e 58 bc
       0.05345102 0.07374689 -0.011929566 -0.013187005
000010 37 a8 c1 3d 94 2e 11 be 83 51 1a 3e 62 84 88 bd
       0.094559126 -0.14177924 0.15070157 -0.06665875
000020 56 76 5b 3e d0 54 90 be c2 4b f5 3d f0 98 3e 3d
       0.2143186 -0.28189707 0.1197734 0.04653257
000030 c8 13 fe 3d 9d 36 da bd 25 89 80 3d a2 24 90 bd
       0.12406117 -0.10654948 0.06276158 -0.07038237
000040 5e ae b0 3e 6a 45 b0 bc 0b 83 97 3e 28 ed 9f bc
       0.34508032 -0.021517474 0.29592165 -0.019522265
000050 37 ed 0c bd 61 10 c8 3e bd bf dc bc 11 74 0e 3e
       -0.034405913 0.39074996 -0.026946897 0.13911463
000060 a3 2e 94 bd 9d ea 24 3d 48 de 10 be 82 12 ac 3e
       -0.07235458 0.040262807 -0.14147294 0.3360787
000070 c8 c8 1e 3d fc f8 0a be 04 d5 03 bd b5 34 b1 be
       0.0387657 -0.13571543 -0.03218557 -0.34610525
000080 21 12 80 3d 30 4f 6a 3e 39 ee 85 bd 9b fe ce bc
       0.06253458 0.2288177 -0.06539578 -0.02526789
000090 75 da 33 be ed 50 d8 3e dc fc 40 be 03 fe 54 be
       -0.17563803 0.4224924 -0.18846458 -0.20800023
0000a0 e8 7e 82 be 86 9e e9 3d c2 da 36 be d7 6d ca 3c
       -0.25487447 0.11407189 -0.17856887 0.024710579
0000b0 3c e4 09 3d 75 a7 67 3b fb 0d e7 3c d3 dd 40 ba
       0.033664927 0.0035347615 0.028204909 -0.0007357273
0000c0 73 56 f1 bd e8 a3 1f be 19 c7 a3 be af cc 84 be
       -0.11784067 -0.15589869 -0.31987837 -0.2593741
0000d0 ce 52 95 3e b5 49 dc be 01 c4 86 3e bb 84 b1 3d
       0.29164737 -0.43024984 0.26321414 0.086678945
0000e0 ed 84 02 be e8 9a 93 3e 2c dd 04 3e 36 c2 a8 be
       -0.1274602 0.28829122 0.12974995 -0.3296067
0000f0 37 fc 4e be 08 b7 96 3d b0 c4 9f 3e 3b 5b a1 3e
       -0.202134 0.07359129 0.31204748 0.31514916

bias f4 [2]
000000 32 1a f1 bc f1 f7 b8 3d
       -0.029431436 0.09031666

weight f4 [1, 32]
000000 a0 96 39 bd 22 e4 33 3f 78 6a a9 3d d7 c7 90 bd
       -0.045309663 0.7026998 0.082722604 -0.070693664
000010 fe 44 aa bc b0 a2 3b 3f 30 d8 89 3d a4 c5 8d bd
       -0.020784851 0.73295116 0.067306876 -0.069224626
000020 56 b7 4a 3f 8a c8 7b 3d 0b 3a 35 3f 1c 96 29 3f
       0.79186 0.061470546 0.7079169 0.66244674
000030 d8 d1 ed bd 9e 92 3b 3f db 12 c6 3a 80 6e ad bc
       -0.1161229 0.73270595 0.001511182 -0.021170855
000040 e7 7c 53 3f c5 85 0f bd 85 3f 59 3f 14 81 5b bd
       0.8261246 -0.035039682 0.8486255 -0.053589895
000050 25 79 40 3f e7 cd 48 3f 9b a4 3b 3f bf 73 a4 bc
       0.7518485 0.7843918 0.73298043 -0.020074723
000060 b6 68 88 bd 9e aa 6a 3f e8 40 27 3f 54 6e 5a 3f
       -0.06660597 0.9166659 0.65333414 0.853246
000070 95 52 37 3f 2e a0 35 3f 91 a9 34 3f 47 10 32 3f
       0.71610385 0.7094754 0.7057124 0.6955609
