data/PPO_runs/20220509-014004/model.pth (torch, 8399 bytes, 7 tensors)

weight f4 [32, 4]
000000 34 12 c6 be 12 b8 30 3f 85 09 07 3f a0 09 af be
       -0.38685763 0.6903087 0.527489 -0.3418703
000010 06 6f 35 bd 90 7f d4 3c a7 a2 9e be 5e 6c 32 3e
       -0.044295333 0.025939733 -0.3098347 0.17424151
000020 51 02 04 bf e9 f0 0b 3f 89 b5 77 3c f3 74 a8 3d
       -0.51566035 0.54664475 0.015118965 0.08225431
000030 68 ae 5b be 1e 99 49 3e 47 d7 a2 be f8 68 b1 be
       -0.2145325 0.19687316 -0.3180487 -0.34650397
000040 87 8c 8c 3f 45 ed 76 3f 97 cd f6 3f dd b1 6f 3f
       1.0980386 0.96455795 1.9281491 0.9363077
000050 fc 7d 54 bd 41 db 0e 3d 7d f3 7d bc ed ab c0 be
       -0.05187796 0.034877066 -0.015499947 -0.3763117
000060 46 e2 0f 3f cb 5a d9 3e ab 39 8b 3d 53 31 61 3d
       0.5620464 0.42452082 0.06798109 0.05497868
000070 41 f1 9d 3f fb d9 61 3f a1 cb f2 3f 6a 53 3d 3f
       1.233925 0.88223237 1.8968393 0.73955405
000080 2b 07 01 3e 70 d7 9e 3e 44 7c 85 3e 54 84 98 3e
       0.1260039 0.3102374 0.2607137 0.29788458
000090 83 d4 3b bc ae 5b 5b 3e 8f b2 83 be 7a 14 ad be
       -0.011464241 0.21421692 -0.25722167 -0.33804685
0000a0 5f 5b 4e bf 9a d5 06 bf 14 29 7a 3d 66 bf 19 3e
       -0.8060817 -0.5266968 0.06107433 0.15014419
0000b0 f6 f4 f2 be 20 c0 05 3f ff 13 99 3e 91 2c 1b bd
       -0.47452515 0.52246284 0.29898068 -0.0378843
0000c0 9c 2b c3 3e e9 38 e5 be 81 48 07 3d 62 91 ab be
       0.3811921 -0.44769982 0.03302813 -0.33509356
0000d0 b6 d0 4a 3e 98 6a 83 be 06 db d8 be 9f bb 03 3e
       0.1980618 -0.25667262 -0.42354602 0.1286454
0000e0 d4 57 77 be 25 3e b8 3e 29 4f 7f be 06 97 ca be
       -0.24154598 0.35984913 -0.24932541 -0.39568347
0000f0 47 72 0f 3f e6 b6 f0 be dc 51 53 3e 4c 8a a8 bc
       0.5603375 -0.4701454 0.20636696 -0.020573758
000100 79 bf 94 3e d0 45 89 ba c3 5d 45 be 24 31 65 3d
       0.29052332 -0.0010473076 -0.19274049 0.055955067
000110 75 ac 0e bc c7 45 7e bd df 01 f7 be 7c 25 0d 3e
       -0.008708109 -0.062078264 -0.48243615 0.1378383
000120 ed 69 df 3e 24 09 12 be 18 9b 8f be d3 f9 3c 3e
       0.43635502 -0.142613 -0.28048015 0.18454675
000130 44 9b 9a 3e f1 72 7b bd 0a 95 0d 3e 1b ad d3 bd
       0.30196583 -0.061388914 0.13826385 -0.103357516
000140 ad 16 0a be 5b 30 04 bf c2 15 24 c0 6c 48 09 bf
       -0.13485213 -0.51636285 -2.563828 -0.5362613
000150 f3 2d 09 3f da cb fc be 7e c1 0f be 69 c5 69 3e
       0.5358574 -0.49374276 -0.14038655 0.22829212
000160 23 18 2d bd 76 5b 19 be 9d 10 36 be 4a 2c de be
       -0.042259347 -0.14976296 -0.17779775 -0.43393165
000170 68 c2 c2 3d 03 55 6c 3e dd 5e 0b 3f f5 c0 c9 3e
       0.09509736 0.23079304 0.54441625 0.39405027
000180 1a 3d 16 3e bc 0b 74 be db 0b d3 be a6 75 8e 3e
       0.14671746 -0.23832601 -0.41219983 0.27824134
000190 15 51 ea bd dd 28 e7 3d 68 87 73 be ee 1d 10 3e
       -0.114412464 0.11287091 -0.23782122 0.14073917
0001a0 9a 2c 45 3e 79 86 0a bf db 02 47 bf 62 dd 05 3e
       0.19255295 -0.5411144 -0.7773873 0.13072732
0001b0 1d f0 a6 be be d8 e9 3e 3a 4c 4b 3d 2e 8c 56 be
       -0.32605067 0.45673174 0.049633242 -0.20951912
0001c0 a4 81 19 bf 32 ce 1e bf 9f 47 49 bd dd 1f dd be
       -0.5996344 -0.6203338 -0.04914057 -0.43188372
0001d0 0b 95 bc be 06 f2 2e 3f a8 95 61 3e 4f a4 c2 be
       -0.3683246 0.6833805 0.22029746 -0.38015983
0001e0 d3 ba 98 3e 0e 91 13 3e ab e1 6e 3e 5a a9 75 3e
       0.29830036 0.14410803 0.23328273 0.23990384
0001f0 fe b4 77 3f ae b2 12 bf 9c 3d 79 bf 8d 02 47 bf
       0.9676055 -0.57303894 -0.97359633 -0.7773827

bias f4 [32]
000000 27 dd 57 3e fc 64 81 3f 24 1b 2f 3f 36 c7 7e 3f
       0.21080457 1.0108943 0.6840079 0.9952272
000010 0a bb b2 be 14 85 32 3f e3 e9 dd be 58 97 56 3e
       -0.34908324 0.6973431 -0.43342504 0.2095617
000020 fe 10 90 3f 8d bf dc 3e 39 9c db be e0 92 58 3f
       1.1255186 0.43114892 -0.42892626 0.84599113
000030 13 b5 65 3f 28 a1 34 3f 33 e2 7c 3f d6 1e 9b 3f
       0.8972942 0.70558405 0.9878265 1.2118785
000040 bb 6d 75 3f 24 88 6d 3f 24 bd 91 3f c2 7b 50 3f
       0.9587056 0.9278586 1.1385846 0.8143884
000050 89 59 f5 3d 3b e5 81 3f 40 f1 60 3f 32 21 5f 3f
       0.11979968 1.014808 0.8786812 0.8716003
000060 37 ea 7e 3f 63 16 bf be 52 0b 4b 3f 1b 7c 7a 3f
       0.99576133 -0.37321767 0.7931415 0.9784562
000070 7a e7 f5 be e8 12 23 be e9 02 96 3f cc 6c be be
       -0.48028165 -0.15925181 1.1719638 -0.3719238

weight f4 [32, 32]
000000 aa c4 cd bd e5 b9 a2 bc a6 d7 50 be 8f 91 7b bd
       -0.10047276 -0.019864032 -0.20394763 -0.061418112
000010 36 4c fe 3d 58 d7 aa bd cc 57 39 bd f2 3f a4 3d
       0.1241688 -0.08341855 -0.045249745 0.08020009
000020 3d 60 93 bd 32 7a c3 3d de c8 50 be 19 bc 5a be
       -0.0719609 0.09544791 -0.20389125 -0.21360816
000030 72 d0 90 be dd 1f f6 bb 2c b5 1a be be 51 3b be
       -0.2828403 -0.0075111226 -0.15108174 -0.18292901
000040 26 de 6b be ca 0c f8 bd 7e ef 1a 3d 60 6c 3d be
       -0.23033962 -0.12111814 0.037826054 -0.18498373
000050 ac df 02 bd 1d a1 3c be 6e 1d 4e be 22 44 3b bc
       -0.03195159 -0.18420835 -0.20128414 -0.011429818
000060 99 bf 06 3d 39 47 bd bb 78 48 15 be a3 41 4a be
       0.032897566 -0.0057763127 -0.14578426 -0.19751601
000070 5f 50 0c 3d c9 e7 d7 bb 04 6a 10 be 3a 26 6a be
       0.034256335 -0.0065889102 -0.14102942 -0.22866145
000080 cf 7d 86 bc 12 23 8c be 09 c0 82 be 81 64 74 be
       -0.016417412 -0.27370507 -0.25537136 -0.23866464
000090 dd 51 a0 3d 5c 09 06 be 26 47 d2 3d bd 94 eb bd
       0.07828114 -0.13089508 0.10267477 -0.11502979
0000a0 96 0e eb bd 0b 50 1e bd 7e b3 88 be 67 51 30 bd
       -0.114773914 -0.038650554 -0.26699442 -0.04304638
0000b0 2f 43 88 3d 8a a8 1c 3d 14 ba 7a 3d e8 12 cf bc
       0.06653439 0.03824667 0.061212614 -0.02527757
0000c0 88 79 8b 3d c2 e9 0e be 8e bf 9f bc 5e eb fb bc
       0.068102896 -0.13956359 -0.01950052 -0.03075188
0000d0 63 6f 38 be 9a 7f 1e be 6f 76 54 be e1 32 7d be
       -0.1801124 -0.15478364 -0.20748304 -0.2472644
0000e0 6f c4 32 be 57 81 69 bd a9 30 6a 3d b9 89 33 be
       -0.17457746 -0.057008114 0.057175312 -0.17533006
0000f0 2b 77 0f 3d 0d 4f 96 3d 82 53 98 3d a3 7e 1b 3d
       0.035025757 0.073392965 0.07437803 0.037962567
000100 dc e8 4d 3e ba 35 4f 3f 06 80 09 3f a6 6c 37 3f
       0.2010836 0.80941355 0.53710973 0.7165016
000110 92 06 63 bf 17 fc 14 3e 32 94 22 bf d8 d3 8f bf
       -0.886819 0.1454929 -0.6350738 -1.1236525
000120 52 2f 3c 3f 40 6f 11 3e ad 33 85 be fb 43 0b 3f
       0.73509705 0.14202595 -0.26015988 0.54400605
000130 f2 b7 51 3f 7b 9a 0e 3f b8 30 cc 3e ac d1 07 3f
       0.81921303 0.5570447 0.3988092 0.5305431
000140 5e af 4a 3f ad 41 14 3f bb e3 55 3f c5 f1 ba 3e
       0.7917384 0.57912713 0.83550614 0.3651258
000150 59 54 93 bf e8 6e d4 3e 83 0b 93 3e df d0 29 3f
       -1.1510116 0.41490865 0.2871972 0.66334337
000160 39 2d 0f 3f 1a 67 3c be 90 25 10 3f 62 7c 3d 3f
       0.5592838 -0.18398705 0.56307316 0.7401792
000170 95 f7 01 bf 8d 52 1f be 02 ab 37 3f 03 8b 54 bf
       -0.50768405 -0.15558834 0.7174531 -0.83024615
000180 5b 7d 0e be 88 a2 4e be 78 04 11 bd a5 ac 2f be
       -0.13915007 -0.20179188 -0.035404652 -0.17155702
000190 28 3b 7b 3d 70 ab a0 bc 80 28 68 bc be 2e e1 3d
       0.061335713 -0.019612998 -0.014169812 0.109952435
0001a0 3b 04 da bd 12 e5 b4 bd ea e4 30 be 6b 77 bc 3c
       -0.10645338 -0.08832754 -0.17274824 0.023006162
0001b0 39 f3 42 bd d7 51 07 3c 09 a1 1f 3d e8 9c fb bd
       -0.047595236 0.008259258 0.038971934 -0.12285787
0001c0 89 ba af 3d fd 28 66 be e9 f0 5e be ae f1 30 be
       0.08580501 -0.22476573 -0.21771587 -0.17279693
0001d0 e0 50 08 bd 78 73 8d 3d 2c 92 e6 3d 0a d9 1d be
       -0.033280253 0.069067895 0.11258349 -0.15414825
0001e0 44 5e d1 bb 6f 4c 31 be ac d5 d7 bc 30 b0 6f be
       -0.006389411 -0.17314313 -0.026347004 -0.23407054
0001f0 4e 4c 49 bd 74 cc 59 be 77 b6 c2 3a 5d e6 62 bc
       -0.049145035 -0.21269399 0.0014855404 -0.013848868
000200 f4 1d 29 3d ce c6 da bd dc d6 f6 3b c3 35 b3 3d
       0.04128833 -0.1068245 0.0075329375 0.087504886
000210 02 c4 ad 3d d9 c9 0a be 2b b1 c1 bd 07 59 4f be
       0.08484651 -0.13553561 -0.0945762 -0.20248805
000220 99 ae 04 be a9 05 33 3c 5c 11 57 be a7 8e db 3b
       -0.12957229 0.010926642 -0.21002716 0.006700355
000230 ec f7 5e bd cc b7 18 be c9 66 fd bd 40 70 2c be
       -0.054435655 -0.14913863 -0.1237312 -0.16839695
000240 c6 cc 6a be ed 1b 70 3d 0a 0e 4f bd 8d de 29 3a
       -0.22929677 0.058620382 -0.050550498 0.0006480001
000250 24 49 6c be 8a 92 3a be 77 06 87 3d 47 20 01 bc
       -0.23074776 -0.18219963 0.0659303 -0.007881231
000260 e2 dc b7 3d 69 68 45 be 11 b2 ed bd 9e f0 44 be
       0.08977677 -0.1927811 -0.11606229 -0.19232413
000270 f1 5b 8c 3c e0 5e a8 3d 8b 61 4f be ac e7 82 be
       0.017133685 0.08221221 -0.20252053 -0.25567377
000280 74 4e 11 ba f6 cd 2f bc e0 d2 f0 3a 6e 55 56 be
       -0.00055430015 -0.010730257 0.0018373393 -0.20931026
000290 ef 02 d7 3d f2 9e 32 be 89 2c 28 3e 0c 6e 38 3d
       0.104986064 -0.17443445 0.16423239 0.045026824
0002a0 c2 a7 41 be 4b 3a 38 3d 65 bd 0e be ae 51 97 3d
       -0.18911651 0.044977468 -0.13939436 0.07388626
0002b0 e1 49 04 be 22 74 c2 3d f5 c8 c3 3c a6 cb c0 bd
       -0.12918808 0.09494807 0.023899535 -0.09413843
0002c0 49 18 50 bc 13 c5 0c be ac 8e 11 3e 53 9c 2f 3e
       -0.0127011025 -0.13747053 0.14214581 0.17149477
0002d0 20 6f 1f 3c 48 46 69 bd 1b a6 1e be 9a a8 24 3e
       0.009731084 -0.05695179 -0.15493052 0.16079941
0002e0 20 5c 2b 3c a0 85 0e 3e 20 2c 90 3b f6 0b b2 3c
       0.010458976 0.13918161 0.0043997914 0.021734219
0002f0 ab 8f fa bd 77 83 cf 3d 8f f4 6d be 02 9c 04 3d
       -0.12234434 0.10132497 -0.23237823 0.032375343
000300 36 bd 7f 3e 61 93 cd 3e 07 f1 11 3f e2 a1 42 3f
       0.24974522 0.40151504 0.57008404 0.76028264
000310 5c 03 87 bf ad 7d 01 3f 88 4b e6 be 63 e6 c5 bf
       -1.05479 0.5058239 -0.449795 -1.5460933
000320 91 dd ed 3e 8f 51 04 3e 72 e0 60 be 3d ea 30 3f
       0.46458104 0.12921737 -0.21960619 0.6910742
000330 0e 8e 81 3f cd 38 13 3e fc a3 12 3f 6a 36 0b 3f
       1.0121477 0.14377137 0.5728147 0.54379904
000340 07 36 76 3f e3 bb d8 3e a0 ff 0a 3f 37 73 35 3f
       0.9617619 0.42330846 0.542963 0.7087893
000350 8a c8 92 bf 25 00 b0 3e d4 04 27 3f 56 5d 17 3e
       -1.146745 0.3437511 0.6524174 0.14781699
000360 46 85 88 3e 3c e4 4d bd 40 6b 7f 3e 73 a9 2f 3f
       0.2666418 -0.05026649 0.24943256 0.68617934
000370 b9 26 c0 be 59 87 52 3d 82 a0 11 3f bf 0f 25 bf
       -0.37529543 0.05139861 0.5688554 -0.6447715
000380 2d 5c 35 3d 64 47 b0 3d f5 cd be bd 32 fb 58 be
       0.04427736 0.08607367 -0.09316627 -0.21189573
000390 ca 2b e6 3d 5b fe da bd 17 14 04 be a1 bd e2 bd
       0.11238821 -0.10693046 -0.12898289 -0.11071325
0003a0 e7 3e 94 bc e5 57 a1 3d 29 38 5b be b7 75 5e bd
       -0.0180964 0.07878093 -0.21408142 -0.05431148
0003b0 a7 59 20 3d ee d5 20 be 0a b6 39 be 0e 36 e9 bd
       0.039148 -0.15706608 -0.18135849 -0.11387263
0003c0 37 1a 4c bd 71 bb 22 be 98 36 62 be b7 de 88 be
       -0.049829688 -0.15891816 -0.22091138 -0.26732418
0003d0 dc 90 7c bd d0 43 59 be d3 1c 78 be f1 a9 b5 bd
       -0.061661586 -0.21217275 -0.24229746 -0.088703044
0003e0 d3 0c 04 be 24 85 55 3d 75 cb 3f be 9a d4 64 bd
       -0.12895517 0.052128926 -0.18729956 -0.055866815
0003f0 49 b2 bc bd 68 31 ba bd a6 b2 56 3d 38 cf be bd
       -0.09213693 -0.09091455 0.052416466 -0.093168676

bias f4 [32]
000000 61 77 3f 3a 2b 75 7b bc 73 b2 36 3f 23 81 74 3d
       0.00073038606 -0.015347759 0.7136604 0.059693467
000010 2c b8 b7 3c 43 09 5c be 5e bb dc 3e e9 a8 27 3d
       0.022426687 -0.21487908 0.431117 0.04093257
000020 24 aa e2 bc f6 ff ac bd eb 60 b3 bd 6a a0 09 be
       -0.02766902 -0.08447258 -0.0875872 -0.134401
000030 8b a8 f6 bd fc e5 9d bd 27 f5 cf 3e 48 cd fe 3e
       -0.12043866 -0.07709882 0.40616724 0.49765992
000040 5d 99 fa 3e 64 be 58 be 77 09 b1 bc 89 d2 31 be
       0.48945132 -0.21166378 -0.021610959 -0.17365469
000050 67 e8 96 bd a3 da d6 bd 03 ff 38 3f 46 f4 a1 3c
       -0.07368546 -0.104909204 0.72264117 0.019769799
000060 0f de 29 3f 8c 60 d9 3e bd 86 d2 3e a4 49 db bd
       0.6635446 0.42456472 0.41118422 -0.10707405
000070 57 4e 8f bd 9a 23 b3 3e a7 e5 ec 3e da 68 0a be
       -0.06997364 0.349881 0.4626896 -0.1351656

weight f4 [2, 32]
000000 1c 75 6c bd 86 0f 41 3e d2 bd d3 bb e8 b4 15 be
       -0.05772887 0.18853578 -0.0064618373 -0.14619792
000010 7b d3 7e 3e 88 17 6f be 30 3e 46 3e e0 59 0c 3e
       0.24885361 -0.2334882 0.1935966 0.1370616
000020 80 86 07 3d 69 92 8b bc 48 ed b9 3d 45 a5 68 3d
       0.033087254 -0.017037587 0.09078461 0.05679824
000030 78 8b 02 be bc bb 03 bd f7 75 32 be 9b db 26 bd
       -0.12748516 -0.03216146 -0.17427813 -0.040736776
000040 40 24 2c 3e 28 85 ab bd 01 cc 0e be dd 35 98 3d
       0.16810703 -0.08375007 -0.13945009 0.074321486
000050 32 69 2f 3b 96 a9 a0 3f 0b e4 b5 bd b4 96 b2 bc
       0.0026765582 1.2551754 -0.08881386 -0.021800376
000060 70 c5 5b be ff 9f da 3d 7a b9 83 3e 72 14 2b bd
       -0.21462035 0.10675048 0.25727445 -0.041767545
000070 a0 70 2c 3e 30 36 34 be 10 3d 9a bd 94 d8 07 3e
       0.16839838 -0.17598796 -0.07531178 0.13266212
000080 b6 15 fa 3d 91 fd e8 bd eb 12 0c 3e 23 67 c6 bd
       0.12211172 -0.11376489 0.13679092 -0.096876405
000090 f4 08 60 be 8a 56 77 3e 66 7c 94 be d7 a3 e6 bd
       -0.21878415 0.24154106 -0.29001158 -0.11261719
0000a0 e8 65 3a 3e b0 52 7a be 9b 62 6a bd 8c a1 96 bd
       0.18202937 -0.24445605 -0.057222944 -0.07355031
0000b0 1a 65 bb 3d 6f 39 0b be ca 95 65 3e cd dd 4c 3e
       0.09150143 -0.13596128 0.22420421 0.20006485
0000c0 ab 02 03 be 3c cd a4 bc 85 31 9d 3e b1 0d a1 bd
       -0.12793986 -0.020117395 0.30701843 -0.078639396
0000d0 db 9e 25 3c f2 22 9e bf 89 17 a9 3d 94 26 11 3d
       0.010108675 -1.2354414 0.08256442 0.03543718
0000e0 97 2a a3 bd 3d 66 2c be ed a0 63 bd 85 8e b7 3c
       -0.07967108 -0.16835876 -0.055573393 0.022406826
0000f0 4b e7 fc 3c b6 0c d5 3d d5 04 25 3d 1f 98 f9 bd
       0.030872008 0.10402815 0.04028781 -0.12187218

bias f4 [2]
000000 62 72 28 bd f8 0f 12 3e
       -0.04112471 0.14263904

weight f4 [1, 32]
000000 61 9e 7c bd c9 34 48 bd 5b 70 38 3f c9 69 11 bd
       -0.06167448 -0.048878465 0.7204644 -0.035501275
000010 1e b7 0a bd 28 b0 27 bc ca c1 45 3f f5 05 66 bb
       -0.03386604 -0.01023487 0.77248824 -0.0035098766
000020 cc 5b 20 3c 80 e2 18 3d b8 9e 1f 3d cc 70 b0 3c
       0.009787511 0.037325382 0.038969725 0.02153816
000030 50 4f ce bc 30 43 3b bd 7c 4e 5e 3f 02 8d 38 3f
       -0.025184304 -0.045718372 0.8683851 0.7209016
000040 45 34 56 3f 3e c9 ee bd 06 e8 08 bc 46 13 98 bd
       0.83673507 -0.11659478 -0.0083561 -0.07425551
000050 60 b2 e0 3c 44 d1 6d be 72 7b 37 3f 09 8b 6f bd
       0.027428806 -0.2322436 0.7167274 -0.058482204
000060 b0 59 36 3f ca aa 3e 3f e8 05 3d 3f f4 83 52 bd
       0.712306 0.74479353 0.7383714 -0.05139537
000070 f3 a8 c4 3c bc 6f 5c 3f 8a f6 36 3f f9 ac 69 bf
       0.024006343 0.86107993 0.7146994 -0.9127956
