data/PPO_runs/20220509-030344/model.pth (torch, 8399 bytes, 7 tensors)

weight f4 [32, 4]
0	0x3e137125	0.1439863
1	0xbe5835d6	-0.21114287
2	0xbf561091	-0.8361903
3	0xbf279b1a	-0.6547104
4	0x3d43f6a4	0.047842637
5	0x3e7c313a	0.24628153
6	0xbdbe454d	-0.09290562
7	0x3e413841	0.18869115
8	0x3eec3002	0.46130377
9	0x3eb645b9	0.3560007
10	0x3f8c15bc	1.0944133
11	0x3f6d8a83	0.9278948
12	0xbe82ee94	-0.25572646
13	0x3ef868d9	0.48517492
14	0x3ef50c1d	0.47860804
15	0xbead993f	-0.3390598
16	0x3e4b0433	0.1982582
17	0xbf249418	-0.64288473
18	0x3deca44c	0.11554775
19	0x3f0b2ab3	0.5436203
20	0x3c8785c9	0.016543286
21	0xbcb2d575	-0.0218303
22	0x3eb1bcbd	0.34714308
23	0xbdca6405	-0.098823585
24	0xbd159f47	-0.03652885
25	0x3e11a415	0.14222749
26	0xbebaaca7	-0.36459848
27	0x3ec84bcc	0.39120328
28	0x3e15a4be	0.14613625
29	0x3e4412a5	0.19147737
30	0xbee063e8	-0.43826222
31	0xbeb6d709	-0.35710934
32	0xbf27752f	-0.6541318
33	0xbebeb416	-0.3724677
34	0xbeafa415	-0.34304872
35	0xbf2235d9	-0.63363415
36	0x3e48e566	0.19618759
37	0xbe85b022	-0.2611094
38	0xbdc34cf8	-0.09536165
39	0xbd34be72	-0.044126935
40	0x3e8360bb	0.25659737
41	0xbea5962a	-0.3234113
42	0xbe8c427f	-0.27394482
43	0xbdf6493f	-0.12025689
44	0x3e08785e	0.13327166
45	0xbee62317	-0.44948646
46	0xbe76481e	-0.24050948
47	0xbe522c10	-0.20524621
48	0xbea441e6	-0.32081527
49	0x3ee836b0	0.45354223
50	0xbc7bda0c	-0.015371811
51	0x3eaa5117	0.33264992
52	0x3f0da302	0.55326855
53	0xbe63d20c	-0.22248095
54	0xbfa69c9b	-1.3016542
55	0xbf4d0045	-0.80078536
56	0x3b852d08	0.004064206
57	0xbe3f1fe2	-0.18664506
58	0x3e880807	0.26568624
59	0xbecc50e5	-0.39905468
60	0x3dba5203	0.09097674
61	0xbec63ec4	-0.3871976
62	0xbf19a063	-0.60010356
63	0xbe43fb7a	-0.191389
64	0x3e48170a	0.19540039
65	0x3e8b13fd	0.27163687
66	0xbeaceeb9	-0.3377588
67	0x3ec28d7e	0.37998575
68	0xbec19c83	-0.3781472
69	0x3ebce222	0.36891276
70	0x3ef2568e	0.4733166
71	0x3d03678a	0.032081164
72	0x3da9f558	0.08298749
73	0x3e4a58fe	0.1976051
74	0xbed1b034	-0.40954745
75	0xbe8d2b47	-0.2757208
76	0x3e875462	0.26431566
77	0xbe3a1422	-0.18171743
78	0xbc4d133e	-0.012516795
79	0x3d06f23d	0.03294586
80	0xbd16138e	-0.036639743
81	0xbf27968b	-0.65464085
82	0xbf6d14e7	-0.9261002
83	0x3ea37ba9	0.31930283
84	0xbdfb5940	-0.122728825
85	0xbe84c7f7	-0.2593381
86	0x3e801a9a	0.25020295
87	0xbeebe048	-0.4606955
88	0xbe31b71f	-0.17355011
89	0xbbd8c004	-0.006614687
90	0xbf006af6	-0.5016321
91	0xbcd2471c	-0.025668673
92	0x3decf5b8	0.11570305
93	0x3ecf2ed1	0.40465406
94	0x3ed8a08e	0.42309994
95	0xbef6508b	-0.48108324
96	0x3e1ba050	0.15197873
97	0xbe9e9cb1	-0.3097892
98	0xbddcbd39	-0.10778279
99	0x3db8f116	0.090303585
100	0x3cf485b4	0.02984891
101	0x3da86f81	0.08224393
102	0x3e8ec6d5	0.27886072
103	0x3dfd61ee	0.12372194
104	0xbec3aa8c	-0.38216054
105	0x3ed0fee2	0.4081946
106	0x3f04066f	0.51572317
107	0xbeb3a2ce	-0.35085148
108	0x3f02d492	0.51105607
109	0xbea038f4	-0.31293452
110	0xbfa0a2c4	-1.2549672
111	0xbf7ce62f	-0.9878873
112	0x3ecb887e	0.39752573
113	0xbea8888f	-0.32916686
114	0xbe8b3d67	-0.27195284
115	0x3e9878a5	0.29779544
116	0x3d79b898	0.060967058
117	0xbdd1c4db	-0.10242625
118	0x3cfa6605	0.030566225
119	0xbd975398	-0.07388991
120	0x3dc5e8b3	0.096635245
121	0x3ebf92e8	0.37416768
122	0xbe973bdb	-0.29537854
123	0x3ee14e2b	0.4400495
124	0x3e74108f	0.23834442
125	0x3e47bf56	0.19506583
126	0x3e876cac	0.26450098
127	0x3e6d27f1	0.23159768

bias f4 [32]
0	0xbe162987	-0.14664279
1	0x3f5683d9	0.83794934
2	0xbe58f925	-0.21188791
3	0x3e504fea	0.20342985
4	0x3f363b5d	0.7118433
5	0xbe91f4af	-0.2850699
6	0xbef3cf8e	-0.4761929
7	0x3f8d12b2	1.102133
8	0xbe8213e0	-0.25405788
9	0xbe71653f	-0.23573779
10	0xbef7a1cf	-0.48365638
11	0x3f3d9855	0.74060565
12	0x3f47a536	0.77986467
13	0xbe24c2ef	-0.16089986
14	0x3f81d93c	1.014442
15	0x3f6b423d	0.91897947
16	0x3f80e1a1	1.0068856
17	0x3f311cb7	0.6918444
18	0x3f7b8c1e	0.98260677
19	0x3f7f96a1	0.99839216
20	0x3e5988b9	0.21243562
21	0x3f7dfaaf	0.9921064
22	0x3f45cc65	0.77265006
23	0x3f812b8b	1.0091413
24	0x3f56da48	0.8392682
25	0xbebdff53	-0.3710886
26	0x3f49c6e4	0.7881911
27	0xbe558547	-0.20851623
28	0x3f9817df	1.1882285
29	0xbf123adb	-0.57121056
30	0x3f67ad68	0.9049897
31	0x3f852420	1.040165

weight f4 [32, 32]
0	0x3e486f7f	0.19573782
1	0x3c6f3f5d	0.014602509
2	0xbdc7f3cd	-0.09763298
3	0x3e66eb15	0.22550614
4	0xbd6ee000	-0.05831909
5	0xbdb2cc14	-0.08730331
6	0xbe4aea2c	-0.19815892
7	0x3c4d79c0	0.0125412345
8	0xbe2c3062	-0.16815332
9	0x3de55758	0.111983
10	0x3da66588	0.08124834
11	0x3a82b204	0.0009971266
12	0x3cc6be51	0.024260672
13	0x3e360889	0.17776693
14	0x3bc92a70	0.006139092
15	0xbe6f4a06	-0.23368081
16	0xbd76a72d	-0.060218025
17	0xbde88476	-0.1135339
18	0xbe66e8bf	-0.22549723
19	0xbe15374c	-0.14571875
20	0x3ce6875f	0.028140722
21	0xbd0e1595	-0.03468855
22	0x3cb473d1	0.022027882
23	0xbe241444	-0.16023356
24	0xbe197de3	-0.14989428
25	0x3ce0c6a8	0.027438477
26	0xbdbc1c61	-0.091851
27	0x3e028ca9	0.1274897
28	0xbdc1972b	-0.09452661
29	0xbb44f7c0	-0.0030054897
30	0x3d1260de	0.03573691
31	0xbe176ab5	-0.14786799
32	0x3b73166b	0.003709222
33	0xbe71805e	-0.23584124
34	0xbde3e52e	-0.11127697
35	0xbe3f6dd4	-0.1869424
36	0xbde33b19	-0.11095256
37	0xbd927a97	-0.071522884
38	0xbe31fb75	-0.1738108
39	0xbe24e7ec	-0.16104096
40	0xbda4a564	-0.08039358
41	0xbd624bc2	-0.05524803
42	0xbdeaf3fe	-0.11472319
43	0xbd20cdd8	-0.039258808
44	0xbdfbfdea	-0.1230429
45	0x3dbbe1b6	0.0917391
46	0xbd87360f	-0.06602108
47	0xbe2ec4ed	-0.17067309
48	0xbd867e2b	-0.065670334
49	0xbd538fea	-0.05165092
50	0xbe12cbc6	-0.14335546
51	0xbe20700e	-0.15667745
52	0xbe222dd8	-0.158378
53	0xbdc63b40	-0.0967927
54	0x3c68f04b	0.014217447
55	0xbdf49793	-0.11942973
56	0x3c95ecd7	0.01830141
57	0xbda2719d	-0.07931826
58	0xbe188252	-0.14893463
59	0xbe0e346e	-0.13887188
60	0xbdb1cbbf	-0.086814396
61	0xbc29fe90	-0.010375634
62	0xbd6da93a	-0.058022715
63	0xbda4c652	-0.08045639
64	0xbb92c6c0	-0.0044792593
65	0xbe878243	-0.2646657
66	0x3d3e5c7e	0.046474926
67	0xbc5d8d20	-0.013522416
68	0xbe437536	-0.19087681
69	0xbdcacbe4	-0.0990217
70	0xbcd8a358	-0.026445076
71	0xbe369b57	-0.17832695
72	0x3d717830	0.05895251
73	0xbccf36b3	-0.025294637
74	0x3ce3f504	0.027826793
75	0xbcf783de	-0.030214246
76	0xbe1a14a6	-0.15046939
77	0xbd879221	-0.06619669
78	0xbe458915	-0.19290574
79	0xbe4def16	-0.20110735
80	0xbdb84ed6	-0.08999412
81	0xbd76916e	-0.060197286
82	0xbdd14ab2	-0.10219325
83	0x3b7733a6	0.0037719994
84	0xbe473223	-0.1945272
85	0xbd1f473e	-0.0388863
86	0xbcefe292	-0.029282842
87	0xbe5d34cd	-0.21602173
88	0xbe01c049	-0.12671007
89	0xbe1f040c	-0.15528888
90	0xbe00821f	-0.12549637
91	0xbe62794a	-0.2211658
92	0xbc6d0fd6	-0.014469108
93	0xbdb2e143	-0.087343715
94	0xbe86000e	-0.26171917
95	0x3d76e370	0.060275495
96	0xbdb4a75b	-0.08820983
97	0x3cce7a29	0.025204735
98	0xbcb250f8	-0.021767125
99	0x3d94c444	0.07263997
100	0xbe2b1579	-0.1670741
101	0x3e0ebf7f	0.13940237
102	0xbe2113d9	-0.15730228
103	0xbe5c6daa	-0.21526209
104	0xbdd51c67	-0.10405808
105	0xbd7c92d6	-0.06166347
106	0xbdd6872c	-0.10475001
107	0x3d13d8b5	0.03609534
108	0x3dcfcf94	0.10147014
109	0x3e0ea333	0.13929443
110	0xbe04db78	-0.12974346
111	0x3dcc5934	0.09977952
112	0xbe6a72f8	-0.2289542
113	0x3d85277c	0.06501672
114	0xbe0156bf	-0.12630747
115	0xbbc576ae	-0.0060261106
116	0xbe311799	-0.17294158
117	0xbd512300	-0.05105877
118	0xbe091887	-0.13388263
119	0x3db747fe	0.08949278
120	0xbddf99fe	-0.109180436
121	0x3df57d3a	0.11986776
122	0x3d6deaa0	0.058085084
123	0xbe285275	-0.16437705
124	0xbc7da07a	-0.015480155
125	0xbdbe358f	-0.09287559
126	0x3dbe6df1	0.092983134
127	0xbd77e3b0	-0.060519874
128	0xbd2c55de	-0.042074077
129	0xbd951247	-0.07278877
130	0xbc37a400	-0.011208534
131	0xbe2758f2	-0.16342524
132	0xbe3b6984	-0.1830197
133	0xbd6f498c	-0.05841975
134	0x3d4b1490	0.049580157
135	0xbe2bd696	-0.16781077
136	0xbd604e10	-0.054761946
137	0x3c317c1b	0.010832812
138	0xbd57002a	-0.05249039
139	0xbd5e9f2c	-0.054351017
140	0xbe81b206	-0.25331134
141	0xbccc0a07	-0.024907125
142	0x3d16cbcd	0.036815453
143	0xbe1a619f	-0.15076302
144	0x3d41ac4f	0.047283467
145	0xbd44fb47	-0.0480912
146	0xbd12c49f	-0.035832044
147	0xbe29cda6	-0.16582355
148	0xbc11651a	-0.008874202
149	0xbe597133	-0.21234588
150	0xbe8e9929	-0.27851227
151	0xbdbefb7e	-0.09325312
152	0x3b5cbe6c	0.0033682836
153	0xbe4516aa	-0.19246927
154	0xbe521291	-0.20514895
155	0x3d0d9aa4	0.034571305
156	0xbbd34946	-0.006447944
157	0x3e1b6451	0.15174986
158	0xbe1dde49	-0.15416826
159	0xbe5914df	-0.21199368
160	0xbe9f8c71	-0.31161836
161	0x3ed98210	0.42482042
162	0xbefb6ed1	-0.49107984
163	0x3e84bbba	0.25924474
164	0x3ea8888f	0.32916686
165	0xbe5ca78c	-0.21548289
166	0x3dc1b3c2	0.09458114
167	0x3f1d0a06	0.6134342
168	0xbf008082	-0.5019609
169	0x3d588dc6	0.05286958
170	0x3debcee0	0.11514068
171	0x3f53a96c	0.8268039
172	0x3f3d9126	0.74049604
173	0xbed45e0f	-0.4147801
174	0x3f03c087	0.5146565
175	0x3f1fb3ce	0.62383735
176	0x3f0627ee	0.5240468
177	0x3eece5d2	0.4626909
178	0x3eed9b13	0.46407375
179	0x3f000ff8	0.50024366
180	0x3e821e2b	0.2541364
181	0x3f2543f6	0.64556825
182	0x3f1d85de	0.6153239
183	0x3ed08b4a	0.4073127
184	0x3f305145	0.6887401
185	0xbdf66c32	-0.12032355
186	0x3f150962	0.5821744
187	0xbf4e00c4	-0.8046992
188	0x3f33613d	0.7007025
189	0x3d4ea2eb	0.05044834
190	0x3ef0d976	0.4704091
191	0x3f03fe00	0.5155945
192	0xbc9dfc44	-0.019285329
193	0xbe2fa147	-0.17151366
194	0x3d87f910	0.06639302
195	0x3da75508	0.08170515
196	0x3b6e2180	0.0036335886
197	0xbd867ee2	-0.0656717
198	0x3d0f7420	0.035022855
199	0xbd84c39a	-0.064826205
200	0xbd98bd2e	-0.07457958
201	0x3e0af0a3	0.13568358
202	0xbddefcd8	-0.1088807
203	0xbe19e1d0	-0.15027547
204	0xbe0ca6f6	-0.13735566
205	0xbe3d34b1	-0.18477131
206	0xbe11ef74	-0.142515
207	0xbe023ec8	-0.12719262
208	0x3d8c00d2	0.06836094
209	0xbe5fc2e4	-0.21851689
210	0x3d2f49ed	0.04279511
211	0xbd9ae81e	-0.07563804
212	0x3d7de388	0.06198457
213	0xbd9a3d64	-0.075312406
214	0xbdc4d83e	-0.096115574
215	0xbe1ffb95	-0.15623315
216	0x3e301f11	0.17199351
217	0xbdbf0253	-0.09326615
218	0x3d322c09	0.043499026
219	0xbdc1275e	-0.09431337
220	0xbdb04c54	-0.086083084
221	0xbe2180e8	-0.1577183
222	0x3e125cd1	0.14293219
223	0xbe07e6f2	-0.13271692
224	0xbed2734f	-0.41103598
225	0x3f4a62a2	0.7905675
226	0xbf131b2c	-0.57463336
227	0x3e4f6aa7	0.20255528
228	0x3ec4ffe0	0.38476467
229	0xbe90a597	-0.28251335
230	0xbd490eae	-0.049086265
231	0x3ecffb55	0.4062144
232	0xbf1245dd	-0.5713785
233	0x3e67bc13	0.22630338
234	0x3e367d76	0.17821297
235	0x3f1c836c	0.61138034
236	0x3f586e02	0.8454286
237	0xbee496d0	-0.4464631
238	0x3f28d659	0.6595207
239	0x3f2b6a86	0.66959417
240	0x3f3009a8	0.68764734
241	0x3f3b752c	0.73225665
242	0x3eca2509	0.3948138
243	0x3f2a1ec3	0.6645319
244	0x3ec44e71	0.38341096
245	0x3f259fb4	0.6469681
246	0x3f531c93	0.82465476
247	0x3eed0379	0.46291712
248	0x3f0c3f49	0.54784065
249	0x3da674f9	0.081277795
250	0x3e7da96c	0.2477166
251	0xbf8e8dbb	-1.1137003
252	0x3f23f883	0.64051074
253	0xbe82098c	-0.2539791
254	0x3f4f1170	0.8088598
255	0x3f0a9d46	0.5414623

bias f4 [32]
0	0x3ce57bb1	0.028013082
1	0xbdb28d21	-0.087183245
2	0xbe41b923	-0.1891828
3	0xbde38b33	-0.111105345
4	0x3c91ccf7	0.01779793
5	0x3f1f624d	0.6225937
6	0xbbaf827d	-0.0053561316
7	0x3f1d5222	0.6145345
8	0x3bff7ea9	0.0077970815
9	0xbd071a88	-0.032984287
10	0xbd3c2e63	-0.045942675
11	0xbe4591a8	-0.19293845
12	0xbe41a568	-0.18910754
13	0x3f32f531	0.6990538
14	0x3f267fba	0.65038645
15	0xbe232b17	-0.15934406
16	0xbe71ac14	-0.23600799
17	0xbe568a88	-0.20951283
18	0xbe311c95	-0.1729606
19	0xbddee6c7	-0.10883861
20	0xbe1c4fcc	-0.15264815
21	0xbe6212a1	-0.22077419
22	0x3f0f988a	0.5609213
23	0xbe5fe8b1	-0.21866108
24	0x3f0aa06c	0.54151034
25	0xbe65cc34	-0.22441179
26	0xbd9b4b4f	-0.07582723
27	0xbdf49948	-0.119432986
28	0xbb43ad43	-0.002985791
29	0xbd855ef2	-0.0651225
30	0x3f114166	0.56740415
31	0xbe05ae19	-0.13054694

weight f4 [2, 32]
0	0xbd2d9cb5	-0.042385776
1	0x3e08b9a5	0.13352068
2	0xbe1820f4	-0.1485632
3	0x3d4f502c	0.050613567
4	0xbe1936cc	-0.1496231
5	0xbc3a43e9	-0.01136873
6	0x3cdcfbac	0.026975475
7	0xbe15a82e	-0.14614937
8	0xbd071af7	-0.0329847
9	0xbdeb322a	-0.114841774
10	0xbf848ea2	-1.0356028
11	0x3d9cb2f8	0.07651323
12	0x37097136	8.192195e-06
13	0xbe863301	-0.26210788
14	0x3e364846	0.17801008
15	0x3e3a5f1d	0.18200345
16	0xbd218f02	-0.039443024
17	0x3e0baec3	0.13640885
18	0xbdf8afd9	-0.12142915
19	0xbd04f42d	-0.032459427
20	0xbc8d9a8b	-0.017285606
21	0xbd0e1953	-0.03469212
22	0x3edde4cb	0.43338618
23	0x3d99fada	0.07518549
24	0x3dd6152f	0.10453259
25	0x3df347ae	0.11878906
26	0x3da63ceb	0.08117088
27	0x3d42576f	0.047446664
28	0x3e6e3a7e	0.232645
29	0x3f078e0a	0.5295111
30	0x3e231596	0.15926203
31	0xbaac4188	-0.0013142088
32	0x3c3f71c9	0.011684843
33	0xbcc58374	-0.024110533
34	0xbddeea84	-0.10884574
35	0x3d05ffe9	0.032714758
36	0xbcce8bfb	-0.025213232
37	0x3e255b9d	0.16148229
38	0xbd0a5894	-0.03377588
39	0x3e48c97e	0.19608113
40	0x3d53cba8	0.051707894
41	0x3dc63b3e	0.09679268
42	0x3f8c8ccd	1.0980469
43	0x3dfa2335	0.122137465
44	0x3dc81b96	0.097708866
45	0x3e20688f	0.15664886
46	0xbd715337	-0.05891725
47	0xbdbd7180	-0.09250164
48	0x3c3910e5	0.011295532
49	0xbd4eb0e6	-0.050461672
50	0xbe32c1c7	-0.17456733
51	0x3d9579b8	0.07298607
52	0xbda6b36f	-0.08139693
53	0xbb14f04e	-0.002272624
54	0xbe1eae41	-0.1549616
55	0x3e00c6dd	0.1257586
56	0x3e3af831	0.1825874
57	0xbda9ee52	-0.08297409
58	0xbe54dd03	-0.20787434
59	0xbe351e60	-0.17687368
60	0xbcb7a92c	-0.022419535
61	0xbf3a5fae	-0.72802246
62	0xbe381261	-0.17975761
63	0x3d4f7d69	0.05065671

bias f4 [2]
0	0xbe1210e6	-0.14264259
1	0x3e24bdf3	0.16088085

weight f4 [1, 32]
0	0x3b637783	0.0034708686
1	0xbdba0f91	-0.09085
2	0xbd894e40	-0.06704378
3	0xbd6c02b2	-0.057619758
4	0x3cbaa99b	0.022785952
5	0x3f43880c	0.76379466
6	0xbe5a9245	-0.2134486
7	0x3f339829	0.7015405
8	0xbce8bca9	-0.028410273
9	0x3d924816	0.071426556
10	0xbf0a722c	-0.5408046
11	0x3d73ee76	0.059553586
12	0x3c578a28	0.013155498
13	0x3f41b8a7	0.7567238
14	0x3f29abd1	0.66277796
15	0xbc53f6a2	-0.01293722
16	0xbb405d3c	-0.0029352447
17	0xbd2c2702	-0.04202939
18	0x3e00d2a5	0.12580355
19	0xbd88962d	-0.06669269
20	0x3d31e4a3	0.043430936
21	0xbdea7252	-0.11447586
22	0x3f320464	0.6953795
23	0xbd0f71d0	-0.03502065
24	0x3f4d8335	0.8027833
25	0xbd8d20f9	-0.06891055
26	0xbd450be2	-0.048107035
27	0xbd929879	-0.07157988
28	0xbccc1d44	-0.024916299
29	0xbedbba96	-0.4291579
30	0x3f44dcae	0.7689923
31	0xbcb5520d	-0.022133851
