data/PPO_runs/20220509-030417/model.pth (torch, 8399 bytes, 7 tensors)

weight f4 [32, 4]
00000000: ac0a b6be 8a44 d2be 4b5d 4b3e dae2 5cbe
00000010: be5d 1d3d 1890 133d 490e cf3d b661 39bb
00000020: fe33 bcbe 328c 363e de47 10bf 487f cbbd
00000030: 5091 543f 9b09 bbbe 1814 59bf b8b5 e0be
00000040: 26ac 923e bf80 5cbd 6b3c fc3d a696 a9be
00000050: 7038 a13e d154 a1be 473c 443e 8193 17bd
00000060: 33d4 abbe 9fa5 c9be 21af 6bbe 8710 743e
00000070: 32d7 c8bd d93a d2bd ed09 8fbe 9016 4dbe
00000080: 96d6 87bd 06d4 ddbe 4554 41bf 7bcb a7be
00000090: 6139 8abe 0785 603e 4c06 10bf 27dd bf3e
000000a0: 7e26 303b edcf 2bbf 61f6 12bf b297 20be
000000b0: 2fa5 dfbd 1f94 e13d d107 a9be 0657 b83d
000000c0: 4e4b eebd 1bab 29bf 4a9a f4be 3715 27be
000000d0: ec2e 013e 85fb f33c 269c 19bd fd95 c1be
000000e0: c953 06be 0c33 61bf 5360 f6bf a478 60bf
000000f0: ca52 1c3d 808b a3bf 0b5f 00c0 12cb 92bf
00000100: 0045 253e a647 1cbf 92bc 72be 3f71 3dbe
00000110: 7386 f33b 06d8 563e 2fd4 f53e 8681 02bf
00000120: bce3 253e d975 bebd 63a4 8ebe 81fc 0fbf
00000130: 6ed2 c4be 23fe be3f 47c8 2140 8523 b23f
00000140: 1c19 78bc 8ac4 76be 56fd 6dbe a28d 6e3e
00000150: 8a95 4cbe b9bf 423e 3a72 9dbd ac79 153e
00000160: 2d8f aabe 9288 e53e 7c08 1f3f f9f4 1cbf
00000170: 628a bd3d 6b17 f33d 6ac1 f4bd 5626 403e
00000180: d6a1 04be 1046 633f 25b2 5dbe 7dfb 6a3e
00000190: 6204 4c3e 8529 80bd 7a4d 49be 02b0 bbbd
000001a0: 09c0 793e 50f7 9abf 017d c8bf 501d 91bf
000001b0: 69ff cb3e 6059 27be b03e 2a3f ea2d 3dbe
000001c0: 2fc5 f13d 908a a3bc 45fa f63c a088 17bf
000001d0: 00b1 3e3d c038 63bd 620b c1be b0f3 2bbd
000001e0: 9237 41bd f32c 1d3e f4d4 b8bc ac63 30bd
000001f0: 4a41 7e3e c4e1 23bf e6fd c4be be89 2fbc
-0.35555017 -0.41067916 0.19859807 -0.21570912 0.038419478 0.03602609 0.101101466 -0.0028287
-0.36758417 0.17826918 -0.5635966 -0.09936386 0.8303423 -0.36530766 -0.84796286 -0.4388864
0.28646964 -0.05383372 0.12316211 -0.33122748 0.3148837 -0.31510022 0.19163619 -0.037005905
-0.33560333 -0.3938417 -0.23016025 0.2383443 -0.0980667 -0.102651305 -0.2793726 -0.20028138
-0.06632726 -0.43325824 -0.7551921 -0.3277243 -0.26996902 0.21925746 -0.5625961 0.37473413
0.0026878412 -0.67114145 -0.57407194 -0.15682867 -0.10920178 0.1101458 -0.33013776 0.090009734
-0.11635457 -0.6627671 -0.47773963 -0.16316687 0.12615556 0.02978302 -0.03750243 -0.37809744
-0.13117899 -0.87968516 -1.9248146 -0.87684083 0.03816489 -1.2776947 -2.005801 -1.1468222
0.16139603 -0.61046827 -0.23704746 -0.18500231 0.007431799 0.20980844 0.48013446 -0.5097889
0.16200155 -0.092998214 -0.27859792 -0.56244665 -0.38441795 1.4921306 2.527849 1.391709
-0.015142705 -0.24098411 -0.23241171 0.23296216 -0.1997892 0.19018449 -0.076878026 0.14597195
-0.3331236 0.44830757 0.6212232 -0.613113 0.0925491 0.11869701 -0.11950953 0.18764624
-0.1295236 0.8877878 -0.21649988 0.22947498 0.19923547 -0.06257919 -0.19658461 -0.0916443
0.24389662 -1.2106724 -1.5663148 -1.133707 0.398433 -0.16342688 0.66501904 -0.18474546
0.11805188 -0.019963533 0.030148635 -0.5919285 0.04655552 -0.055474043 -0.37703997 -0.041980445
-0.047172137 0.15349178 -0.022562481 -0.043063805 0.24829593 -0.64016366 -0.3847496 -0.010713993

bias f4 [32]
00000000: 966c 563f e571 0abf b813 243f c41f 21be
00000010: 4ec4 643f ccc5 1a3f ade8 103f b688 12bf
00000020: 33e2 253f 5a8a 373f f8d4 683f 6daf 143f
00000030: 8e8c 343f c52e 5e3f 3476 0bbe 835a d6bd
00000040: e77c e63e 010b ab3e e1ab 413f 297f d93c
00000050: 298e 313f 7207 21bf 5266 323e 295c dfbe
00000060: 5ef4 3abe 7534 a3be 8878 ecbd 42d4 a0be
00000070: 4ce8 733f c2d3 e0be 9ddd 363f e9a4 ad3e
0.8375944 -0.5408004 0.6409259 -0.15734774 0.8936204 0.60458064 0.56605035 -0.57239854
0.6479828 0.7169548 0.90949965 0.5808018 0.7052697 0.86790115 -0.1361931 -0.104664825
0.45017168 0.33406833 0.7565289 0.026549893 0.69357544 -0.62901986 0.17421845 -0.43625
-0.18257281 -0.3187596 -0.11546427 -0.3141194 0.9527633 -0.43911558 0.71431905 0.3391488

weight f4 [32, 32]
00000000: e84c 843e cee1 833c b983 903e b740 19bf
00000010: 3284 ea3e 5351 ed3e 2bf0 463e 1291 873d
00000020: f1b3 f83e a6bf a43e 5769 d93e 0b32 cc3e
00000030: 6e39 a33e 6957 fd3e 63d2 c0bf 4f7b debf
00000040: be86 f43e 2f7d c53c ab45 833e c54e d6bf
00000050: c1d2 8c3e 2f47 a8be a061 493e 7466 a5bc
00000060: 08ad 333e 2141 1f3e f2d0 b9bf 7ba8 24be
00000070: 9ca5 f63e d925 1b3e 8c80 ee3e 6f75 643e
00000080: d915 8bbd 34c6 aebd 7740 82bd dcf5 8d3d
00000090: 348d 273c da1f 86be 46ea 57be 4066 58bd
000000a0: 6e1a 84bd 9c0d 84be c53b 463c ed75 2fbd
000000b0: 378f 38bc d7a2 493d 30bf c8bd 4956 00be
000000c0: 0f62 263d 63b4 2ebe 8608 7fbe 42fa dd3d
000000d0: e4b2 2cbc 568a 5dbd c168 89be c0ec b83b
000000e0: 70b8 71bd 8f25 8bbd 58e8 cabb 6f1f bcbd
000000f0: 8e2f 06bd 495c 29be a687 d53b e1b0 42be
00000100: b7b6 163f 1dba 6abd 5e23 233f f76a ccbe
00000110: 0189 e63e 4e2b c33e 4f4d 173e 58e2 a1bd
00000120: e2fc 123f 3199 c93e b593 1d3f 544d 8f3e
00000130: 293f 123f 345c d23e a82e 60bf f84f bebf
00000140: e0b9 193f bda4 283e f220 113f 8b57 b8bf
00000150: 3ad8 833e 5a69 263c 76c1 983e f878 173e
00000160: d3b0 583e 8778 5d3e b229 88bf 44b1 d9bd
00000170: e099 103f 137a 8fbd a5be fa3e 6be4 963e
00000180: cd08 df3e 4694 24be 7bcb d93e e8cf 83be
00000190: 7e90 a03e 1dbf 073f 2072 a13e 9085 92bb
000001a0: 0459 aa3e 748a 2a3f abfb 1f3f 6482 dd3e
000001b0: 8346 e83e 8547 e93e 6a7e b3bf 7dc2 aebf
000001c0: 402d 253f fd5c 4b3e 3811 b23e 264d dfbf
000001d0: 8e5e 1f3f 8cb3 23be a8e4 eb3d e286 73bc
000001e0: 0307 11be add2 09be c073 aebf 1b89 aabd
000001f0: b073 7b3e 958d 25be 1367 243f 3b9e 9e3e
00000200: a86f e43b aec3 c53d d839 dbbd 12ae 82bd
00000210: 90bb 3abe eee8 84bd 1ea1 0bbe 1587 2ebe
00000220: 778f 183d 7e1f 353c 426a 89bd 820d 7b3d
00000230: 39d9 ccbd 674d 16be cee7 973d 14f5 e3bd
00000240: e47c 81be ff06 cebd 2067 ba3b 46f5 95bd
00000250: b7d2 b83d 50a0 99bc 0018 17b9 3866 213d
00000260: 9cf4 b23c 1720 303e d0c7 e33c 7030 203d
00000270: d75d 18be f2b6 f83d f525 4c3c 8cdd 383d
00000280: 20d0 2b3d c074 d73c 7b4c f8bc 994a 61be
00000290: e71e 19be bfcc c7bd 7bf9 07be 4b07 4fbe
000002a0: f4ae 2bbd 00a9 a03d 4e14 2dbe af09 34be
000002b0: 982d e5bc dd51 eabc c4d6 003d 18ae 61bd
000002c0: 6b30 58be 1494 4ebd a56e 6fbe 9589 653d
000002d0: 1875 19bd 9582 063e b1bc 58be 7eed ffbd
000002e0: 96c2 e1bc 7c64 e43c 82ed 46bd 0647 10be
000002f0: 99de c2bc 8cea 1b3d a745 293d 9679 33be
00000300: 26ae 123f f91c bf3d 2cc6 163f 1886 d9be
00000310: aaa1 123f 89fe 033f 54ac f33d 5a61 e3bc
00000320: 79e4 fb3e aceb 903e 3ba5 123f 6f25 853e
00000330: 3468 143f 8612 063f 1ac1 66bf c1c8 b3bf
00000340: e9e1 b33e 8600 aa3e d068 0c3f 1250 e5bf
00000350: f6db 0b3e 91bc 373d 96b0 263e 6813 8bbd
00000360: ac52 5fbb 16dc 38bd e09f 80bf c643 bbbd
00000370: 6f4f 113f a017 4a3d 62ca cf3e 256c 363e
00000380: 9903 31bd ac15 28bd 3935 48be 705c edbd
00000390: 793f 57bd 4846 d5bc c0e6 2dbe 97a3 c5bd
000003a0: c2ae 7dbd 5c43 85bb be11 1fbe d900 9e3d
000003b0: 20b0 51bc 3a3a 84be 34dc 763d 68a0 8d3d
000003c0: e155 173e 957d fbbd ea86 c0bd b6b3 e23d
000003d0: 143d 10be 6f48 053e b26b 8d3d a8c9 0cbe
000003e0: 6b57 28be b865 fa3c 7a18 963d 60ad c8bc
000003f0: 349e 7bbc e01c a3bd 635d 7c3c 8216 ae3d
0.25839925 0.016098883 0.28225496 -0.5986437 0.45803982 0.46351108 0.19427554 0.06619467
0.48574784 0.32177466 0.4246318 0.3988193 0.31879753 0.4948075 -1.5064205 -1.7381381
0.4775905 0.024107544 0.2563909 -1.6742789 0.27504542 -0.3286681 0.19666147 -0.020190455
0.17546475 0.15552188 -1.451689 -0.16079895 0.48173225 0.15151156 0.46582448 0.22310422
-0.067912765 -0.08533898 -0.06359952 0.069316596 0.010226537 -0.26196176 -0.21085462 -0.05283189
-0.064503536 -0.25791633 0.012099211 -0.042837072 -0.011264614 0.04922756 -0.09802091 -0.12532915
0.04062086 -0.17061 -0.24905595 0.108387485 -0.010540698 -0.054087006 -0.26837733 0.005643457
-0.059013784 -0.06794273 -0.0061922483 -0.09185683 -0.032760195 -0.1653911 0.0065164147 -0.19012786
0.5887255 -0.057306398 0.6372584 -0.39925358 0.450264 0.38118976 0.14775585 -0.079045
0.5741712 0.39374688 0.6155351 0.27988684 0.57127625 0.4108597 -0.8757119 -1.4868155
0.6004925 0.16469093 0.56690896 -1.4401716 0.25750905 0.010156954 0.298351 0.1479224
0.21161203 0.21628009 -1.0637724 -0.10629514 0.56484795 -0.07005706 0.48973575 0.29471144
0.43561402 -0.16072187 0.42538056 -0.25744557 0.3136024 0.5302599 0.31532383 -0.0044714883
0.3327104 0.6661751 0.6249339 0.43263543 0.45366296 0.45562378 -1.4022954 -1.3653103
0.6452217 0.19859691 0.34778762 -1.7445419 0.62253654 -0.1598646 0.11518222 -0.014863702
-0.14162831 -0.13459273 -1.3629074 -0.08326932 0.2455585 -0.1616729 0.6421978 0.30980095
0.0069713183 0.096564636 -0.10704392 -0.063808575 -0.18235612 -0.0648974 -0.1363568 -0.17043717
0.037246194 0.011054872 -0.0670972 0.06129218 -0.100023694 -0.14677964 0.0741726 -0.11130729
-0.25290596 -0.10059928 0.005688563 -0.07322173 0.09024566 -0.0187532 -0.00014409423 0.039404124
0.021845154 0.17199741 0.027805239 0.039108694 -0.14879547 0.12144269 0.012460222 0.04513316
0.04194653 0.026300788 -0.030309906 -0.22001113 -0.14953195 -0.09755849 -0.13278763 -0.20217626
-0.041914895 0.07844734 -0.16902277 -0.17581819 -0.027975842 -0.028603489 0.031454816 -0.05509767
-0.2111222 -0.050434187 -0.23382051 0.05603941 -0.037465185 0.1313575 -0.2116573 -0.1249647
-0.027558606 0.027879946 -0.04856635 -0.14089593 -0.023787783 0.03806548 0.04132619 -0.1752685
0.5729698 0.09331698 0.58896136 -0.42485118 0.5727793 0.51560265 0.11898103 -0.027756382
0.49197748 0.28304803 0.5728337 0.26005122 0.579715 0.52372015 -0.901384 -1.404564
0.35133293 0.33203524 0.5484743 -1.791506 0.13658127 0.044857565 0.162783 -0.06790811
-0.0034076376 -0.045131765 -1.004879 -0.09143786 0.5676183 0.049338937 0.40584093 0.17814691
-0.04321632 -0.041036293 -0.19551553 -0.11589897 -0.052550767 -0.02603449 -0.16982555 -0.09650343
-0.06193424 -0.0040668678 -0.15534112 0.077150054 -0.012798339 -0.25825673 0.060268596 0.06915361
0.14778854 -0.12279812 -0.09400733 0.110694334 -0.140858 0.13015912 0.06905307 -0.13748801
-0.16439597 0.030566081 0.07328887 -0.024496734 -0.015357543 -0.07964492 0.0154031245 0.08500387

bias f4 [32]
00000000: f9e5 d13e ca6f 5ebe 90ee d03e f97a 143f
00000010: a261 82be e8cf debd e61a cf3e e1ce 7cbe
00000020: 0706 68be a6b2 cb3e 59f4 a53e c1e6 09be
00000030: 59d0 963e ecc0 f4bd 32c9 acbd 4a15 db3d
00000040: 6cdc f8bd 28e1 73be 4e81 14bd 2e35 38bd
00000050: 23db 953e 24d4 0d3f 70ea f03e 140b a63e
00000060: f556 0bbd 357d a7bc 8501 1d3d a034 0b3f
00000070: 83f1 fcbc 92be 853e d15e 80be dde0 033f
0.40995768 -0.21722332 0.4080701 0.5800014 -0.25465113 -0.10879499 0.4045021 -0.24688293
-0.22658549 0.39784735 0.32412985 -0.13466932 0.29455832 -0.119508594 -0.084368125 0.1069742
-0.12151417 -0.23816359 -0.036256127 -0.04497259 0.2926875 0.55401826 0.47053862 0.32430327
-0.034018476 -0.020445446 0.038331527 0.54377174 -0.03087688 0.26121956 -0.2507234 0.5151499

weight f4 [2, 32]
00000000: 14a9 4c3c 7d72 353e 387d 033e b823 b8be
00000010: fdf6 c4bd 37aa e43d d911 0a3e bb0f 15bd
00000020: 7ba8 873d f2a8 933e c3c4 123e e85a 8d3d
00000030: 904a 04be 8280 043c 70d9 93bc c798 c93e
00000040: bd2d 623b f448 bcbd edb1 a33d 1010 263f
00000050: bcc0 b9be ce26 873e c65d debd 6bb6 73bd
00000060: 14fc 053e 1102 b83d 5a6f 753e f0fa 3cbe
00000070: 9535 73be 739d 013e e12b f3bd 9072 84be
00000080: 72af 393e 3f75 1abe 2204 75bc 7ef1 593e
00000090: 9950 3e3e dc95 a03d 2f4b 16be 0262 4ebc
000000a0: b3a5 f2bd 565e dabe 290f b0bd d059 893d
000000b0: cdef a23d e286 31bc 9e64 29be fb32 ccbe
000000c0: 0687 26be 4e84 5dbd 50ac 87bd 3598 39bf
000000d0: 57a9 a13e c429 73be 4c60 f8bd 7f3f 803b
000000e0: ad09 1bbc c2b3 d63a 7a1a 19be 58e8 8b3e
000000f0: a2ed 163d 1017 1abd a78c 91bd b19a 003e
0.012491483 0.17719455 0.12840736 -0.3596475 -0.09617422 0.111652784 0.13483371 -0.036391955
0.06623932 0.28839833 0.14332871 0.069021046 -0.12919068 0.008087279 -0.018048018 0.39374372
0.0034512125 -0.09193602 0.07992921 0.6486826 -0.36279857 0.26396793 -0.108577296 -0.05950014
0.13084441 0.08984769 0.23968259 -0.184551 -0.23750909 0.12657718 -0.118736036 -0.25868654
0.18133333 -0.15083788 -0.014954599 0.21283528 0.18585433 0.078410834 -0.14677118 -0.012596609
-0.11848011 -0.42650098 -0.085966416 0.067065835 0.079558946 -0.010835381 -0.16542289 -0.39882645
-0.16262445 -0.054081254 -0.06624663 -0.72497874 0.3157451 -0.23746401 -0.12127742 0.0039138193
-0.009462756 0.0016380476 -0.14951506 0.27325702 0.036847718 -0.03761965 -0.071069054 0.1255901

bias f4 [2]
00000000: ea46 bf3d 81fa d0bd
0.09339698 -0.1020403

weight f4 [1, 32]
00000000: bd68 343f de9e b8bc 81dd 313f 129c 2a3f
00000010: e042 2f3c ce69 da3b 1e59 2d3f 393f b53d
00000020: 56f0 de3d 5bf5 2f3f cd15 323f f892 dfbc
00000030: 4359 443f 0ce9 c2bc 5548 babd a2f4 0c3f
00000040: 3e39 c3bd 10a7 a03c 09b2 30bd 5744 b73e
00000050: 397e 343f 4036 2a3f 7390 353f 92c6 353f
00000060: 0f67 473c 988b 5abc 37a7 1cbd 0a08 2b3f
00000070: 8bdb 98bd 42cb 353f 9e3a 1f3c a900 2c3f
0.7047232 -0.022536691 0.69478613 0.66644394 0.010697097 0.006665445 0.6771411 0.088499494
0.10885684 0.6873376 0.69564515 -0.02729176 0.766987 -0.023792766 -0.090958275 0.5506078
-0.095324025 0.019610912 -0.043138538 0.35794327 0.705051 0.6648903 0.70923537 0.7100612
0.012170567 -0.013338946 -0.038245406 0.6680914 -0.074637495 0.7101327 0.009718565 0.6718851
