data/20220509-135848/model.pth (torch, 8399 bytes, 7 tensors)

weight f4 [32, 4]
0.03523237 -0.42059296 -0.07293353 -0.4557261 -0.17334883 0.2292408 -0.39606997 0.18667166
-0.27804312 -0.34381738 0.13969554 0.45909172 0.8633003 0.41210222 -0.30738166 0.01513555
-0.39746648 -0.53050685 -0.15186408 -0.09436573 -0.15656959 -0.5659681 -0.04445607 0.08781705
0.06329065 -0.54718417 -0.1819616 -0.40728945 -0.32729027 0.21989186 -1.2057555 -0.3774254
-0.58731526 -0.38610402 -1.4492186 -0.6154987 -0.37507778 -0.4876658 -2.4011867 -0.49163675
-0.18723974 0.12873502 -0.33912084 0.15606673 -0.157376 0.04012594 -0.98493296 -0.6340334
0.60693043 0.92921364 1.5984552 0.7850472 -0.32008052 -0.027817555 -0.58046204 0.14609896
1.0079476 1.1581055 2.1223617 1.0623232 -0.1702741 0.22773834 -0.39871538 -0.15538187
0.2756274 0.7918522 2.2741623 0.7312785 0.19031249 -0.5722067 -0.3874478 0.4980985
-0.71474636 0.0028849663 -0.95334697 -0.09196206 -0.027559377 0.19109789 0.44314423 -0.556666
0.983122 0.7010534 0.764514 0.7210485 -0.28135756 -0.613351 -1.4551413 -0.5742545
0.03684471 -0.23523743 -0.0042168917 0.35189816 0.15177497 -0.4709486 -1.065053 0.06258142
0.012921978 0.16115807 -0.021574114 0.35776514 -0.19562998 0.09259871 0.292084 -0.609739
0.044680282 -0.3431493 -1.5703712 -0.48432505 -0.22000465 0.07296655 -0.9007401 -0.3469645
-0.3340747 0.07655732 -0.76644856 -0.4494389 -0.2729832 -0.09049362 -0.013356501 -0.15507105
0.07828985 -0.13947587 -0.10541721 -0.5740338 -0.21466468 -0.82896197 -1.29619 -0.6259715
00000000: d14f 103d f657 d7be 2d5e 95bd ee54 e9be
00000010: 5b82 31be 1abe 6a3e afc9 cabe db26 3f3e
00000020: ab5b 8ebe d508 b0be 590c 0f3e 120e eb3e
00000030: 4001 5d3f 10ff d23e 2161 9dbe 19fb 773c
00000040: ba80 cbbe 4ccf 07bf 4282 1bbe d242 c1bd
00000050: c753 20be 49e3 10bf 9117 36bd 6dd9 b33d
00000060: 879e 813d 4314 0cbf 2454 3abe 3e88 d0be
00000070: 9792 a7be 552b 613e 3256 9abf e73d c1be
00000080: 4b5a 16bf 6daf c5be ff7f b9bf 5391 1dbf
00000090: 320a c0be 55af f9be 0bad 19c0 d0b7 fbbe
000000a0: c6bb 3fbe 1dd3 033e 3fa1 adbe f5cf 1f3e
000000b0: 2d27 21be 195b 243d 9124 7cbf 0350 22bf
000000c0: cb5f 1b3f f2e0 6d3f 2e9a cc3f daf8 483f
000000d0: 98e1 a3be a4e1 e3bc 2999 14bf f79a 153e
000000e0: 6d04 813f cd3c 943f c6d4 0740 35fa 873f
000000f0: 555c 2ebe 3d34 693e 6c24 ccbe 6d1c 1fbe
00000100: 091f 8d3e d3b6 4a3f e08b 1140 1135 3b3f
00000110: 47e1 423e 237c 12bf 8f5f c6be c406 ff3e
00000120: 9ef9 36bf b411 3d3b 8c0e 74bf 9b56 bcbd
00000130: 34c4 e1bc 2aaf 433e cde3 e23e aa81 0ebf
00000140: e2ad 7b3f 3c78 333f 31b7 433f a296 383f
00000150: 190e 90be 9204 1dbf 1242 babf 5802 13bf
00000160: 7bea 163d 15e2 70be da2d 8abb ff2b b43e
00000170: e66a 1b3e 2d20 f1be a853 88bf b02a 803d
00000180: b4b6 533c 9f06 253e 32bc b0bc fe2c b73e
00000190: 3a53 48be 64a4 bd3d 098c 953e db17 1cbf
000001a0: ac02 373d 44b1 afbe ec01 c9bf 74f9 f7be
000001b0: e648 61be 7d6f 953d e796 66bf 55a5 b1be
000001c0: d70b abbe 16ca 9c3d f935 44bf db1c e6be
000001d0: 74c4 8bbe b854 b9bd 3ad5 5abc f2ca 1ebe
000001e0: 6e56 a03d c3d2 0ebe fae4 d7bd e1f3 12bf
000001f0: 0fd1 5bbe da36 54bf 8ee9 a5bf ab3f 20bf

bias f4 [32]
1.0195091 0.7777235 0.541419 -0.06827045 -0.65997213 0.74764776 0.7240489 -0.47776747
-0.38160974 -0.16921522 -0.5337462 1.0444456 0.14791378 1.0165163 0.1588925 0.6966378
0.08823231 0.43782282 -0.523097 0.36749694 0.11222769 -0.07632787 0.7571188 0.6985498
0.90629154 0.5824647 0.82378125 0.70776623 0.85687965 0.95777386 1.0341934 -0.026219662
00000000: 467f 823f e318 473f 709a 0a3f 61d1 8bbd
00000010: eff3 28bf d865 3f3f 455b 393f f09d f4be
00000020: 5a62 c3be c146 2dbe 97a3 08bf 65b0 853f
00000030: b676 173e 351d 823f b7b4 223e db56 323f
00000040: 24b3 b43d 502a e03e afe9 05bf 8f28 bc3e
00000050: a2d7 e53d c951 9cbd 8ad2 413f 29d4 323f
00000060: b902 683f 681c 153f 54e3 523f 2b30 353f
00000070: 775c 5b3f ab30 753f 7360 843f 9eca d6bc

weight f4 [32, 32]
-0.27893612 0.0660074 0.3426707 -0.31133768 0.35732505 0.08157263 -0.16766262 0.041688547
0.74734855 0.4164138 0.0935794 -0.398368 0.18641219 0.020418493 0.30432773 -0.43899646
0.5875751 0.0034375777 0.6387734 0.0513424 0.25048628 0.3119947 0.15067728 -0.33043507
-0.36180493 -0.16854528 -0.47069362 -0.14430615 0.16676648 0.22053568 -0.5062103 0.20549788
-0.25286773 -0.11890623 0.10631275 0.040320184 -0.16884485 -0.21448092 -0.06479144 -0.12721892
0.096820846 -0.1578183 -0.06709285 -0.029373562 -0.26715684 -0.102102175 -0.06945735 -0.010468172
-0.14849631 -0.14032221 0.03770382 -0.019429909 -0.033262208 0.066060856 0.046527285 -0.22431175
0.07148749 -0.079319224 0.016276903 -0.14653392 -0.063509166 -0.118049234 -0.0313641 -0.009931682
0.6523827 0.5896421 0.06035155 -0.50106454 -0.62039816 0.36032894 0.72070605 -0.21199898
-0.4249609 -0.39559498 -0.101422615 0.71155775 -0.73613703 0.53461695 -0.9712033 0.46350902
-0.98243684 0.35468522 -0.48366982 0.0059280526 -0.5823809 -0.63880193 0.4067498 0.4966332
0.5377396 0.46796426 0.48417723 0.36718103 0.3621173 0.46431884 0.4139051 -0.09372297
0.107350856 -0.2419095 -0.010678455 0.54871714 0.39097106 -0.075508706 0.19276683 0.29387283
0.3512378 0.7086901 -0.06432305 0.0589567 0.7316108 -0.016124342 0.861664 0.19300485
1.5971162 0.11158741 0.28616384 0.20986134 1.0026234 0.7529381 -0.08141972 0.16405432
-0.00687827 -0.04308347 0.16371982 0.10392547 0.101292655 -0.058433283 -0.12810874 0.63784117
-0.18383567 -0.03301729 -0.013575302 0.03345479 -0.102409795 0.053212967 -0.13432147 -0.15951413
-0.15270497 0.08919065 0.059308037 -0.1782768 0.074434206 0.052454814 -0.07213506 -0.08702409
-0.14907885 -0.050004996 -0.13449396 -0.15277229 0.11764963 0.024405405 -0.14978145 -0.15695058
-0.008400683 0.086864576 -0.023544297 -0.006972924 0.033717535 0.075688004 -0.17855075 -0.009106398
-0.08314351 0.172482 -0.109067336 0.09598793 -0.16646525 -0.12139984 -0.008688763 0.07013938
-0.15829402 -0.04251276 -0.1328056 -0.1037107 -0.12938854 0.100863084 0.020837367 -0.019428536
-0.13856433 -0.10618639 -0.14872018 -0.11882071 -0.122365594 -0.02420424 0.038582534 -0.116432436
-0.06855404 0.046720922 0.09551208 0.137188 0.06034042 -0.06929909 -0.1724268 -0.09566051
-0.23293921 0.026959244 -0.10506043 0.04551254 -0.24027966 -0.110721625 -0.11205915 -0.19028112
-0.13405412 -0.07995364 0.022906333 -0.04344166 -0.13140345 -0.1542257 -0.16470377 -0.14581172
-0.22963698 0.022449816 -0.13808186 -0.082974456 -0.15420365 -0.14656584 -0.09238303 0.022441808
0.031379607 0.017816028 0.01294406 0.03342352 -0.12205617 -0.20320405 -0.11694746 0.0155969225
0.09802543 0.52289355 0.24972604 -0.38115504 -0.25247836 0.21165678 -0.15684256 -0.63161325
-0.41547614 -0.63462925 -0.10642465 0.012185066 -0.76395863 0.19079626 -0.68883735 0.4450675
-0.5656837 0.26645035 0.090714455 0.041998267 -0.81958234 -0.63306737 0.49975 0.3004316
0.4670867 0.35316005 -0.14706841 0.2948858 0.020884348 0.4033247 0.3043617 -0.66090095
00000000: b7d0 8ebe e32e 873d 8972 af3e a767 9fbe
00000010: 4ff3 b63e 8d0f a73d c0af 2bbe 9cc1 2a3d
00000020: 3c52 3f3f 3134 d53e 8ea6 bf3d e4f6 cbbe
00000030: d6e2 3e3e af44 a73c d8d0 9b3e 25c4 e0be
00000040: 526b 163f fc48 613b a786 233f 694c 523d
00000050: bd3f 803e c5bd 9f3e 254b 1a3e c92e a9be
00000060: 7f3e b9be 2297 2cbe c1fe f0be fec4 13be
00000070: d5c4 2a3e 1bd4 613e 0097 01bf 096e 523e
00000080: e177 81be 1c85 f3bd 80ba d93d c726 253d
00000090: aae5 2cbe e3a0 5bbe 60b1 84bd ad45 02be
000000a0: 024a c63d 1f9b 21be fa67 89bd d3a0 f0bc
000000b0: c8c8 88be f21a d1bd a83f 8ebd b282 2bbc
000000c0: 6b0f 18be a0b0 0fbe 526f 1a3d 792b 9fbc
000000d0: f43d 08bd ea4a 873d 6593 3e3d fbb1 65be
000000e0: 0868 923d 1e72 a2bd 2457 853c fd0c 16be
000000f0: 1811 82bd ccc3 f1bd a477 00bd 7eb8 22bc
00000100: 8d02 273f c9f2 163f 3033 773d c445 00bf
00000110: 6ad2 1ebf 097d b83e 3180 383f 4316 59be
00000120: 7a94 d9be 6d8b cabe a9b6 cfbd a628 363f
00000130: 7a73 3cbf a8dc 083f c8a0 78bf 0e51 ed3e
00000140: fb80 7bbf 4d99 b53e 92a3 f7be 1c40 c23b
00000150: ea16 15bf 8688 23bf 8341 d03e b546 fe3e
00000160: 4da9 093f 0399 ef3e 14e6 f73e 27ff bb3e
00000170: 7067 b93e 33bb ed3e 5feb d33e d4f1 bfbd
00000180: c4da db3d 20b7 77be b0f4 2ebc ba78 0c3f
00000190: 5c2d c83e 4fa4 9abd ab64 453e 8076 963e
000001a0: 71d5 b33e b76c 353f cebb 83bd 957c 713d
000001b0: d84a 3b3f 3217 84bc 0396 5c3f 10a3 453e
000001c0: 4e6e cc3f f187 e43d 1184 923e e4e5 563e
000001d0: f755 803f 8dc0 403f 62bf a6bd dbfd 273e
000001e0: 1c63 e1bb 4b78 30bd 2ba6 273e e0d6 d43d
000001f0: 8672 cf3d bd57 6fbd f02e 03be 8f49 233f
00000200: 6b3f 3cbe 233d 07bd f26a 5ebc e407 093d
00000210: 3abc d1bd d7f5 593d 918b 09be ac57 23be
00000220: b15e 1cbe 96a9 b63d fcec 723d 328e 36be
00000230: f670 983d dcda 563d 8cbb 93bd b039 b2bd
00000240: 20a8 18be 0ad2 4cbd c9b8 09be 5770 1cbe
00000250: 4af2 f03d d8ed c73c 4f60 19be a7b7 20be
00000260: 05a3 09bc 0ee6 b13d f8df c0bc 207d e4bb
00000270: 661b 0a3d 5002 9b3d 02d6 36be 0033 15bc
00000280: 2547 aabd 1f9f 303e b25e dfbd 5295 c43d
00000290: de75 2abe 7ba0 f8bd 505b 0ebc 3ca5 8f3d
000002a0: d417 22be dc21 2ebd 31fe 07be 4766 d4bd
000002b0: 6e7e 04be 4e91 ce3d 20b3 aa3c 9828 9fbc
000002c0: cfe3 0dbe 4078 d9bd 1a4a 18be 4658 f3bd
000002d0: d09a fabd f847 c6bc b808 1e3d 2174 eebd
000002e0: 0f66 8cbd 705e 3f3d d69b c33d 037b 0c3e
000002f0: 8427 773d aeec 8dbd a790 30be a8e9 c3bd
00000300: 9e87 6ebe a2d9 dc3c ec29 d7bd 5b6b 3a3d
00000310: df0b 76be 05c2 e2bd 457f e5bd 0ed9 42be
00000320: 7c45 09be bcbe a3bd 10a6 bb3c e2ef 31bd
00000330: a08e 06be 58ed 1dbe 1ba8 28be ab4f 15be
00000340: f525 6bbe ade8 b73c 5565 0dbe 83ee a9bd
00000350: 90e7 1dbe 5b15 16be 5033 bdbd e2d7 b73c
00000360: e787 003d ebf2 913c 5313 543c 1ae7 083d
00000370: 96f8 f9bd b914 50be 2682 efbd 3c8a 7f3c
00000380: 8fc1 c83d 5adc 053f 2fb8 7f3e c126 c3be
00000390: d844 81be 8ebc 583e 569b 20be 68b1 21bf
000003a0: 4ab9 d4be 1077 22bf 2bf5 d9bd dfa3 473c
000003b0: cb92 43bf 1860 433e a557 30bf e3df e33e
000003c0: a6d0 10bf 2e6c 883e 80c8 b93d 6006 2c3d
000003d0: 26d0 51bf b410 22bf 3bdf ff3e 2cd2 993e
000003e0: fd25 ef3e 65d1 b43e 1a99 16be 46fb 963e
000003f0: a715 ab3c 9380 ce3e 4cd5 9b3e ce30 29bf

bias f4 [32]
-0.1414687 -0.05207695 0.574221 -0.20080583 -0.14998013 -0.13581568 0.04750661 0.34178144
0.3133579 0.53715426 -0.16057602 0.41440716 0.3627199 -0.10540432 -0.06124381 0.39215437
0.39963466 0.56435853 0.45040494 0.37126637 0.44462445 0.48087835 0.5389397 0.39012912
0.5464628 -0.17890804 0.522431 -0.098487854 0.5271854 -0.086206034 -0.11502388 0.40514934
00000000: 2cdd 10be a44e 55bd 2600 133f 0ba0 4dbe
00000010: 6494 19be 4413 0bbe 4b96 423d fafd ae3e
00000020: 7270 a03e f182 093f 0a6e 24be 2d2d d43e
00000030: 6cb6 b93e 38de d7bd cada 7abd 75c8 c83e
00000040: ea9c cc3e cd79 103f 7a9b e63e a016 be3e
00000050: d1a5 e33e b035 f63e f4f7 093f 01bf c73e
00000060: fce4 0b3f ab33 37be 0abe 053f 00b4 c9bd
00000070: 9ff5 063f ca8c b0bd a491 ebbd bc6f cf3e

weight f4 [2, 32]
-0.25690562 -0.018421816 0.18654011 0.4323101 -0.15602772 0.1453114 -0.0037103512 -0.46745464
-0.015264365 -0.013529017 0.18028119 -0.49135178 0.3052071 -0.022891283 -0.009822203 -0.068384886
-0.19426492 0.3001199 -0.06724544 0.059064433 -0.2306937 -0.32791775 0.00021035812 -0.24242517
-0.0065113017 -0.026434317 0.15383747 -0.18874235 0.006539877 0.013945621 0.021981524 0.30761468
0.42903572 0.009444178 -0.046471268 -0.35554245 0.12875812 0.14867471 0.11020137 0.5375324
0.12158993 -0.046247043 0.07430223 0.47974378 -0.05116452 -0.06085741 0.17934835 -0.116881266
0.11774974 -0.32747498 0.09534639 -0.2941369 -0.06367226 0.3290016 0.07580159 0.19500682
0.3057428 0.13611038 0.067620955 0.03885405 -0.1391387 0.008691479 0.045315493 -0.2719571
00000000: 2289 83be 59e9 96bc 5f04 3f3e c057 dd3e
00000010: bbc5 1fbe 83cc 143e 5d29 73bb 3756 efbe
00000020: 6317 7abc cfa8 5dbc a29b 383e 7692 fbbe
00000030: 1b44 9c3e 8086 bbbc 4eed 20bc 600d 8cbd
00000040: 62ed 46be 51a9 993e fab7 89bd 8ced 713d
00000050: f83a 6cbe d6e4 a7be 9493 5c39 4e3e 78be
00000060: c25c d5bb c88c d8bc 9287 1d3e ad45 41be
00000070: 774c d63b 2d7c 643c 9912 b43c ac7f 9d3e
00000080: 92aa db3e c1bb 1a3c a858 3ebd a909 b6be
00000090: 2bd9 033e 2f3e 183e 42b1 e13d b99b 093f
000000a0: 2404 f93d 8a6d 3dbd c42b 983d faa0 f53e
000000b0: e391 51bd 9f45 79bd 18a7 373e 725f efbd
000000c0: c726 f13d cdaa a7be f844 c33d 1d99 96be
000000d0: 9a66 82bd e672 a83e dd3d 9b3d deaf 473e
000000e0: 528a 9c3e 8560 0b3e db7c 8a3d 6d25 1f3d
000000f0: 607a 0ebe b566 0e3c bd9c 393d f63d 8bbe

bias f4 [2]
0.11546216 -0.14318343
00000000: 6d77 ec3d ad9e 12be

weight f4 [1, 32]
-0.8395677 0.008732989 0.7345522 -0.84387726 -0.073496446 0.08474533 0.033533607 0.5441818
0.75226164 0.84837306 -0.08654584 0.5592673 0.7059745 -0.069867425 0.03233306 0.7010615
0.7888794 0.6990786 0.82590896 0.7067533 0.82495815 0.67880946 0.6136124 0.81044215
0.6942552 -0.022808498 0.7803014 0.03196656 0.6881928 0.0589538 0.050168388 0.71729034
00000000: e9ed 56bf d014 0f3c 9d0b 3c3f 5708 58bf
00000010: 4e85 96bd f68e ad3d 895a 093d 804f 0b3f
00000020: 3894 403f fa2e 593f f23e b1bd 242c 0f3f
00000030: bfba 343f a716 8fbd ac6f 043d c478 333f
00000040: 00f4 493f d1f6 323f c56e 533f c9ed 343f
00000050: 7530 533f 75c6 2d3f b415 1d3f 2379 4f3f
00000060: b5ba 313f e3d8 babc d5c1 473f 5eef 023d
00000070: 672d 303f 8a79 713d 5e7d 4d3d 57a0 373f
