data/20220509-030627/model.pth (torch, 8399 bytes, 7 tensors)

weight f4 [32, 4]
00000000: 2d60 823e d37c b73e 7121 e23f 5210 033f
00000010: 909c a33b 02bd 583e 6cd8 903e b727 cfbe
00000020: 9b7f 053e b602 573d 7e73 0f3f dd9a e53e
00000030: b4e7 bbbd 75f9 c33d e358 753e 475c 283d
00000040: a6fd 063e ece5 11be 12b3 813e 7159 16bb
00000050: fa8c b3be 98db 2cbf fbcd 9bbf b78e 24bf
00000060: 2baf 9d3d 7132 76be c408 263e 86dd b83e
00000070: 792f 0abf d6a2 05be 4033 19c0 e871 37be
00000080: a49b bebe f5c1 143e bbf9 e03d 5ede 9b3d
00000090: b1ca 543c 95b6 583e 3b86 b13d d5f5 a8bc
000000a0: 4f75 8b3e 2745 37be 453b df3b 2e8e 56be
000000b0: 2d3c 593f fb65 2bbe f1af c63f 1063 d8bc
000000c0: 9179 843e 0bd4 e6be 3350 44be ee50 18be
000000d0: 6ae3 f9be af14 c43e 85a7 063e ea02 923e
000000e0: cc6b e73e c041 143f f9c8 d53f cb15 f53e
000000f0: 9556 573e 960b 0dbf 3c20 16bf 0d1a c73e
00000100: 0d0a c3be 519c 3a3e ba7b 213d cd07 633e
00000110: 0dad 6d3d 8060 833d 4e2a 07be b196 383e
00000120: 6cc1 8cbe f6b0 e03e 84da 60be 88b5 41be
00000130: 250a d9be 153f a8be 5bff 02bf 02c2 babe
00000140: 9575 88be 3d02 2f3f d269 2c3f d463 12bf
00000150: 89e1 563e 4a48 403e 43ad d5be 13fb df3e
00000160: 5e5e 1fbc 3c0b 07bf 3204 d5bf c1a8 20bf
00000170: cfdb 30bf 6770 203e e268 4f3f eecf 943e
00000180: aa64 23be bc0f 90be c8f1 ee3e d3c3 883d
00000190: de8f 09bf a85d 313e d100 68bf 41b6 17bf
000001a0: 1109 00be 1ef1 95be 0870 1dbf c761 f83d
000001b0: ac6f 933e 3289 883e 0180 543f 48b7 b53e
000001c0: bf9e 24bd 8d04 50be 35d6 c43f 1c37 083f
000001d0: 3ce8 51be 6eb9 b93e dd92 0e3f 528c 8abe
000001e0: 316a ac3e 4bfb aabe e84d febc db9f b7be
000001f0: 5c89 423e 48b9 0f3d 10fe 553e e50e 00be
0.25464 0.3583742 1.7666456 0.5119678 0.004993029 0.21165851 0.28290117 -0.40459988
0.13036959 0.05249282 0.560356 0.44844714 -0.09175053 0.095690645 0.23959689 0.041103628
0.13182697 -0.14247864 0.25331932 -0.0022941495 -0.35068494 -0.67522573 -1.2172235 -0.64280266
0.07699426 -0.2404268 0.16214281 0.3610651 -0.5397869 -0.13050398 -2.393753 -0.17914546
-0.3722812 0.14527114 0.10985132 0.076107726 0.0129877785 0.211634 0.086681806 -0.020625034
0.27237937 -0.17897473 0.0068124854 -0.20952675 0.84857446 -0.16738121 1.5522443 -0.026414424
0.25873998 -0.4508365 -0.19171219 -0.14874622 -0.48806316 0.3829703 0.13149841 0.28517848
0.4519943 0.57912827 1.6701957 0.4786819 0.21029122 -0.55095804 -0.58642936 0.38887063
-0.38093606 0.18223692 0.039424635 0.22170945 0.058026362 0.0641489 -0.13199732 0.18026234
-0.2749132 0.4388501 -0.21958357 -0.18916905 -0.42390552 -0.32860628 -0.5117089 -0.3647614
-0.26652208 0.6836279 0.6734897 -0.57183576 0.20984472 0.18777576 -0.4173375 0.43746242
-0.009727089 -0.5275152 -1.6641905 -0.627575 -0.690854 0.15667878 0.81019413 0.29064888
-0.15956369 -0.28137004 0.4666884 0.066779755 -0.5373515 0.17320883 -0.90626246 -0.5926247
-0.12503459 -0.2928552 -0.6149907 0.121280245 0.28796136 0.26667172 0.8300782 0.35491395
-0.040190455 -0.20314236 1.5377871 0.5320909 -0.20498747 0.36274284 0.55692846 -0.2706018
0.33674768 -0.33394846 -0.031043008 -0.35864148 0.18997711 0.035088807 0.20897698 -0.12505682

bias f4 [32]
00000000: 57c5 9cbe ecd6 733f 67a5 6e3f 89bd 523f
00000010: 3d42 6a3f 0cb5 dcbe 6b3e 323f 80a2 8ebe
00000020: b420 1ebe 9df8 6a3f c6c2 733f 0221 8cbe
00000030: 0a2f 6d3f 8f20 8c3f 54bc 77bd e0f3 183f
00000040: 09dc 6e3f badb dbbe e303 343f 6571 10bf
00000050: a5a4 f03e 2b1a 753f 6d72 573f 1d2f 0fbf
00000060: 823a 5d3f 897d ddbc 1bd6 713f 67c1 8bbe
00000070: a1cc c6be ce0e 3d3f 5607 8c3f 0ac8 633f
-0.30619308 0.9524982 0.93221134 0.8232046 0.9150732 -0.43106878 0.6962649 -0.27858353
-0.15442163 0.91785604 0.95219076 -0.27368933 0.926499 1.0947436 -0.060482338 0.59747124
0.93304497 -0.42941076 0.7031843 -0.56423026 0.47000614 0.95743054 0.84158975 -0.55931264
0.864174 -0.027037399 0.94467324 -0.27295992 -0.38827994 0.73850715 1.0939739 0.8897711

weight f4 [32, 32]
00000000: 374d 3fbf 21c9 ea3e 3186 2c3f db78 403f
00000010: 4851 4d3f 826c 40bf 2e00 ef3e 1eb4 3bbf
00000020: bf3c 1fbe dab5 033f 2712 f33e c114 d0be
00000030: 06b4 1a3f abe7 263f ef74 2cbf ad7d 8b3e
00000040: c073 363f f4f5 cbbd 378c e73a f57e 06bf
00000050: a82c 283d 9018 4e3f 1e08 6bbe da4f 0abf
00000060: aa7d 1d3f 99e2 04bf 1130 053f 1675 66be
00000070: 9ebb 09bf c6ab 013f a1d4 043f 9fed 253f
00000080: f8fd 89bb 33ce 6e3b cf99 50be 6dee 43be
00000090: fd50 eebc c2f2 80be dbb2 c9bd 00e4 7639
000000a0: 0cb5 4dbe 2a06 a53d a199 87be 9ca2 043e
000000b0: 9f75 f1bd 5b9c 19be 167e 53bd 16c9 903d
000000c0: 2038 bcbd 5dfe 1f3e a1a2 a93c 83be 79be
000000d0: 706b 8cbd 1bf8 90be a93a 353d 097d 3dbe
000000e0: 286b 6a3d 7fd9 06be 32e8 15be 9680 edbd
000000f0: f225 11be e2f1 87bc 09ef 68be 997c 58be
00000100: 49e8 7fbd 6dc8 40be 9c4b 5ebe 2883 d4bd
00000110: 31d0 25be b739 98bd 3ea9 95bc 32e8 a53d
00000120: 18cf cabc 8dd2 a1bd 79c1 f5bc 871f 34be
00000130: 4f35 23bd 618b d0bc 05d8 b03c a1a1 85bd
00000140: 417c 06bd 859e 96bd 2a06 393d 8f17 08be
00000150: 0bcb d4bd b67d 73be b7e5 093b 6fa6 2ebe
00000160: ca3b 4abe 4b1b 0dbe ce27 36bc a13e 15bc
00000170: 9861 403d 4859 2abe f7e5 593d 4a0f 14be
00000180: a659 23bf 8225 9dbd 7873 10bf 6f46 62bc
00000190: b8f2 a4bc eb32 5e3f 3d01 e03d 34b6 493f
000001a0: 0e1d ddbd 6cbd d53c eb28 373e 8a8d 763e
000001b0: eabd a03e 3868 23be c8c9 73bf a342 d33d
000001c0: d19b 88be b71a 48be dec6 893e 91d7 fa3e
000001d0: 6fba a33d 6d38 58be 68d5 5d3f 92b4 da3c
000001e0: ec63 e63d 2efc 663f dede 163f 617d 42bf
000001f0: ba82 05bf 1dd1 643d 3390 dc3d 94c2 1bbe
00000200: 5412 34bf 04af a63e c1ce 3d3f ae90 173f
00000210: a844 503f f728 67bf 1958 ea3e 489e 36bf
00000220: c91a 80be 63eb 1a3f bfaa 0b3f e9cb eabe
00000230: eebf 363f bf3a 423f 5aff 3dbf 431e 783e
00000240: 1a0d 113f a3b0 48be dd75 cb3e c5e3 18bf
00000250: 17e0 113e 81ac 273f 80c5 7ebd d3c4 d0be
00000260: 981e e63e ece2 b8bd 13d7 e93e 5f77 73be
00000270: 748b e7be f540 d73e eaf5 303f 8dcb 2d3f
00000280: 9b9d 38bf 552b b23e 5673 ab3e 3a76 ff3e
00000290: 2a4d 223f f03b 5fbf 1ecc b03e 6c56 44bf
000002a0: cb46 bdbe 11e7 1d3f 8e9a 073f 6cb4 0fbf
000002b0: 8aed 153f d26e 363f 37aa 33bf 04b1 903e
000002c0: 0d89 0a3f a35a 523d e5d0 bb3e 8644 22bf
000002d0: 354d 5c3e 94e5 373f 8a00 5c3e 4928 04bf
000002e0: f471 093f 0b98 43bc ded8 cc3e da91 c7bd
000002f0: 8ea2 c5be 8dad 9e3e 46ba 323f 370e 053f
00000300: 0710 31be 3240 febc c659 87be f023 61be
00000310: dc94 d0bc fa00 c93b f7a9 f5bc 122f 9f3d
00000320: 4548 1a3e 7717 2cbc 1f8b 80be 168c 0dbe
00000330: b24b 59be 878e 4abe 1432 ecbd 1421 1ebe
00000340: 7283 583c e2d2 873d 578f 1bbe 65b3 56bd
00000350: 0131 65be 949d 60be f2bf 15be 10e2 96bc
00000360: 4b8b 793d b87f 32bd 3344 9abd 2a5c 23bb
00000370: 5a85 a2bd 78bc 04be e823 ccbd 1515 3dbe
00000380: 9ba0 44bf 6a7f 163f 7d99 dc3e c478 073f
00000390: b0f9 103f 8756 41bf 8233 813e 3353 11bf
000003a0: 5f79 70be 1957 123f bf08 ed3e fa89 f0be
000003b0: ecef ed3e 08b5 e03e 9f26 40bf 6318 ed3c
000003c0: 2c89 183f 6f5d 25bd 3a5d b33e 5421 0bbf
000003d0: 0406 c43d 4564 013f 95b0 db3e 42d8 03bf
000003e0: 88cd a63e e2a6 943d 6a2b 2d3f 41c7 09be
000003f0: 9b57 f5be 0e4b ce3e c76d 173f 0017 353f
-0.74727196 0.45856574 0.6739226 0.7518441 0.8020215 -0.7516557 0.46679825 -0.7332171
-0.15550517 0.5144936 0.47474787 -0.40640834 0.60430944 0.6519725 -0.67365927 0.2724432
0.7127037 -0.09959021 0.0017665689 -0.5253747 0.041058213 0.8050623 -0.22952315 -0.54028094
0.61519873 -0.5190826 0.5202647 -0.22505602 -0.53801906 0.5065273 0.51886946 0.64815706
-0.0042111836 0.0036438822 -0.20371173 -0.19133921 -0.029091353 -0.2518521 -0.09848567 0.00023545325
-0.20088595 0.08057816 -0.26484397 0.12952656 -0.117900126 -0.15001051 -0.051633917 0.07069604
-0.091903925 0.15624376 0.02070743 -0.2438908 -0.068564296 -0.2831429 0.044245396 -0.18504728
0.0572311 -0.13168906 -0.14639357 -0.115967914 -0.14174631 -0.01659483 -0.22747435 -0.2114128
-0.062477384 -0.18826456 -0.2170853 -0.103765786 -0.161927 -0.07432883 -0.018269178 0.08100928
-0.024756953 -0.079014875 -0.029999482 -0.17590152 -0.03984576 -0.025457086 0.021587381 -0.06524969
-0.03283334 -0.07354454 0.045171894 -0.13290237 -0.1039029 -0.23778424 0.0021041462 -0.17055677
-0.1974937 -0.13779943 -0.011117889 -0.00910917 0.046968073 -0.1663562 0.053197827 -0.14458957
-0.6380867 -0.0767317 -0.5642619 -0.013810738 -0.020135269 0.86796445 0.10937736 0.78793645
-0.10796557 0.0260913 0.17886703 0.2407743 0.31394893 -0.15957725 -0.9522977 0.10315444
-0.26681378 -0.19541441 0.26909536 0.4899259 0.07994544 -0.21115275 0.8665376 0.02669743
0.11249527 0.90228546 0.5893382 -0.75972563 -0.521526 0.05586349 0.10769691 -0.15210944
-0.70340466 0.325554 0.74143606 0.5920514 0.8135476 -0.9029688 0.45770338 -0.7133527
-0.25020435 0.6051542 0.5455741 -0.45858696 0.7138661 0.7587089 -0.7421776 0.24230294
0.56660616 -0.19598632 0.3973836 -0.5972255 0.1424564 0.65497595 -0.06220007 -0.40775165
0.44945216 -0.09027657 0.456719 -0.23776005 -0.45223582 0.42041746 0.69125235 0.6788872
-0.72115487 0.34798685 0.33486432 0.49894887 0.63398993 -0.8720083 0.3453073 -0.7669437
-0.36968073 0.61680704 0.52970207 -0.56134677 0.5856558 0.7126285 -0.701816 0.28260052
0.5411537 0.05135597 0.3668281 -0.6338581 0.21513827 0.71834683 0.2148458 -0.5162397
0.53689504 -0.011938105 0.40009207 -0.09744616 -0.38600582 0.30991784 0.6981548 0.51974815
-0.1729127 -0.03103647 -0.2643568 -0.21986365 -0.025461607 0.0061341496 -0.029988272 0.0777265
0.15066631 -0.010503641 -0.2510614 -0.1382297 -0.21220282 -0.19780932 -0.11532989 -0.15442306
0.013214933 0.066320196 -0.15191399 -0.052417178 -0.22381975 -0.21935111 -0.14624003 -0.018418342
0.060923856 -0.043578833 -0.07532539 -0.002492676 -0.07935591 -0.1296252 -0.09967786 -0.18465073
-0.76807564 0.5878817 0.43085852 0.5291865 0.5663099 -0.75522655 0.2523461 -0.56767577
-0.234838 0.5716415 0.46295735 -0.46980268 0.46472108 0.43888116 -0.7505893 0.028942293
0.5958431 -0.04037231 0.35032064 -0.5434773 0.0957146 0.50543624 0.4290816 -0.5150186
0.32578683 0.07258393 0.6764437 -0.13454916 -0.479184 0.40291637 0.5915188 0.7073822

bias f4 [32]
00000000: f25a 303f 070c 45be 975c ffbc 0b18 b4bd
00000010: ea72 263f d052 b43e 30ca 5dbe a40f e33e
00000020: 14a8 b8bd 7f96 023f e818 10be 16da e0bc
00000030: c07f fcbd 00e5 62be 8bfb b63e 81e1 183f
00000040: 41f2 2bbe 5c93 0f3f 3bf3 b03e 144a c7bd
00000050: a426 e23e ba8b 1b3f 5fc8 233f 2f18 db39
00000060: 4f8c 1f3f bf20 c53e 360e c73e 7ad1 c13e
00000070: 7d7a 15be 182b 3c3d b46c 8bbd 0b95 eebc
0.6888877 -0.1924287 -0.03117208 -0.08793648 0.65019095 0.3521943 -0.2165916 0.4434787
-0.09016433 0.5101089 -0.14072001 -0.027447741 -0.12329054 -0.22157669 0.35738787 0.5971909
-0.16791631 0.5608423 0.3456057 -0.09730926 0.44170105 0.6076008 0.6397762 0.00041788953
0.6232347 0.38501546 0.3887803 0.3785513 -0.14597507 0.045939535 -0.06807843 -0.029123804

weight f4 [2, 32]
00000000: 5e9a 8fbe 0a01 013e d47e f7bc 3081 883f
00000010: 3a41 49be 89c9 09bc d18d 31be 3825 ff3d
00000020: 5d3e eb3d cdc4 28bc a12c 173e bccd 133e
00000030: dcb0 ac3d cde2 a83d 8d4d a8bd 4d65 82be
00000040: 5189 473d 4fd6 403e ef66 f5bd 08ab 08bd
00000050: d1c3 953e c935 2c3e c311 2bbe 6f26 20be
00000060: d1eb d0bd cf62 f03e c5bb 3c3e 7c45 afbc
00000070: 13bb 993c 1e52 5abd d744 25be e217 e7bd
00000080: 9cc4 3a3e c322 05be d4ac eabd 52e3 87bf
00000090: 4f12 403d 62b4 e3bc fbf8 33bd 8342 32bd
000000a0: f44b 04bc 77fd b13d 4564 b73d 58d8 14bd
000000b0: 44f8 0bbd 28f1 62be 500b 30bd 80d9 003e
000000c0: 948a 1abe 0e60 06be 39bb debd ae4d a5bd
000000d0: 0ef5 abbc f411 74bd 63dc 233e bec9 ebbd
000000e0: 4f8e cd3e 3a02 d5be 49e4 f8bd c806 483e
000000f0: 830a 55be 62e8 a4bd 4b33 08be 3cd6 903d
-0.2804746 0.12598053 -0.030211844 1.0664425 -0.19653788 -0.008409866 -0.17339255 0.12458271
0.11486504 -0.010300827 0.14763118 0.1443395 0.08432171 0.08246384 -0.08217917 -0.2546791
0.04871494 0.18831752 -0.11982524 -0.033366233 0.2925096 0.16817392 -0.16705994 -0.15639661
-0.102012284 0.46950385 0.18431003 -0.021395437 0.018765962 -0.05330097 -0.16139542 -0.11283852
0.18239063 -0.13001542 -0.114587456 -1.0616248 0.04689246 -0.027795974 -0.04393862 -0.04352046
-0.008074749 0.08690923 0.08954672 -0.036339134 -0.03417231 -0.22162306 -0.04297954 0.1258297
-0.15091926 -0.1312258 -0.10875554 -0.08071457 -0.020990875 -0.059587434 0.1600204 -0.11513089
0.40147635 -0.4160326 -0.12152917 0.19533837 -0.20804791 -0.08052136 -0.13300817 0.07072112

bias f4 [2]
00000000: baaa 04be 2cbb 513e
-0.12955752 0.20481557

weight f4 [1, 32]
00000000: 12e0 313f 54b7 703d 408f 30bd 03eb 1bbf
00000010: 369f 223f 9324 2a3f 370d 08bd 0e76 323f
00000020: dcc0 b2bd 685c 353f f1a8 893c 3c59 a7bd
00000030: 1931 10bd 7d38 7dbb 433e 443f d4e2 253f
00000040: 3994 9abd 4a1e 393f 9cab 2d3f 90e5 efbd
00000050: 056a 493f 775c 363f 47b7 2e3f 38e9 a0bc
00000060: 7247 2c3f b731 1e3f 9d06 2e3f 08ef 2b3f
00000070: b4f7 58bd 177c 06be 428a acbb 6ed2 763d
0.6948253 0.058768585 -0.043105364 -0.60905474 0.63524187 0.6646206 -0.033215728 0.6971139
-0.08728191 0.70844126 0.01680419 -0.08171317 -0.035203073 -0.0038638406 0.76657504 0.6479924
-0.075478025 0.7231184 0.6783998 -0.117137074 0.786774 0.7123484 0.6824841 -0.019642457
0.67296517 0.6179461 0.6797884 0.6716161 -0.052970603 -0.13133274 -0.005265505 0.060259275
