data/20220509-022859/model.pth (torch, 8399 bytes, 7 tensors)

weight f4 [32, 4]
000000 4a 1c 01 3d d3 ae 05 3f 8d 36 37 3e 35 02 d3 be
       0.03152112 0.52219886 0.17891903 -0.4121262
000010 99 49 c1 3e 09 80 a1 be 13 80 a3 3c 45 e6 cf bd
       0.37751463 -0.31542996 0.019958531 -0.10151342
000020 ff 48 ad 3d 9a c1 1a 3e f2 fd d8 3e 5a b8 b4 be
       0.084611885 0.15112916 0.42381245 -0.352969
000030 b9 df 2f 3f c2 9e 8b 3e 44 56 38 3f 3a 89 b8 3e
       0.6870075 0.2726956 0.7200663 0.36042196
000040 32 47 19 be e2 bd 94 3e 4d d8 e1 3d ae fb 88 3e
       -0.14968565 0.2905112 0.11027584 0.26754516
000050 54 c0 58 3d 18 dc 9b be 74 d2 7f bf c4 b6 25 bf
       0.052917793 -0.30441356 -0.999305 -0.64732003
000060 49 89 d4 3c 10 7f 9a be 80 39 8b 3e 62 c3 29 3d
       0.025944369 -0.30175066 0.27192307 0.041446097
000070 6f a0 cb be c1 01 f7 3e ff 18 55 be a6 55 33 3e
       -0.3977084 0.48243526 -0.20810317 0.17513141
000080 1f 18 06 3f 8f 78 77 3d 66 16 93 3f d7 8b 97 3e
       0.52380556 0.060417708 1.149121 0.29598877
000090 20 10 81 be 85 3a c7 3d ab a7 ed 3e 6b bc cf be
       -0.25207615 0.097279586 0.46416983 -0.4057344
0000a0 24 2f d6 bd c7 27 52 3e 01 5a ae 3e 6e 5e ef 3e
       -0.1045821 0.20522986 0.34053043 0.46751732
0000b0 d2 1c e6 3e 77 87 8e be 9e 25 a7 be ec a3 bc 3e
       0.44943863 -0.27837726 -0.32645887 0.36843812
0000c0 69 cd 05 3e b3 f9 84 be b8 3a 8c bd 28 84 be be
       0.13066639 -0.25971755 -0.06847137 -0.37210202
0000d0 e8 b2 4b be 1b a6 05 bf 0f 09 50 3d 35 83 8c 3e
       -0.19892466 -0.5220658 0.05078989 0.27443853
0000e0 06 17 7c 3e 1e 60 e2 be 1f 5a 99 bf c3 58 6e bf
       0.24618158 -0.44213957 -1.1980628 -0.9310419
0000f0 91 7f 0b 3e 38 1f b2 be 82 5f 1d bf 02 75 8f 3e
       0.13622881 -0.34789443 -0.6147386 0.28018957
000100 42 f1 4d 3e e7 cf 28 be 48 ee 68 3d d7 ab b6 3e
       0.20111564 -0.16485558 0.056867868 0.35677978
000110 74 08 7e 3d e6 c3 a8 be 97 82 ce bd eb d1 b2 be
       0.06201978 -0.3296196 -0.10083502 -0.3492578
000120 70 65 1f 3f 3b 3b 0d 3f 95 08 02 3f f0 77 33 3f
       0.62264156 0.55168504 0.50794345 0.70104885
000130 63 60 c5 be 76 c2 f3 be c9 47 8b 3e da 30 22 be
       -0.385501 -0.476093 0.27203205 -0.15838948
000140 61 f0 86 bc 47 86 eb 3d bd 33 2d be 00 21 e5 bd
       -0.016472043 0.11500221 -0.16914268 -0.11187935
000150 3a b9 bc be e5 7c ed 3e 55 70 1f 3f e0 64 49 3d
       -0.36860067 0.4638435 0.6228078 0.049168468
000160 b5 75 f8 3e 94 d1 0d bf 51 ea 41 bf a8 7e ed 3d
       0.48527303 -0.55397916 -0.75748163 0.115964234
000170 21 99 00 3f ff 65 47 be 8a a1 5b be ca 6e 41 bf
       0.50233656 -0.19472502 -0.21448341 -0.75559676
000180 19 42 1b be 5b dc e1 3e b0 25 26 3e 06 c4 ce be
       -0.15161933 0.4411343 0.16225314 -0.4038393
000190 00 80 b2 3d 04 02 a6 3e 21 f9 8a 3e 34 e1 dc 3e
       0.0871582 0.32423413 0.27143195 0.43140566
0001a0 7e 8a 3c bd 84 aa 75 3e cb 6e 87 3e e8 31 50 bd
       -0.046030514 0.23990828 0.26451716 -0.050828844
0001b0 85 42 18 bf 0c 12 ec bd d0 44 92 3e 38 55 0d 3e
       -0.594765 -0.1152688 0.28568125 0.1380204
0001c0 64 ec a1 3e e4 0a f8 3e e4 36 77 3f ad 35 0c 3f
       0.31625664 0.4844581 0.9656813 0.547694
0001d0 3e 7e 50 bf ec e2 82 3e 28 72 25 3e 72 7d 29 3f
       -0.8144263 0.25563753 0.16156828 0.6620704
0001e0 48 e1 72 3c 56 ff c9 3d c2 5e 93 bc 5b 03 a8 3e
       0.014824219 0.098631546 -0.01798952 0.3281506
0001f0 05 27 b2 3d 07 98 e7 be 7e 33 a8 be 77 b3 0a 3c
       0.08698849 -0.45233175 -0.32851785 0.008465639

bias f4 [32]
000000 f5 22 94 be bc 51 80 3f 97 c6 45 3f c6 56 9e be
       -0.2893292 1.0024943 0.7725615 -0.30925578
000010 db a2 17 3f 15 c3 f5 3e 00 ea 6e 3f 0f 32 5a 3f
       0.5923287 0.48000398 0.93325806 0.85232633
000020 b3 fa 32 be e2 e5 25 3f 47 62 15 3f b8 f7 87 3f
       -0.17478447 0.648039 0.58353084 1.0622473
000030 9e 61 1b bf 9f aa 2a 3f f7 13 45 be 87 2b 22 3f
       -0.60695827 0.666666 -0.19245897 0.6334767
000040 f8 7d f8 3e f3 9a 47 3f 2c 26 ae be 90 0c e5 be
       0.48533607 0.7797081 -0.34013498 -0.44736147
000050 91 32 47 3f 20 53 c4 be e8 d3 d5 3e 98 b6 44 be
       0.77811533 -0.3834467 0.41763234 -0.19210279
000060 87 e1 2b 3f 24 f3 84 3f 1f 4b 15 3f df f5 87 be
       0.67141 1.0386701 0.5831775 -0.26554772
000070 4a 50 72 be ce a7 44 be 70 0e 12 3f 63 49 cf bd
       -0.2366344 -0.19204637 0.5705328 -0.10121419

weight f4 [32, 32]
000000 37 0f 6a 3b d9 ae 38 3d 11 31 62 bd 20 1a 90 bd
       0.0035714635 0.045088623 -0.055222575 -0.07036233
000010 3e 1d f8 3d eb db 94 bd e0 f0 32 bd d1 d5 f5 bd
       0.121149525 -0.072685085 -0.043686748 -0.12003673
000020 52 73 f2 3d 00 2c 29 be 98 92 10 3d 8f 33 0f be
       0.11838402 -0.16520691 0.035296053 -0.13984512
000030 33 ca 1c be ed 6a a9 bd 9e 16 61 3d b0 95 5e bc
       -0.15311508 -0.082723476 0.05495321 -0.013585493
000040 e0 5c f9 3b 57 e1 63 be 80 f2 94 bd 22 4c eb 3d
       0.0076099485 -0.22253929 -0.07272816 0.114891306
000050 39 24 ce 3c cd 4e ef bd 68 c9 8f 3c 99 38 b8 bd
       0.025163757 -0.11684952 0.017552093 -0.0899517
000060 2a 2f fc 3c 50 32 44 bd 5a 43 3a 3d c2 96 a1 3d
       0.030784208 -0.047899544 0.045474388 0.07890083
000070 e8 17 f5 bd 20 d5 29 3d 04 56 4f bd 7a 61 e9 3d
       -0.119674504 0.041463017 -0.05061914 0.11395545
000080 44 9c 8e 3e be a4 a0 bd 15 27 07 3e 94 e4 2b 3f
       0.27853596 -0.07843922 0.13198502 0.6714566
000090 89 da de 3d 59 65 95 be ad 14 c3 3d 1a 42 2a be
       0.10881526 -0.29178885 0.09525428 -0.16626778
0000a0 42 50 98 3e 2c 0c 6e be 43 fe 99 3d 72 d5 d9 3d
       0.29748732 -0.2324683 0.075192 0.106364146
0000b0 c0 09 63 be 06 06 7d 3e 26 cb cf 3e 9d 9a fc bd
       -0.22171688 0.24709329 0.40584677 -0.12334178
0000c0 3a 5b 96 3e 3b ae cf bd 49 4e d2 3e 2e 61 29 3f
       0.29366475 -0.10140654 0.41075352 0.6616391
0000d0 c1 23 a5 be 58 e5 b2 be ee c5 fa bd 2f 77 18 3f
       -0.3225384 -0.349406 -0.12244783 0.5955686
0000e0 12 95 1c 3e 0c 95 44 bd 9a 53 d2 3d c3 6b f1 3e
       0.15291241 -0.047993705 0.10269852 0.47152528
0000f0 aa d7 1e 3f 5f 6d 17 3f 71 d8 e3 3d c5 f5 8c 3d
       0.6204783 0.5915126 0.11125267 0.06882814
000100 a4 9d 83 bc 34 09 d6 3e b4 50 00 3f aa c1 12 bf
       -0.01606638 0.41803896 0.50123143 -0.5732676
000110 28 51 63 3e 0b 2f e7 3e c4 5a 04 3f 19 0b 7d 3e
       0.22198927 0.45153078 0.51701 0.24711265
000120 dc ce fe be 42 6b 17 3f f1 f5 b6 3c c6 4f 56 3e
       -0.49767196 0.5914804 0.02233407 0.20928869
000130 2f 5b 35 be 8f 2f b7 3e b0 d8 04 bf 41 43 83 3e
       -0.17710565 0.35778472 -0.5189314 0.25637248
000140 03 ab 99 bd da 87 08 3f 8d a1 14 bf b7 11 db be
       -0.07503321 0.53332293 -0.58059007 -0.42786953
000150 00 c2 17 3f 1e 37 84 bc be 94 db 3e 3a a9 1e bd
       0.59280396 -0.016139563 0.4288692 -0.038735606
000160 5b 3f 08 3f 8d 8f 65 3e 4e 58 0b 3f c6 e8 0b bf
       0.5322167 0.22418042 0.5443162 -0.5465206
000170 5e 5a f7 be 15 d9 04 bf 4f 36 8c 3e c0 af 39 3d
       -0.48311132 -0.5189374 0.27385184 0.045333624
000180 5e 46 52 3d 78 38 44 bb 20 fa 71 be e7 61 02 3c
       0.05133664 -0.0029940885 -0.23630571 0.007957912
000190 81 b0 ba 3d fc c5 38 be c5 a6 24 be 13 12 68 3d
       0.09115697 -0.18044275 -0.16079243 0.056657862
0001a0 2f 88 86 bd f1 a3 39 be 5d ca e2 3c df 54 49 be
       -0.06568944 -0.18128945 0.027684385 -0.19661282
0001b0 90 0e 0a 3d 56 f1 88 bc 1f 8f a5 bd 9d ec 03 be
       0.033705294 -0.01671664 -0.08083939 -0.1288323
0001c0 79 bd 1d 3d 9f de 9b bd c8 1c 30 be d8 bb 94 bd
       0.038510773 -0.07610821 -0.17198479 -0.07262391
0001d0 d8 21 e9 bc d8 7f 8a 3d b5 06 0e 3d cd ad c6 bd
       -0.02845852 0.067626655 0.034674365 -0.097011186
0001e0 61 92 3f bd d1 5a f6 bd 8d a0 29 3c da 12 d5 bd
       -0.046770457 -0.120290406 0.01035322 -0.10403986
0001f0 69 73 85 3a 2f d1 a8 3d fe 11 48 3d 7d 6a 49 3d
       0.001018149 0.082430236 0.048845284 0.04917382
000200 d0 e8 f8 bd 78 6d d3 3e 0b 4a 93 3e 08 29 ba be
       -0.121537805 0.41294456 0.28767428 -0.3635943
000210 ca 31 70 3e dd f8 82 3d 46 98 84 3e 43 98 d4 3e
       0.23456493 0.06395123 0.25897425 0.41522416
000220 3f b9 d9 be 68 c8 03 3f f0 37 93 3d fb 64 94 3e
       -0.42524144 0.5147767 0.071884036 0.28983292
000230 cb 16 54 3d 7c 28 0a 3e 23 60 05 bf 59 78 f7 3e
       0.05177955 0.13492006 -0.5209982 0.48334005
000240 3e b0 87 3e 39 a9 f9 3e 9a 80 b1 be d9 3b ca be
       0.2650165 0.4876192 -0.34668428 -0.39498785
000250 03 56 00 3f 5e 3b e2 3d f3 c2 f2 3e 53 18 81 be
       0.50131243 0.1104648 0.4741436 -0.2521387
000260 bc 46 9c 3e b3 80 90 3e 52 53 0a 3f 64 d3 ce be
       0.30522716 0.2822319 0.54033387 -0.40395653
000270 65 d9 e9 be a2 b5 05 bf a1 f2 15 3e c2 79 4c bd
       -0.4567367 -0.52230275 0.14643337 -0.049920805
000280 aa 49 e8 3d f5 6e 93 3e e9 f6 e0 3e 28 67 dd be
       0.11342175 0.2879559 0.43938377 -0.43242764
000290 f5 52 7e 3e c1 b8 48 3e 7f 3f b8 3e 36 93 06 3f
       0.24836333 0.19601728 0.35985944 0.52568376
0002a0 97 8a c0 be a2 92 03 3f 9b 44 63 3e 19 7c c8 3e
       -0.37605736 0.5139562 0.2219414 0.3915718
0002b0 d8 68 d0 bc d8 c0 3f 3e 48 50 93 be 82 8a 83 3e
       -0.025440618 0.18725908 -0.28772187 0.2569161
0002c0 ad b7 13 bd 92 f6 e1 3e 6f 1f fa be 89 d2 11 bf
       -0.03606384 0.4413343 -0.48852107 -0.56961876
0002d0 3e 3e 08 3f 5e 37 2f 3b bc a8 1c 3f 6b a3 3d be
       0.53219974 0.0026735882 0.6119497 -0.1851937
0002e0 dc 90 e3 3e ec 73 7d 3e 03 36 cf 3e bb fd 35 be
       0.44446456 0.24751252 0.40470895 -0.17772572
0002f0 f0 d2 ac be 8f e6 cc be db c4 6c 3e a0 72 91 3a
       -0.33754683 -0.40019652 0.2312197 0.0011096783
000300 fc 4c 09 be ec d4 d0 bd c2 e8 d5 bd aa a2 bf 3d
       -0.13408273 -0.101968616 -0.10444786 0.093571976
000310 fc f2 30 be e0 c6 2d 3d e5 98 b0 bb 9c d3 31 be
       -0.17280191 0.04242599 -0.00538932 -0.17365879
000320 99 61 21 be f6 5c 87 bd 15 ab b4 bd 08 9f fd bc
       -0.15759887 -0.06609528 -0.08821694 -0.030959621
000330 67 07 2b 3e 85 db bc bd e2 7a c3 3d f5 8f 7a be
       0.16702043 -0.092215575 0.095449224 -0.24468978
000340 48 e8 cf 3d 10 1e 2c 3d 46 1b d0 bd 3e da f0 bd
       0.10151726 0.042020857 -0.10161452 -0.117603764
000350 33 2b 2c be fe fc e8 3d 1a be c8 3d 74 7c fc bd
       -0.16813354 0.113763794 0.09801884 -0.12328425
000360 b6 18 aa 3d ee 3b a6 3d 97 4a 2b be c2 6e ed 3d
       0.083054945 0.081168994 -0.16727673 0.11593391
000370 8b d3 03 be e9 f1 c2 3d 8f ea 74 be 6d 2a e3 bd
       -0.12873666 0.09518797 -0.23917602 -0.110920765
000380 16 df 1c bc 45 0d 97 3e 3d 0d f7 3e 86 9d 2b bf
       -0.009574672 0.2950231 0.48252288 -0.67037237
000390 dc 06 d8 3e 1f 92 78 3e 5f 4b 01 3f 8e bd cb 3e
       0.42192733 0.24274491 0.5050563 0.39793056
0003a0 33 39 f4 be 71 72 e6 3e 88 37 88 3d be 76 b9 3e
       -0.4769989 0.45009187 0.06651217 0.36223406
0003b0 ca c2 ce bd 18 a4 da 3d a2 aa c2 be 9e 0d 33 3e
       -0.10095747 0.1067583 -0.38020808 0.17485663
0003c0 84 23 95 3e 2d 29 b6 3e 8a e1 e7 be fa 70 0a bf
       0.2912866 0.3557829 -0.4528926 -0.5407864
0003d0 6d 06 fd 3e b9 70 c8 ba 56 7d ad 3e ca a3 3b be
       0.49418965 -0.0015292383 0.33884686 -0.183242
0003e0 22 0e a5 3e e8 77 d6 3e 31 93 f7 3e c1 cc a7 be
       0.32237345 0.41888356 0.48354486 -0.32773402
0003f0 e5 b0 04 bf 32 77 1b bf 2e 1e 9f 3e 75 e2 5a 3e
       -0.5183242 -0.6072875 0.31077713 0.21375449

bias f4 [32]
000000 50 54 2b be a7 74 84 be e0 4f de 3e c1 e9 79 3c
       -0.16731381 -0.2587025 0.43420315 0.015253485
000010 25 c8 f7 3e 88 44 09 3f 26 c3 69 be 10 53 09 3f
       0.48394886 0.53620195 -0.2282835 0.5364237
000020 65 35 dd 3e 17 e1 1d bd ac 9e ad 3e c2 13 54 bd
       0.432048 -0.03854474 0.3391012 -0.051776655
000030 13 76 0f 3f 60 e2 71 bd 49 bf e6 3e 4b 24 f0 3e
       0.5603954 -0.05905378 0.45067814 0.4690269
000040 8a a5 95 3d 6c db 9e 3e 5d a8 ea 3e 49 e4 de bd
       0.07306965 0.3102678 0.45831576 -0.10883386
000050 52 fb f0 bd 6e 41 cd 3e d0 31 b6 3e a3 8d 5a bd
       -0.117666855 0.4008898 0.3558488 -0.05335773
000060 6b b3 f0 3e e2 7b ca 3e 92 e3 12 3f c3 87 1b 3f
       0.47011885 0.3954764 0.57378495 0.6075403
000070 d4 16 9b bd b0 6a 3e be 20 2d a5 3e f3 09 b5 3e
       -0.075727135 -0.18595386 0.3226099 0.35359153

weight f4 [2, 32]
000000 f1 a2 87 3b d8 59 a0 bc 4f b6 82 3e 9e d9 09 3e
       0.004139297 -0.01957409 0.25529715 0.1346192
000010 20 32 89 3d 81 f7 38 3e 3d 9b 97 bd 7d 06 10 3e
       0.06699014 0.18063165 -0.07402656 0.14064975
000020 10 1b 21 bd e3 e9 0f be 79 d7 c8 be 2d 4a 63 bd
       -0.03933245 -0.14054064 -0.39226893 -0.05549066
000030 c6 b0 87 be b8 35 71 3d ac 88 ee bd 82 20 c0 3d
       -0.26502055 0.05888912 -0.11647162 0.093812004
000040 a1 cf 2e 3f cf dd 36 be 1a b7 92 bb bb 8b 00 3d
       0.68285567 -0.17858051 -0.004477394 0.031383257
000050 ff 8f c1 bd 8c 87 1d 3e 19 12 81 3e 8c 8b b2 3d
       -0.09451293 0.15383738 0.2520912 0.08718023
000060 c8 22 56 3d 12 10 a2 bd 2c 8f df 3c 4a 05 3c 3a
       0.052279264 -0.079132214 0.02728995 0.0007172419
000070 19 f2 7e bd b4 f6 f4 3d fd 06 bc 3c e4 86 42 3d
       -0.0622426 0.119611174 0.022952551 0.047491923
000080 11 35 b5 3d 70 c7 6b bc d2 f3 68 be 11 93 23 3d
       0.08848012 -0.014390811 -0.2274926 0.039935175
000090 8d a2 e6 bd 52 bb 2a be 59 bf 9b bd a4 66 57 bc
       -0.11261473 -0.1667302 -0.07604856 -0.01314703
0000a0 8b fd 43 bd dd ae 88 3d bb b9 1c 3f aa 9f 2c 3e
       -0.04784922 0.066739775 0.612209 0.16857782
0000b0 9d 27 0a 3e 1c ce 23 be 5e 93 9b 3e 88 8d 9d 3d
       0.13491674 -0.15996593 0.3038587 0.076930106
0000c0 50 27 1b bf 31 00 40 3c 42 6a 91 3c 23 a4 75 3d
       -0.6060686 0.011718796 0.017750863 0.059970986
0000d0 7e e6 0e be f4 eb 4e bc 4e c5 c3 bd a7 7d 1f 3d
       -0.13955113 -0.012629498 -0.09559117 0.03893819
0000e0 52 1e 76 bd 68 1b 3b 3e 07 08 19 bd 9c fe 40 3e
       -0.06008751 0.18272173 -0.03736117 0.18847126
0000f0 4c 09 2e 3c da c6 e6 3d 68 44 3e 3e 49 d0 17 bd
       0.010622334 0.11268397 0.18580782 -0.03706387

bias f4 [2]
000000 f2 6e 7e 3c da 90 70 3d
       0.015529381 0.05873189

weight f4 [1, 32]
000000 98 15 36 3e c3 77 0b bf aa 17 26 3f 7e 31 8f 3b
       0.17781675 -0.54479617 0.6487986 0.0043699136
000010 1d 14 27 3f e0 80 0b 3f 7c 73 0f be e7 4c 21 3f
       0.65265065 0.5449352 -0.14008898 0.6300797
000020 57 1c 1a 3f 2b 31 c9 bd dc 33 ce 3e 7a 83 af bd
       0.60199493 -0.09823831 0.4027394 -0.08569999
000030 8c 75 01 3f e2 03 b3 3d a2 ee 1b 3f 04 1b 2f 3f
       0.5056999 0.08740975 0.60911 0.684006
000040 52 0a 8b 3e 61 ab 17 3f 94 dd 11 3f 42 dd 05 3d
       0.2715631 0.5924588 0.56978726 0.03268171
000050 d0 83 1c bd cd 94 19 3f 8a 11 0a 3f 1f cf c6 bd
       -0.038211644 0.59992677 0.5393301 -0.09707474
000060 a5 d7 19 3f 5d 31 1d 3f b9 cc 14 3f 45 3d 13 3f
       0.6009467 0.6140345 0.5812488 0.57515365
000070 ce b6 b5 be 2a ac 18 bd 52 99 0d 3f 8b c3 26 3f
       -0.3549103 -0.037273563 0.55312073 0.65142125
