data/20220509-013913/model.pth (torch, 8399 bytes, 7 tensors)

weight f4 [32, 4]
00000000: 18cf 193e af34 abbe 8eef 26bf 0a8a c13e
00000010: 77f0 97be bd58 0cbe 6441 1fbf 66c7 a8bc
00000020: 0a9b 613e 08e6 8e3c d7ea 3abe 2495 9fbc
00000030: a5d2 3c3d dadb 57bd df53 e43e 8cb3 91be
00000040: 80fe 273e 377e 193e 0b1f b23e 4ea0 d2bd
00000050: 30b9 673e 98bd 2cbf 3062 eabf 2745 09bf
00000060: 5eab 29bc fee1 f2bd 6124 f1bf 99cc 44bf
00000070: 7a88 8a3d 453a bebb caf2 b33e c8d0 a1be
00000080: bd21 52bb 508d 6cbe 30d1 0cbf 8ae2 dabe
00000090: b613 39bd e4cf 083e a454 2e3f 2d01 acbe
000000a0: 1e1a 133f ecbb 4f3e 498a 233e 15c3 bfbe
000000b0: b6e5 f7bb fa4f 943e 9925 eebe 04bf 97bc
000000c0: 0413 533f bcad 3d3f f246 7e3f 51d2 303f
000000d0: cf29 67bd 9186 a83e 5100 6d3e 9054 463e
000000e0: 60e4 f9bd 34af f43d 10e3 163c 3371 d43e
000000f0: 8346 0abe 609f 0fbf bf1b 85bf 32ae e8be
00000100: 885d c23e 4de8 8dbe fb2c b1bd ab70 ddbe
00000110: 70bf 59bf a990 32bf 0b7c b1bf 9c79 0dbf
00000120: 956c 80bc f066 b9be 144f b2be 4ec2 703e
00000130: a858 a0bc 9942 a13e 746b db3b 5f06 b43e
00000140: 83eb 1b3f feb3 adbe d158 1540 4555 23be
00000150: 0257 7dbd eabe c3be 64a4 97ba 8729 bf3e
00000160: d987 debc 0acf 7c3e eca5 633d 6890 233e
00000170: f671 8b3e 7f34 19be 2868 e1be ef7b 9ebe
00000180: 721c a0bd d8d2 6fbe 965a e63d 0c0b 32be
00000190: f33c a33e 8a96 28bf 65fd 47bf ef82 913e
000001a0: 77c1 a2bd 69bb a63d 2fbb d83e 33c1 813e
000001b0: b05e 28be fc24 05bf 45c2 ec3d 977b 053e
000001c0: 5e39 9fbd 5942 98ba 9e4c 34bf 1486 c1be
000001d0: f0ab c4bd 0cc7 06bf 0630 bdbe 61c6 a6be
000001e0: 8a18 9fbe 6e79 023f c4a6 1f3e abc7 91bd
000001f0: 8862 60bf b492 6a3e a1db f6bf 72f0 23be
0.15020406 -0.33438632 -0.6520928 0.37800628 -0.29675648 -0.13705726 -0.62209153 -0.020602893
0.22031799 0.017443672 -0.18253647 -0.019480295 0.046099324 -0.0526999 0.4459524 -0.28457296
0.16405678 0.14989553 0.3478931 -0.10284482 0.22629237 -0.674768 -1.8311214 -0.53621143
-0.0103557985 -0.11859511 -1.8839227 -0.7687469 0.06764312 -0.005805286 0.3514617 -0.316046
-0.0032063567 -0.23100781 -0.55006695 -0.4275096 -0.045184813 0.13360554 0.680979 -0.33594647
0.57461727 0.2028653 0.1597072 -0.37453523 -0.0075652255 0.28967267 -0.4651306 -0.0185237
0.8245089 0.7409322 0.99327004 0.6907092 -0.056436356 0.32915166 0.23144652 0.19368196
-0.12201762 0.1194748 0.009209409 0.41492614 -0.1350346 -0.5610256 -1.0399092 -0.454454
0.37961984 -0.27716294 -0.086511575 -0.4325002 -0.85057735 -0.69751984 -1.386598 -0.55263686
-0.015676776 -0.36211348 -0.34825957 0.23511621 -0.019573525 0.31496122 0.006696159 0.3516111
0.6090624 -0.33926386 2.333546 -0.15950496 -0.061850555 -0.38231593 -0.0011569378 0.3733637
-0.027164387 0.24688354 0.055578157 0.15973055 0.27235383 -0.14961432 -0.44024777 -0.3095393
-0.078179255 -0.23420274 0.11247747 -0.17387027 0.31882438 -0.65854704 -0.78121024 0.28420207
-0.07947057 0.081412144 0.4233031 0.25342712 -0.1644237 -0.5200956 0.115604915 0.13035427
-0.07774614 -0.0011616453 -0.7042941 -0.37797606 -0.09603107 -0.5264747 -0.369507 -0.32573226
-0.3107341 0.50966537 0.1559096 -0.07118162 -0.87650347 0.22907525 -1.9285775 -0.16009691

bias f4 [32]
00000000: 0757 8c3d a8c5 573f bfcb 5f3f ca12 f5be
00000010: c29e 8c3f fe88 2e3c e03e 71be 6244 3d3f
00000020: 1e10 7d3f 3f63 3f3f 162b febe 2d19 873f
00000030: f3f9 5fbe 8946 653f f860 863f 9844 99be
00000040: 7762 923f 74d0 53be c339 093f dcea 583f
00000050: d62e f3bd 07bb 8f3f f592 373f 0a8b 7c3f
00000060: 27e9 213f 2261 0b3f f42e 443f b6dc 3d3f
00000070: e84b 543f ed9d 4c3f d36a 333f 631a 17bf
0.06852537 0.84285975 0.87420267 -0.47865897 1.0985949 0.010652779 -0.23559141 0.7393247
0.9885272 0.7476081 -0.49642247 1.0554558 -0.21872692 0.89560753 1.0498343 -0.29935145
1.1436299 -0.20684987 0.5360376 0.84733367 -0.118741676 1.1228951 0.71708614 0.98649657
0.6324639 0.5444509 0.76634145 0.74164903 0.82928324 0.79928476 0.70084876 -0.5902464

weight f4 [32, 32]
00000000: fef1 eb3d adc7 94bd d0a8 0e3c 11b2 05be
00000010: f429 753d 4e56 c33d e052 6cbc de3d e6bd
00000020: 4190 013e d3f2 20be a892 ffbd bb34 e0bd
00000030: b019 22bd ae2f 973d b20c e3bd 3bda 1d3e
00000040: c8f9 28bd 6cdb 1cbe 8480 89bd f9c7 1ebe
00000050: ce0a ee3d 2e41 dabd 903a 9bbd 4aa0 6cbd
00000060: 608e f9bb 22d9 07be 47da 06be 1311 243e
00000070: ad24 d1bd 5872 03bd d886 10be 3347 99bd
00000080: fa58 553e b212 193f 1587 1a3f a05a 4cbe
00000090: 4af7 c83e c23c 36bf 50d1 d2be 76d4 143f
000000a0: 8677 b13e e6b4 943e c0db 33be 6ec3 f33e
000000b0: 80be 1dbf 2ad4 e03e 720f f73e 2c4d 19bf
000000c0: 8f88 f43e 3a31 4abf e03c 933e a646 ce3e
000000d0: 6785 3cbf 3713 1d3f 6475 203f 527e c73e
000000e0: 84c4 e53e 9305 863e f3bb 053f 56d1 c03e
000000f0: e145 a53e d8ea fd3e d1ea f73d c98a 2bbf
00000100: e8cc a73e 6bc8 9f3e 6a51 023f b7c8 f9bd
00000110: 5051 8c3e e11a 4fbf 33e8 d4be ec09 b33e
00000120: c835 f23e 1646 a93e f54d e8be 0e90 d83e
00000130: 85f2 86be 045f e73e 8fe8 523f 5b31 2cbf
00000140: 6091 943e 4f50 25bf c131 bb3e cf26 203f
00000150: 90f9 03bf c3c6 153f e294 583f 0b6a cd3e
00000160: a8ee 853e 6fa1 b23e 06cf 273f 4efc 133f
00000170: 7d69 883e 243e d33d 812e a43d 26eb 2cbf
00000180: edb6 503d c367 82be bde3 15be a02c 643d
00000190: cbf7 1b3d aa23 14be d7ea 09be 4b03 18be
000001a0: a261 1cbe fd0d 5cbe f94f 20be a42e 103d
000001b0: 4330 033e 27be d53b fa88 033c 87bb 54be
000001c0: bb8b 36be b0e1 dc3c 36cf 60bd 554a 71bd
000001d0: de54 f23d 8893 5c3d d8a2 74be 5111 95bd
000001e0: fbcc 53be 02d7 6fbe bac8 4ebc a285 073d
000001f0: 8f4c 96be 73fd 56bd f169 1cbe aa0a 20bd
00000200: d0bc 373c f00e 2dbd 7b52 1abe 5065 9ebc
00000210: 52e2 b73d 61ec 223e 1967 2cbe 330e 18be
00000220: 9eb1 bf3d 9692 ce3d d294 a43d 942e ffbd
00000230: 303e e8bc 250b ffbd f010 1fbd 7616 9ebd
00000240: 1a1e 843d da60 c8bd 14c1 1cbe 3b34 1b3e
00000250: f880 23bd 760a e6bd dc22 aabd 4dbf a5bd
00000260: e213 25be 8046 1bbe 8024 08bc 185e febc
00000270: c243 853d aaa3 a33d 28ed 24be b278 e83d
00000280: bb66 853d c42e 2cbd eb23 9dbd 0cd2 69bd
00000290: 525b edbd 26b5 a5bd ba3f f73d f86e d2bc
000002a0: a17d 4fbe 52dd d7bd 90fd 71bc 66f6 1d3d
000002b0: ad50 a43d 3079 b0bd 16f2 82bd c2d1 cb3d
000002c0: e9bf 84bc 0b3e 9bbd 5b18 a03d 935a 37bd
000002d0: b015 0e3d 6d28 803d 9ffe 18be 1514 3ebe
000002e0: 8857 65be 9ba6 4abe 3f4a 81be 2989 45be
000002f0: 75ab 1a3e fb90 6dbe 4041 b1bd d08b 593d
00000300: e174 ab3d 2b1e 653e a44e a1be 4884 03be
00000310: b63d 19be 0c6b bd3d 78de 6e3e 1cb4 99be
00000320: 39ec 253e d9fb 93be 2e96 e8bc d380 aebe
00000330: 09e5 6c3e 4ef1 8cbe 6b44 0e3e 8a54 f53d
00000340: 9b8e dfbe ef7b a43e 4429 0d3e 8dd9 16bd
00000350: 30c8 e0be 648f 4bbd a6b2 27be 38f9 a5be
00000360: 6e48 103e 755a b7bc 8ea5 023e 9305 6c3e
00000370: a26e 0abe e272 1f3e 8ae0 7c3e 8adc 553f
00000380: ae11 203e 1e27 053f d94d 3e3f 6e2c eabd
00000390: e508 2d3f 0a52 a7be 22ee 80be 849e 1b3f
000003a0: d56c 433f a32f 293f 8fb7 3bbe 9cf2 2b3f
000003b0: e6ef 3abf 23f0 033f de16 073f 72bd 02bf
000003c0: 034a eb3e 53bd 2abf 66f9 233e 9a41 e73e
000003d0: 78cf 17bf 67ab 7d3e 56e9 c53e 4528 433f
000003e0: b0b3 023f 0acc b23e 7d13 813e 46b2 743e
000003f0: 4d24 063f b068 443f 2919 b13e 59e2 08bf
0.11520766 -0.07264648 0.00870724 -0.13056208 0.059854463 0.09537946 -0.014424056 -0.11242269
0.12652685 -0.1571763 -0.12479144 -0.109475575 -0.03957528 0.07382141 -0.11086406 0.1541528
-0.041253835 -0.15318078 -0.067139655 -0.15505971 0.116231546 -0.10656963 -0.07579529 -0.05777005
-0.0076158494 -0.13266423 -0.13169204 0.16022138 -0.102120735 -0.03209147 -0.14113939 -0.07484283
0.20834723 0.5979415 0.6036237 -0.19956446 0.39251167 -0.7118646 -0.41175318 0.5813669
0.34661502 0.29044265 -0.17564297 0.4761004 -0.61618805 0.43911868 0.4825397 -0.5988338
0.47760436 -0.78981364 0.2875738 0.40288275 -0.73641056 0.61357445 0.62679124 0.38963562
0.44876492 0.26176128 0.5223991 0.3765971 0.32279876 0.49593234 0.121053346 -0.67008644
0.3277352 0.31207594 0.5090548 -0.121964864 0.27405787 -0.8090039 -0.41583404 0.34968507
0.47306657 0.33061284 -0.45371976 0.42297405 -0.26356903 0.4518968 0.82386106 -0.6726281
0.29017162 -0.64575666 0.36561397 0.6255922 -0.5155268 0.5850641 0.8460218 0.40119967
0.26158643 0.3488879 0.6555027 0.5780686 0.2664298 0.10314587 0.080166824 -0.6754631
0.0509557 -0.2546979 -0.14637657 0.05570662 0.03807811 -0.1446673 -0.1346849 -0.14845006
-0.15271619 -0.21489711 -0.15655507 0.03520073 0.12811379 0.006522912 0.008028263 -0.20774661
-0.1782674 0.026963085 -0.05488511 -0.05890878 0.118325934 0.053851634 -0.23890245 -0.072786935
-0.20683663 -0.23421863 -0.012621099 0.033086427 -0.29355285 -0.0524878 -0.15274788 -0.03907267
0.01121445 -0.042250574 -0.15070526 -0.019335419 0.08978714 0.15910484 -0.16836204 -0.14849167
0.0936005 0.10086553 0.08036198 -0.12460056 -0.028349966 -0.124532975 -0.038834512 -0.07719128
0.06451054 -0.09784098 -0.15308028 0.15156643 -0.039917916 -0.11232464 -0.0830743 -0.08093128
-0.16120866 -0.15163612 -0.0083094835 -0.031050727 0.065070644 0.07990201 -0.16106093 0.11351146
0.06513735 -0.042036787 -0.076728664 -0.057085082 -0.115896836 -0.08091192 0.12072702 -0.02568768
-0.20262767 -0.105402604 -0.014769927 0.038565062 0.080232 -0.08616865 -0.063938305 0.099521175
-0.016204791 -0.07580193 0.078171454 -0.044764113 0.03468865 0.062577106 -0.1494088 -0.18562348
-0.22396672 -0.19790117 -0.25251958 -0.19290604 0.15104468 -0.23199837 -0.086550236 0.05311185
0.08371902 0.2237479 -0.3150531 -0.1284343 -0.14964947 0.09248933 0.23327053 -0.30020225
0.16203393 -0.28903082 -0.028391924 -0.3408266 0.23134245 -0.2752785 0.13893287 0.11979015
-0.43663487 0.32125804 0.13785273 -0.036828566 -0.4390273 -0.049697295 -0.16376743 -0.324167
0.1409013 -0.022382 0.12758467 0.23049001 -0.13518766 0.15571168 0.2469503 0.8353964
0.15631744 0.52012813 0.74337536 -0.114342555 0.67591697 -0.32679778 -0.2518168 0.6078875
0.7633794 0.6608831 -0.18331741 0.6716707 -0.73022306 0.51538295 0.5276927 -0.5107032
0.45954904 -0.66695136 0.16013107 0.45167238 -0.5930095 0.24772416 0.38654584 0.7623332
0.5105543 0.34921294 0.2521018 0.23896131 0.5239914 0.7672224 0.34589508 -0.5347038

bias f4 [32]
00000000: e033 ca3c aed4 d83e bf76 df3e 33ed 8cbc
00000010: ee79 eabd 3315 52be d6b7 21be 8127 bf3e
00000020: 1965 de3e ca56 213f 1a14 27be e870 4fbe
00000030: 0e64 c43e 1d3c b03d 0aa4 91bd c11c c53e
00000040: 1783 91bd 9e9c ad3e 364a 42be 0727 0a3f
00000050: 9998 debd 2ba4 5bbe 511a c93e c238 003f
00000060: 858a 173f 90ac 823e df16 0abe 9a5f 7c3b
00000070: 4340 213f bc0c 0a3f 4f16 b23d 9e22 e53e
0.024682939 0.42349762 0.43645284 -0.01720295 -0.114490375 -0.205159 -0.15792784 0.37334827
0.43436506 0.63023055 -0.16316262 -0.20257914 0.38357586 0.08605216 -0.07111366 0.384985
-0.071050815 0.33908552 -0.18973622 0.539658 -0.108689494 -0.21449344 0.3927789 0.50086606
0.5919574 0.2552228 -0.13485287 0.0038509131 0.6298868 0.5392568 0.08695661 0.44752973

weight f4 [2, 32]
00000000: 3157 06be efbb 9bbd 8ea5 c5be a947 82be
00000010: fde5 0b3e 72c2 913d daeb 0b3e f440 473e
00000020: f698 203e ca4b 433d 378f 173c 1459 b83d
00000030: 304d d03a 5a9b 41bf 6047 753d 4b3c 1dbf
00000040: 94b8 663d db93 983d 270c cabd 3a39 16be
00000050: 4ad0 9b3b 4868 27be 04e5 31be b11c aebd
00000060: 4036 4a3d b3e9 da3e 973f aa3d 017a 14be
00000070: f95d 40bb d556 073e 062c ccbd 423e 42bd
00000080: b351 33be f8d3 253e 0375 bb3d 3326 973e
00000090: 33d4 f6bd 40b7 c7bc bbfc a2bd 1c91 25be
000000a0: eb64 bfbe 464f 813c 3260 413e d07e 203d
000000b0: 75ff 10be 185f 6d3f 00a8 6239 25bb 073f
000000c0: 9de5 43be 0c54 25be 1426 0bbd 0c66 00be
000000d0: 971e 663e d691 95bd e3e4 213e 3946 c13d
000000e0: f9f6 c7bd 69ee bdbe 5b47 4bbb 5346 d1bc
000000f0: a126 ef3d 03bd 0abb d50e 573e 46a2 1bbc
-0.13119198 -0.07604205 -0.3860287 -0.25445297 0.13661952 0.071171656 0.13664189 0.19458371
0.1568335 0.0476797 0.009250454 0.09001365 0.0015892144 -0.7562767 0.05988252 -0.61420125
0.05632837 0.07450076 -0.09865599 -0.14670268 0.0047550546 -0.16348374 -0.17372519 -0.08501566
0.049368143 0.42756423 0.0831291 -0.14499666 -0.0029352887 0.13216718 -0.09969334 -0.047422655
-0.17511635 0.16194141 0.091531776 0.2952133 -0.120521925 -0.024379373 -0.07958361 -0.16168636
-0.37381682 0.01578487 0.18884352 0.039183438 -0.14159949 0.92723227 0.00021615624 0.53019935
-0.1913056 -0.16145343 -0.03397186 -0.12538928 0.22472607 -0.073032066 0.1580997 0.09437222
-0.09763903 -0.37095955 -0.0031017873 -0.025546229 0.1167729 -0.0021169789 0.21001752 -0.009499138

bias f4 [2]
00000000: 16b6 d73d c288 c33d
0.10532777 0.09547569

weight f4 [1, 32]
00000000: 082e 20be 8fc1 4d3f 7fb4 133f c8d7 24bb
00000010: bbb1 1abe b49d b93c 7221 c0be d4ed 3a3f
00000020: 64dc 233f c2cf 2b3f 1045 ef3b 94a3 7ebd
00000030: 9205 473f 1625 b13e 1c4a 26be 9bdc f03e
00000040: 8ac1 823b 7b2c 333f 2ab3 9fbd dff0 373f
00000050: 5e98 43bc 8ec3 ebbc b50a 4a3f c2f8 283f
00000060: c054 353f 2721 ce3e 6984 0dbd 5210 073d
00000070: a3ed 1e3f a923 383f ca00 20bf 7643 2f3f
-0.1564256 0.8037347 0.5769729 -0.002515303 -0.15106861 0.022658207 -0.37525517 0.73019147
0.64008164 0.6711389 0.007301934 -0.06216772 0.77742875 0.34598607 -0.16239208 0.4704331
0.003990357 0.69989747 -0.07797845 0.71851915 -0.011938183 -0.028779771 0.7892259 0.66004574
0.70832443 0.40259668 -0.034550104 0.03297455 0.62081355 0.71929413 -0.62501204 0.6846231
