data/20220509-013945/model.pth (torch, 8399 bytes, 7 tensors)

weight f4 [32, 4]
-0.90147334 -0.5091198 -1.0393012 -0.3484037 0.36611307 -0.39901713 -0.6428582 -0.0028262124
0.3489698 -0.43670818 -0.16591766 -0.28458902 -0.3009109 0.16626386 -3.1528893 -0.15551418
-0.5048485 -0.80097336 -1.803965 -0.5120251 0.002438617 -0.33226794 0.18748197 -0.020159721
0.025926258 -0.18120806 0.514932 0.2765271 -0.13282053 0.04845026 0.29881543 0.38206235
0.19867411 -0.26267415 -0.5533657 0.20493892 0.20842284 0.0033784648 -0.024677493 -0.29499537
0.13068213 -0.24815336 0.21945639 -0.29147634 -0.35941902 0.5080762 0.157909 0.14396752
-0.25218284 0.07422645 2.0078964 0.65230227 0.41503733 0.28504458 2.771314 0.22560257
-0.046501525 -0.17026423 0.3091064 -0.36487055 -0.026292764 0.12079048 -0.21071044 0.3497436
-0.09293557 -0.2256431 -0.45323217 -0.41826934 -0.21014227 -0.13249288 0.15720813 -0.49571508
-0.3927911 0.611066 0.81084234 -0.4684076 -0.0046528857 0.045287367 -0.03519035 0.07029092
-0.15722352 0.15776914 -0.38634253 0.064747036 0.13148087 -0.1546969 -0.21955296 -0.22050056
0.31220254 -0.14080726 3.7405157 0.17782453 -0.048859656 0.27801228 0.6595238 0.33532572
0.2279129 -0.23945966 -0.52541107 0.21709682 -0.12043516 -0.17444132 0.22263922 -0.49819472
-0.31472772 -0.021912038 0.021210628 -0.23485471 -0.35937208 0.46874022 0.3174604 0.32504335
0.10709039 -0.19365725 -0.2113371 0.30816737 1.1212323 0.025482474 0.045469407 -0.13062763
-0.1504795 0.24082477 0.027070377 0.4463318 0.09265784 0.122118644 0.16866092 -0.5599013
00000000: f5c6 66bf ad55 02bf d207 85bf f861 b2be
00000010: 2c73 bb3e f94b ccbe 5b92 24bf fa37 39bb
00000020: 2bac b23e 3798 dfbe 52e6 29be a7b5 91be
00000030: fe10 9abe 1341 2a3e f0c8 49c0 1c3f 1fbe
00000040: c03d 01bf 970c 4dbf 53e8 e6bf 1414 03bf
00000050: 34d1 1f3b 061f aabe 46fb 3f3e 0026 a5bc
00000060: 4e63 d43c 9b8e 39be 95d2 033f f694 8d3e
00000070: 1b02 08be c873 463d 56fe 983e ad9d c33e
00000080: 3a71 4b3e 3a7d 86be 60a9 0dbf 82db 513e
00000090: cc6c 553e 3c69 5d3b 7428 cabc a209 97be
000000a0: 89d1 053e ea1b 7ebe 2db9 603e 633c 95be
000000b0: c505 b8be 4811 023f e6b2 213e 396c 133e
000000c0: 1c1e 81be 0904 983d 6081 0040 48fd 263f
000000d0: c67f d43e 5df1 913e 355d 3140 5c04 673e
000000e0: 6278 3ebd bf59 2ebe 3243 9e3e 50d0 babe
000000f0: ec63 d7bc 0061 f73d 7ac4 57be 9811 b33e
00000100: 0155 bebd fc0e 67be 0c0e e8be 6627 d6be
00000110: 892f 57be 37ac 07be 2bfb 203e 5ece fdbe
00000120: ea1b c9be d26e 1c3f 5d93 4f3f 1fd3 efbe
00000130: 3c77 98bb 3f7f 393d c223 10bd b0f4 8f3d
00000140: 34ff 20be 3c8e 213e b0ce c5be 189a 843d
00000150: eca2 063e dd68 1ebe 7ed2 60be e6ca 61be
00000160: 03d9 9f3e c72f 10be 9c64 6f40 a217 363e
00000170: 1021 48bd a057 8e3e 8dd6 283f d0af ab3e
00000180: 0062 693e ea34 75be 5781 06bf a14e 5e3e
00000190: b6a6 f6bd bfa0 32be 89fb 633e 6113 ffbe
000001a0: fe23 a1be e080 b3bc e9c1 ad3c c17d 70be
000001b0: 9eff b7be b8fe ef3e 2b8a a23e 156c a63e
000001c0: 3552 db3d 164e 46be c168 58be 1dc8 9d3e
000001d0: 8a84 8f3f 9fc0 d03c 213e 3a3d 40c3 05be
000001e0: 4c17 1abe c59a 763e b2c2 dd3c 9a85 e43e
000001f0: 65c3 bd3d 5719 fa3d 73b5 2c3e b155 0fbf

bias f4 [32]
-0.023634113 0.73313457 0.8723178 -0.20144434 -0.105299085 0.7386822 0.67041135 0.72999597
0.60030925 1.0632179 1.075611 0.9894015 -0.51660645 -0.20903124 0.58630806 0.8555984
0.9185569 1.0155414 0.34680036 0.6735798 -0.47543406 -0.51076883 -0.20061764 0.8210011
0.7554404 0.8220575 1.0440911 0.7495256 0.9273352 -0.5641987 0.79057086 1.0671272
00000000: 549c c1bc b5ae 3b3f 3850 5f3f 6d47 4ebe
00000010: 0ca7 d7bd 471a 3d3f 14a0 2b3f 04e1 3a3f
00000020: dead 193f 8617 883f 9fad 893f 6b49 7d3f
00000030: 5240 04bf 490c 56be 4918 163f 7f08 5b3f
00000040: 8c26 6b3f 43fd 813f d18f b13e ba6f 2c3f
00000050: 186c f3be bfc1 02bf b66e 4dbe 212d 523f
00000060: 8b64 413f 5c72 523f c7a4 853f e9e0 3f3f
00000070: d765 6d3f 536f 10bf da62 4a3f a097 883f

weight f4 [32, 32]
-0.08644588 0.00992283 -0.17861076 -0.1641525 -0.08825487 0.011230917 0.20378885 0.17644235
0.001263296 0.04324123 -0.08051296 -0.020647246 0.048590407 -0.101072446 -0.03665275 -0.13959481
-0.068064466 -0.103569195 -0.07879523 -0.05672248 -0.08028875 -0.17429659 0.030485377 0.14054804
-0.121481255 -0.039240487 0.033235043 -0.15985572 0.12065324 -0.10761498 -0.048117913 -0.15934122
-0.33503053 0.5658849 0.6776561 -1.1765897 -0.73853093 0.3584924 0.13684392 0.5370108
0.20039587 0.34980932 0.4301543 0.5316827 -0.8258745 -0.43295005 0.34532097 0.51457494
0.554717 0.477496 0.10220771 0.6862437 -0.08157556 -0.22053528 -1.0041347 0.36467725
0.46491864 0.35430264 0.40578783 0.5562286 0.5134623 -0.89348197 0.59897023 0.4632437
-0.016664058 0.09297541 -0.16776004 -0.1123771 -0.20042832 -0.09356673 -0.040580675 0.0007593975
-0.18625087 -0.16230156 -0.16874139 0.029957712 0.047895618 0.10752714 -0.020310894 0.002569558
-0.09739105 -0.20261545 0.106468014 -0.07035652 -0.14871323 0.060516745 -0.192764 0.113909006
0.026474552 -0.21575542 -0.03113524 -0.115540296 -0.18830672 0.06533587 -0.12183497 0.06262908
-0.6492579 0.4820718 0.4440119 -1.1903433 -0.63075596 0.55233103 0.406214 0.6059702
0.4323242 0.39888394 0.6704055 0.573114 -0.5713168 -0.3928977 0.3679566 0.5906446
0.38221762 0.40553752 0.17544127 0.5844188 -0.059716687 0.21056765 -0.87010086 0.6173266
0.6215973 0.5171188 0.37810785 0.640111 0.5068615 -0.8765261 0.6594704 0.21021278
-0.4750614 0.6268811 0.2958015 -1.2839203 -0.82317674 0.4347865 0.21998699 0.44362283
0.45973602 0.32385185 0.43410438 0.54370964 -0.7249154 -0.43196422 0.23354468 0.61729926
0.41833106 0.3149865 0.15044355 0.7235232 -0.16921107 -0.08807235 -0.9022153 0.6437066
0.6951141 0.28694165 0.6089725 0.6952941 0.56696814 -0.96085423 0.72574127 0.21086736
0.086136386 0.080639765 -0.15747419 0.039888453 -0.14509372 -0.08284167 0.100599274 -0.13465436
0.08240433 0.044872925 -0.20331334 -0.0819993 -0.025519222 -0.17016588 0.09219616 0.057952717
-0.14400932 -0.123915955 0.098690026 0.09495543 0.05825053 -0.035179652 0.02686368 -0.07390157
0.13747303 -0.09642946 -0.1659718 -0.16794227 -0.08544719 0.07044563 0.17137803 -0.08392161
-0.006110534 -0.16683283 -0.03648446 -0.05881097 0.096181765 0.036368635 -0.102252886 -0.12197858
-0.11648894 -0.15968078 0.04257213 -0.25127947 -0.10418974 0.07258093 -0.007744551 -0.11435012
-0.26205972 -0.12578712 0.14903711 -0.21336356 0.16730477 0.022493035 -0.16878659 0.07656688
-0.099075384 -0.20543975 -0.029811466 -0.25155532 0.06398994 0.12960167 -0.10027927 -0.21247484
-0.51917756 0.5735733 0.32169604 -1.2789247 -0.9570438 0.43122128 0.32703742 0.67092437
0.15872484 0.37584564 0.5441534 0.43136698 -0.7752186 -0.50167954 0.57215786 0.65534335
0.43536663 0.46272346 0.21330404 0.64220566 -0.015752614 -0.003220371 -0.8607271 0.538026
0.38455403 0.47356343 0.4531332 0.46981493 0.6226654 -1.0021051 0.62091565 0.3598424
00000000: 8a0a b1bd 5e93 223c bde5 36be 9817 28be
00000010: f8be b4bd e101 383c 06ae 503e 4ead 343e
00000020: 2e95 a53a b71d 313d fbe3 a4bd 6a24 a9bc
00000030: bc06 473d 12ff cebd 3221 16bd f1f1 0ebe
00000040: 6265 8bbd 161c d4bd 655f a1bd d555 68bd
00000050: 6e6e a4bd ce7a 32be 78bc f93c d3eb 0f3e
00000060: 2acb f8bd a2ba 20bd 7821 083d 38b1 23be
00000070: 0c19 f73d 3e65 dcbd 4a17 45bd 582a 23be
00000080: 1f89 abbe d5dd 103f df7a 2d3f 7e9a 96bf
00000090: 5d10 3dbf 518c b73e d020 0c3e 8a79 093f
000000a0: 9334 4d3e 351a b33e 2f3d dc3e 5c1c 083f
000000b0: 836c 53bf a1ab ddbe e9cd b03e 2fbb 033f
000000c0: ef01 0e3f 5b7a f43e 4752 d13d abad 2f3f
000000d0: 1611 a7bd 00d4 61be 7c87 80bf fab6 ba3e
000000e0: d109 ee3e 2867 b53e 6cc3 cf3e ff64 0e3f
000000f0: 4472 033f 3cbb 64bf 1d56 193f 472e ed3e
00000100: 1083 88bc e469 be3d 4ac9 2bbe f725 e6bd
00000110: 153d 4dbe ea9f bfbd ec37 26bd 4e12 473a
00000120: 8cb8 3ebe 6132 26be 8bca 2cbe e069 f53c
00000130: 322e 443d 3037 dc3d 0863 a6bc 0866 283b
00000140: f574 c7bd 6d7a 4fbe e70b da3d 1417 90bd
00000150: 4848 18be 68e0 773d ed63 45be 2049 e93d
00000160: 29e1 d83c fdee 5cbe 550f ffbc 64a0 ecbd
00000170: 7ad3 40be d0ce 853d 9d84 f9bd ad43 803d
00000180: c435 26bf 1dd2 f63e 8755 e33e 2b5d 98bf
00000190: 3979 21bf 9165 0d3f 48fb cf3e dd20 1b3f
000001a0: 9959 dd3e 843a cc3e b29f 2b3f 99b7 123f
000001b0: d141 12bf e329 c9be cf64 bc3e 7c34 173f
000001c0: 07b2 c33e 9da2 cf3e e0a6 333e 789c 153f
000001d0: 7c99 74bd 0c9f 573e eebe 5ebf 1e09 1e3f
000001e0: 0021 1f3f e661 043f 5a97 c13e 51de 233f
000001f0: adc1 013f 0464 60bf 0dd3 283f 0542 573e
00000200: 3f3b f3be 487b 203f 4b73 973e 8057 a4bf
00000210: b6bb 52bf 569c de3e 4544 613e 8822 e33e
00000220: 8562 eb3e e9cf a53e ee42 de3e 8e30 0b3f
00000230: 0e94 39bf 6a2a ddbe 5626 6f3e 5307 1e3f
00000240: 7d2f d63e e945 a13e e00d 1a3e d138 393f
00000250: ab45 2dbe 475f b4bd 95f7 66bf f5c9 243f
00000260: fff2 313f 04ea 923e 9fe5 1b3f cbfe 313f
00000270: d324 113f 8bfa 75bf 2eca 393f 9ded 573e
00000280: 4668 b03d 7626 a53d ea40 21be 1362 233d
00000290: 7393 14be e5a8 a9bd fe06 ce3d d5e2 09be
000002a0: 9ac3 a83d accc 373d 5f31 50be 40ef a7bd
000002b0: b00d d1bc f73f 2ebe 57d1 bc3d d45f 6d3d
000002c0: 2e77 13be a6c7 fdbd ff1d ca3d fe77 c23d
000002d0: 1c98 6e3d 8a18 10bd 3811 dc3c b559 97bd
000002e0: bbc5 0c3e cf7c c5bd 83f4 29be 0ff9 2bbe
000002f0: f0fe aebd cc45 903d b97d 2f3e 18df abbd
00000300: e03a c8bb 3ad6 2abe bb70 15bd c6e3 70bd
00000310: f2fa c43d 47f7 143d f669 d1bd e8cf f9bd
00000320: c191 eebd 5c83 23be 1d60 2e3d b4a7 80be
00000330: 6e61 d5bd 50a5 943d 01c6 fdbb 6530 eabd
00000340: b12c 86be 57ce 00be 2f9d 183e fa7b 5abe
00000350: f151 2b3e 5043 b83c 64d6 2cbe 19cf 9c3d
00000360: 09e8 cabd cc5e 52be 2d37 f4bc dccb 80be
00000370: 280d 833d 4db6 043e 385f cdbd 0193 59be
00000380: d2e8 04bf b3d5 123f 58b5 a43e ceb3 a3bf
00000390: d300 75bf 09c9 dc3e 7371 a73e b3c1 2b3f
000003a0: c488 223e d76e c03e a34d 0b3f 22dc dc3e
000003b0: ba74 46bf 126e 00bf f078 123f 95c4 273f
000003c0: 60e8 de3e 17ea ec3e 606c 5a3e 9767 243f
000003d0: a00b 81bc dc0c 53bb 9c58 5cbf 12bc 093f
000003e0: 44e4 c43e e876 f23e 1301 e83e 958b f03e
000003f0: 0067 1f3f fb44 80bf 54f4 1e3f 433d b83e

bias f4 [32]
-0.14666535 0.5945461 -0.1192315 0.6068033 0.52771986 -0.052899715 0.020299876 0.5566908
-0.15859737 -0.20090775 -0.035175998 0.52903086 -0.14869769 0.3885706 0.36245152 0.49463868
0.5884447 -0.13858236 -0.15185457 0.2640603 -0.14097856 0.298339 0.59476066 0.055057224
-0.115891084 -0.07519384 0.61223733 0.6638428 -0.1999166 0.42796415 -0.16485217 0.32739624
00000000: 712f 16be 2c34 183f a52f f4bd 7657 1b3f
00000010: a618 073f 5fad 58bd ed4b a63c 4a83 0e3f
00000020: 5967 22be c3ba 4dbe b514 10bd 916e 073f
00000030: 3544 18be baf2 c63e 3f93 b93e 4841 fd3e
00000040: 50a4 163f 89e8 0dbe c47f 1bbe e932 873e
00000050: af5c 10be e4bf 983e 3c42 183f af83 613d
00000060: 4e58 edbd 3aff 99bd 96bb 1c3f 9af1 293f
00000070: f0b6 4cbe 1e1e db3e 02cf 28be 7ba0 a73e

weight f4 [2, 32]
0.26626253 -0.0744414 -0.15362975 -0.21023576 -0.1449463 -0.12848078 -0.20560867 -0.14984669
-0.086646214 -0.032387566 0.0144294165 0.21389697 0.029759595 -0.49269533 -0.016271977 0.4276467
0.1214118 -0.18122426 -0.083450384 -0.21389088 0.052627683 -0.07378029 -0.09023817 0.005441568
0.09455544 0.059389513 0.14200604 0.3295411 0.100200295 0.11129014 0.08962196 -0.23934151
0.06709413 -0.13121021 -0.10852538 0.012930828 0.16221619 -0.055175897 0.07130704 0.017154789
0.039564133 0.060738403 -0.017961841 -0.21672346 0.057100557 0.4914007 -0.026874285 -0.34886587
-0.26834634 0.01978561 -0.030423157 0.19148582 0.12427622 0.010156195 0.15355913 -0.051636014
-0.044376988 0.26964384 -0.33098796 -0.18581825 -0.00015238726 -0.16895126 -0.07913189 0.30858308
00000000: 9053 883e bc74 98bd 1e51 1dbe 0b48 57be
00000010: ce6c 14be 7790 03be 148b 52be 6971 19be
00000020: 9273 b1bd d3a8 04bd 5c69 6c3c cf07 5b3e
00000030: 65ca f33c 9042 fcbe cf4c 85bc 82f4 da3e
00000040: c0a6 f83d da92 39be 09e8 aabd 3606 5bbe
00000050: 2090 573d 1f1a 97bd cace b8bd 2e4f b23b
00000060: 48a6 c13d 6b42 733d 086a 113e 9cb9 a83e
00000070: d035 cd3d 16ec e33d b88b b73d f115 75be
00000080: a668 893d f85b 06be 8e42 debd d3db 533c
00000090: 001c 263e 1f00 62bd 6d09 923d 3388 8c3c
000000a0: 000e 223d d5c8 783d b624 93bc c1ec 5dbe
000000b0: 46e2 693d df98 fb3e 7627 dcbc 8c9e b2be
000000c0: b164 89be 6e15 a23c fc39 f9bc dc14 443e
000000d0: 8884 fe3d 2b66 263c 9b3e 1d3e 4980 53bd
000000e0: a5c4 35bd c20e 8a3e 4177 a9be 2447 3ebe
000000f0: 25ca 1fb9 8f01 2dbe e60f a2bd 9afe 9d3e

bias f4 [2]
0.16050284 -0.07736881
00000000: db5a 243e 8a73 9ebd

weight f4 [1, 32]
-0.04864343 0.65388566 -0.1038369 0.6270662 0.6409288 -0.049012765 0.007812843 0.6908346
-0.15539272 -0.08618149 -0.023226352 0.71351475 0.010487802 0.5738381 0.7504928 0.66764355
0.62804574 -0.08940263 -0.0044964454 0.70498073 -0.07396942 0.627838 0.6206511 -0.045939382
-0.02412814 -0.07902344 0.701672 0.6245793 -0.043347623 0.70621115 0.03151869 0.6431896
00000000: 553e 47bd 0d65 273f 71a8 d4bd 6987 203f
00000010: e913 243f 9cc1 48bd 7001 003c 89da 303f
00000020: 451f 1fbe ec7f b0bd 3145 bebc e7a8 363f
00000030: 08d5 2b3c 0ee7 123f 4c20 403f b0ea 2a3f
00000040: 9bc7 203f ba18 b7bd eb56 93bb 9e79 343f
00000050: 477d 97bd feb9 203f fee2 1e3f ef2a 3cbd
00000060: 61a8 c5bc 0bd7 a1bd c7a0 333f 6ee4 1f3f
00000070: 478d 31bd 41ca 343f be19 013d 13a8 243f
