data/PPO_runs/20220509-030346/model.pth (torch, 8399 bytes, 7 tensors)

weight f4 [32, 4]
00000000: 58d0 843e bad8 8cbf 495a 1dc0 d216 78bf
00000010: df6b bfbd c6ed fabe 4b8e 493e 4b34 203f
00000020: 8a94 cc3d bd2c 73be 46bb c2bd 1de1 b8be
00000030: d605 0abe b7e6 76be 63c7 ddbe 9447 2c3e
00000040: a9c0 8dbd c659 873e 8803 3a3e 23d1 d93d
00000050: ba90 99bc f9b4 9ebe e185 3fbe 299f 90be
00000060: 5858 963e 87bf 5dbf 6025 bdbe bade 653e
00000070: 4243 a2bd c029 83be 1a7d c33d 350c d5be
00000080: 67f2 a7be f4b5 1b3f cfab 023f 82f2 86be
00000090: 80b0 edbe 46c3 263f 2425 1c40 69a6 543f
000000a0: b6d2 87bd 2311 2dbe 0847 613d cb1f d4be
000000b0: dba8 0ebf 7a2a 083f 34fb ab3e 9f02 3abe
000000c0: 84e4 273d 700b 8dbc 8545 ac3e 3f88 52be
000000d0: 1bee a33c 55cb 7dbd 5905 673d e111 7b3e
000000e0: b88d a53e a02e 0dbf 9567 7ebd 051d 3dbe
000000f0: 4058 a83e e65a c0be 36ef 07be 1df2 593e
00000100: f1a2 12be 2d69 82be ab2a 0ebe fb91 df3d
00000110: 22cd 443d 042d 46be f71e a73e 0450 56be
00000120: 3bb6 4f3e e7ee c8bd 5df5 32c0 8d20 7dbf
00000130: 520f f0bc e7b7 3cbf 3196 07c0 9248 4bbf
00000140: e722 79be 48df a4ba bd90 f4be c768 673e
00000150: eb4e a2be dfa0 e1be 039f 48bf 18a9 1ebe
00000160: 65d5 a8bf 9789 c43e 0c5d e53f 0e1a 393f
00000170: 4bd5 223e 20ca 3fbe 09f0 e7be c347 8d3e
00000180: efbe dfbd 9837 39be efc0 6dbe fe8c 58be
00000190: 56ab 79bf 09c6 f03e bffa 8a3f 29c9 fc3e
000001a0: 6c2c 083d 8dbe 93be 9162 61be 0e9d 1a3e
000001b0: dafa 053f cf15 45be 9d2e e63e 7a4c aebe
000001c0: abd5 533e 5573 a8be ad41 fa3b 2601 a1be
000001d0: ef2d a2be 4341 6c3d dba3 433e 5a03 53be
000001e0: aaac 553e 766b 053e c8d8 1cbe 28d4 3dbd
000001f0: e0b2 f1bc 64b2 5e3c 3753 813e 0468 c1be
0.25940204 -1.100364 -2.4586356 -0.9690982 -0.09346747 -0.49009532 0.19683187 0.6257979
0.09989269 -0.23747535 -0.09508376 -0.36109248 -0.13478789 -0.24111448 -0.43316182 0.1682418
-0.06921513 0.2643568 0.1816541 0.10635593 -0.018745769 -0.30997446 -0.18703414 -0.2824643
0.29364276 -0.8662037 -0.36942577 0.22448245 -0.07922985 -0.2561779 0.095453456 -0.41610876
-0.32802126 0.60824513 0.5104341 -0.26356894 -0.4642372 0.65141714 2.439767 0.8306642
-0.06631987 -0.16901068 0.05499938 -0.41430506 -0.55726403 0.53189814 0.3359009 -0.18165062
0.040989414 -0.017217368 0.3364679 -0.20559786 0.020010998 -0.06196149 0.056401584 0.24518539
0.32334685 -0.5514927 -0.062110502 -0.18468101 0.3287983 -0.3756935 -0.13274845 0.21283765
-0.1431997 -0.25470868 -0.13883464 0.109165154 0.048047192 -0.1935311 0.32640812 -0.20928961
0.20284359 -0.09811192 -2.7962258 -0.98877794 -0.02930418 -0.7371811 -2.118542 -0.7940761
-0.2432972 -0.001257875 -0.47766677 0.22598563 -0.31700835 -0.44068047 -0.7836763 -0.15494192
-1.3190123 0.38386223 1.7919021 0.7230538 0.15901677 -0.18729448 -0.4530032 0.27593812
-0.109250896 -0.18087614 -0.2321813 -0.21147534 -0.9752706 0.4702609 1.0857772 0.49372223
0.03324549 -0.28856316 -0.22010256 0.15098974 0.52335894 -0.192466 0.44957438 -0.34042722
0.20686977 -0.3290049 0.0076372237 -0.3144619 -0.3167567 0.057679426 0.19105475 -0.20606747
0.20866647 0.13029274 -0.1531707 -0.046344906 -0.02950424 0.013592336 0.252588 -0.3777467

bias f4 [32]
00000000: 824c 57be 0884 753e aabe 5d3f 6d52 583f
00000010: b02d 3c3f 7072 323f 7fae ac3e 624b 583f
00000020: f9d3 05be 685e 99bd 5ccc 3d3f 0eec 0e3f
00000030: 2e99 6a3f b674 393f 3959 0b3f d7f7 1b3f
00000040: 85b2 653f 0d4c e8be c2d6 92be 8a9f a3be
00000050: 24bd 483f 84f1 23bf f87a 99b9 7810 053f
00000060: 1dd1 353f 69c1 793c 29ae 5a3f 9a38 8fbe
00000070: 3b5d 06bf 0634 1c3f 39b9 7e3f 689a 1b3f
-0.21025279 0.23976147 0.86619055 0.8450077 0.73507214 0.6970587 0.3372688 0.84490025
-0.13069142 -0.0748871 0.7413995 0.5582894 0.91639984 0.7244371 0.5443302 0.6092505
0.89725524 -0.45370522 -0.28679472 -0.31957656 0.78413606 -0.640404 -0.00029274053 0.51978254
0.71022207 0.0152438665 0.85422 -0.2797287 -0.5248601 0.6101688 0.9950138 0.6078248

weight f4 [32, 32]
00000000: 225e a5bf ad26 643e 82dd 003f 9c8e b03e
00000010: 496b 283f cf86 fb3e 2042 9d3e 989e 1c3f
00000020: 4975 6b3d ed3a a1bf bc1b 0d3f 4ace 2d3f
00000030: 4e8a 3a3f c5d8 833e 1d63 a73e 84d6 a83e
00000040: 753c 273f 1865 5d3b de70 46bf 0ecf b9bf
00000050: b580 e33e 81a9 dbbe 96bc 89bf 3318 a53e
00000060: ddb9 0b3f af45 64bf f882 0e3f ed50 5c3e
00000070: 3ac6 e53d 14a3 fd3e 3b0f e83e 8c49 153e
00000080: 0f9d b8bf ab6a a2bd c56b 283f 9cf3 ec3e
00000090: c1c5 1c3f 66f8 fd3e 54fd e73e 5b07 2f3f
000000a0: 242a dd3d 1e44 8abf 6494 c83e 87f9 ef3e
000000b0: a8d3 1d3f de60 913e d418 d03e be58 973e
000000c0: 6dfc 2d3f a551 48be 4ec6 19bf 783b bcbf
000000d0: 28f3 073f 482e 02bf ff75 8dbf 738a 763e
000000e0: 17cf 253f 7ad4 5dbf 9b9c fe3e 0b3e 03be
000000f0: 1e3c b53d 7494 e83e a663 303f 5653 843e
00000100: 0a88 eebd 861b 10be d98a 8ebd d19d 663b
00000110: 2591 903b 243d ce3d a995 51be a142 28bc
00000120: 5c43 383d bfee fcbd 35cc 41be ec72 72be
00000130: 0e68 5ebe 6b6f 72be df11 9a3d 9652 4ebc
00000140: 395f 663d 7963 1e3e ff33 16be d65c e13d
00000150: 4724 43bd dc4f 703d d55e 57be 818a 6b3d
00000160: e0e2 5dbd d054 f7bd f68a b03a f76f e9bd
00000170: 9c2f 12bd 1cd7 15bc 70cd 543c 4232 dfbd
00000180: 0b3f 6dbf 7366 5cbe 835b 553f 2205 953e
00000190: 9234 c13e c0e6 373f 9818 ee3e 0196 163f
000001a0: 4ae4 4a3e 8182 b2bf 44fe 2e3f 066e 383f
000001b0: bb62 263f c2ef 2c3e 0ca3 163f 792a ec3d
000001c0: 5e21 d43e 2163 ce3d 860f 23bf fc11 8ebf
000001d0: 5b0e a13e b29f 05bf 5ea3 a5bf 3033 3f3d
000001e0: ddc4 1a3f 112f 8fbf 19fa e73e 6816 9b3c
000001f0: 390f 143e 3718 d53e 2185 083f 4fa6 973e
00000200: fa69 873c 6941 dc3c 017a 7bbe ff1e 3cbe
00000210: 06f0 d93d 5869 043d 1077 543d e409 26bd
00000220: d1fc 063e 4768 bebd 8a30 56be 4994 39be
00000230: 93b3 70bd b617 3fbd 053a 5dbe fb50 81be
00000240: ef87 403d 5c1a 13be 1680 8bbd 2467 9f3b
00000250: f082 41be 5cb0 2d3e 1fbf e8bc d1f5 74be
00000260: 6642 a13c f586 053e c370 21bd 42fe 28be
00000270: fb14 8dbd d78e 80be e370 1d3b a9b1 05bd
00000280: b3d2 223e fdcd a4bd fad4 18be d3e5 b5bc
00000290: 1b45 8c3d 5563 0bbe c716 1c3e 3029 6ebe
000002a0: 5e37 acbd 45ff 4abd d394 debd 8e55 80bd
000002b0: c1fe b6bd e787 15be 5153 013d cded 14bd
000002c0: f22c c23d 7a2a 9f3d 17a9 32be bceb 16bd
000002d0: 7d17 58bd 4bc2 2f3e 5e20 83bd d085 96bc
000002e0: 3e52 ecbd e0bd 76bc 3bd8 f6bc 1b06 cbbd
000002f0: 1276 73bd 08cc a2bc 4d45 3c3d c914 1dbe
00000300: f21e 03be 76e9 edbd cd20 60be 5f6a 1abe
00000310: e826 943d ac8a f93c a601 e3bd c4fb 8a3d
00000320: 5c84 5ebd d3f7 22be 1eff 9a3d 6813 5ebe
00000330: 2e9c 82bd 2a9f a4bd 5eba a33d db59 283e
00000340: 971c c03d ae0e 783d 358c 913d c411 4bbe
00000350: ff20 0f3d 39fb d2bd 5fef 113e a089 efbd
00000360: f39d 1abd 88a5 683d 2462 40be e424 03bd
00000370: 0942 07be 6c9a 27be 325f 42bd 065b 23be
00000380: b00d 873c 910f abbd 25fa b8bd bcb9 b93d
00000390: dcb5 db3d 61be dfbd 22a3 5bbe d625 ce3d
000003a0: 9a4c b53d 1b03 99ba 8022 81bd 1449 983d
000003b0: 6732 96b9 553a 33be da7f f6bd 2687 9e3d
000003c0: b88a 12bd e088 74bc 325b ad3d 28e0 8cbd
000003d0: 99a7 a4bc 0795 debd f8e2 c5bd 7760 e1bd
000003e0: 84d8 f4bd 0088 42ba f5e8 00be 6472 33be
000003f0: ff70 e7bd 68d8 2cbd 04ea 04be df54 10be
-1.2919352 0.22280379 0.50337994 0.34483802 0.65788704 0.49126288 0.30714512 0.61179495
0.0574849 -1.2596108 0.55120444 0.678929 0.72867286 0.2575132 0.32692805 0.32976162
0.65326625 0.003378218 -0.7751597 -1.4516313 0.44434133 -0.4290276 -1.0760677 0.32245025
0.5458048 -0.8916883 0.5566859 0.21515246 0.11219449 0.4953848 0.4532412 0.14578837
-1.442293 -0.079305016 0.65789443 0.4627961 0.6123925 0.49603575 0.45310462 0.683706
0.10799053 -1.0802038 0.39175713 0.46870062 0.61651087 0.28394216 0.40643942 0.29559892
0.67963296 -0.19562395 -0.60068214 -1.4705648 0.531054 -0.5085187 -1.1051635 0.24076252
0.6476912 -0.8665234 0.49728855 -0.12816636 0.08849357 0.4542576 0.6890205 0.2584483
-0.11647041 -0.14073 -0.06960077 0.003518928 0.004411834 0.100702554 -0.20467247 -0.010269792
0.044986114 -0.12350225 -0.18925555 -0.23676652 -0.21719381 -0.23675315 0.0752294 -0.012592932
0.056243155 0.15467633 -0.14668272 0.11004035 -0.04764202 0.05866991 -0.2103227 0.057505134
-0.054171443 -0.120767236 0.0013469148 -0.11398309 -0.035689935 -0.009145524 0.012988433 -0.10898258
-0.9267432 -0.21523456 0.8334276 0.2910548 0.3773542 0.7183647 0.4650314 0.5882264
0.19813648 -1.3946077 0.6835673 0.7204288 0.649944 0.16888335 0.5884254 0.115315385
0.41431707 0.10077501 -0.6369556 -1.1099238 0.31456265 -0.521968 -1.2940481 0.046679676
0.6045664 -1.1186239 0.45307997 0.018931583 0.14458932 0.41620037 0.5332814 0.2961907
0.016530026 0.026886659 -0.2455826 -0.18371199 0.10641484 0.032327026 0.05187136 -0.040536776
0.1318238 -0.09297233 -0.20916954 -0.18122973 -0.058765005 -0.046653472 -0.21604164 -0.25257096
0.047004636 -0.14365524 -0.0681154 0.0048645902 -0.18897605 0.16961807 -0.028411446 -0.23921897
0.019684982 0.13039763 -0.03941418 -0.16503242 -0.06888767 -0.25108978 0.0024023585 -0.032640133
0.15900688 -0.08047102 -0.14924994 -0.022204315 0.06849118 -0.13612111 0.15243064 -0.232579
-0.08408998 -0.04955985 -0.1086823 -0.06266318 -0.08935309 -0.14602624 0.031573597 -0.036359597
0.09481229 0.07771774 -0.17447315 -0.036845908 -0.052756775 0.1716396 -0.06402658 -0.018374354
-0.11539124 -0.015059918 -0.030132404 -0.09913274 -0.059438772 -0.01987268 0.045964528 -0.1533996
-0.12804773 -0.11616795 -0.21887513 -0.1507964 0.07233983 0.030461632 -0.11084299 0.06786302
-0.054325446 -0.1591485 0.07568191 -0.2168709 -0.06377445 -0.08038171 0.07994531 0.16440527
0.09380453 0.060560875 0.071068205 -0.19830996 0.034943577 -0.10301823 0.14251469 -0.11696172
-0.03774829 0.056798488 -0.18787438 -0.032017604 -0.13208784 -0.16367501 -0.047454067 -0.15952691
0.016486019 -0.083525784 -0.09032086 0.09068629 0.10728046 -0.10924984 -0.21448949 0.100658104
0.08852501 -0.0011673899 -0.063054085 0.074358135 -0.00028647782 -0.1750272 -0.120361045 0.07740621
-0.035776824 -0.014925212 0.0846466 -0.06878692 -0.020099448 -0.108682685 -0.096624315 -0.11004727
-0.119553596 -0.0007420778 -0.12588866 -0.17524105 -0.11300849 -0.04219857 -0.12979895 -0.14094876

bias f4 [32]
00000000: d1e4 293f 837b b53e 012e 5fbe 0299 0b3f
00000010: 019b 65be 8ebf 26be a7bd 26be c6ff 39be
00000020: d787 d13e 9fb2 4dbe a13d cdbc 2871 bcbd
00000030: 7c50 0f3f b746 0b3d fc3f 4cbe 6962 56be
00000040: 10a1 d7bd 0e3c 163f afcf 26bd a736 f2bc
00000050: 9e00 183f 83ac 3ebe ac51 0b3f a260 6cbc
00000060: 4dc2 073f 96e3 c5bc d0f4 c83e 0a5f 5d3c
00000070: b076 27bd b22b b1bd 35d9 e23e 3489 4ebe
0.6636477 0.35445794 -0.21794893 0.54530346 -0.2242241 -0.1628401 -0.16283284 -0.18163976
0.4092395 -0.2008767 -0.025053801 -0.0920127 0.55982184 0.034002986 -0.19946283 -0.20935978
-0.10528767 0.58685386 -0.040725406 -0.029567076 0.5937594 -0.18620495 0.54421496 -0.014427336
0.53030854 -0.024156373 0.39249277 0.013511429 -0.040884674 -0.08650912 0.4430634 -0.20169526

weight f4 [2, 32]
00000000: e07c 5438 da77 303c 6d24 ebbd b8c9 333e
00000010: e4a1 573c 8881 80be db17 05bd ca54 493d
00000020: 1067 5f3c c5ef a83d b9a3 5b3a 60cb 623c
00000030: a527 8d3e 8fc5 573e e4bd 77bb 62cb 013e
00000040: 7e39 0e3e e828 b43e 812d 0f3e 4645 ee3c
00000050: c23c 29bd c797 163e e232 98be 630b 08be
00000060: 3ed1 523c b0f0 9dbd 3c75 c3be 96f9 a2bd
00000070: 3a4b db3d ec4d 7c3e ff22 853d f305 e43d
00000080: 4d8a 013e a0d0 c33d 7fd1 fa3c 832f aebe
00000090: c17d 4e3e c003 853e 0616 54be 4bac d5bd
000000a0: e2c0 0dbd af21 f1ba baa4 a53b 8c8f 913d
000000b0: d1fe 5abe 6c16 48be c7f2 9c3c 7af5 28bc
000000c0: 6a49 a73b 0341 90be a2cc 0bbe d2cc 36bd
000000d0: a3cc 7f3d ece5 a83d 8963 843e ef46 5c3e
000000e0: 682e 723e b124 d4bd ef5a 9b3e 69e6 a53d
000000f0: 0016 70bc bdf7 0dbe f864 ac3d a615 f2bd
5.0661038e-05 0.010770762 -0.11481557 0.17557418 0.013161156 -0.25098825 -0.032493453 0.049153127
0.013635412 0.082488574 0.00083785836 0.013842434 0.2756931 0.21071456 -0.0037802393 0.1267524
0.13889119 0.3518746 0.13982202 0.029085767 -0.04131771 0.14706336 -0.2972632 -0.13285594
0.01286727 -0.07711923 -0.3817538 -0.07957761 0.10707708 0.246391 0.065008156 0.11133947
0.12650414 0.095612764 0.030617474 -0.34020624 0.20165159 0.25979424 -0.20711526 -0.10433253
-0.034607776 -0.0018396879 0.0050550373 0.071074575 -0.21386267 -0.19539803 0.019158734 -0.010312432
0.005105187 -0.281746 -0.1365228 -0.044628926 0.062451016 0.08246979 0.2585719 0.21511434
0.23650515 -0.10358561 0.30342814 0.08100588 -0.014653683 -0.13864036 0.08417696 -0.11820535

bias f4 [2]
00000000: c30b 123e 3a9e b43d
0.14262299 0.08819242

weight f4 [1, 32]
00000000: 8600 413f 0d1c 483f 6a16 27bd e9e4 673f
00000010: d2a4 06be 9664 3a3b 505c 7abc b183 843c
00000020: cff4 563f 78cd 7c3b 77f4 57bd 0058 413d
00000030: 9f01 363f 7b5c 3abd 3137 61bd cd9e bc3c
00000040: 6d11 a7bd d14c 373f 9d9a 86bd dec9 113c
00000050: 5137 513f 9754 84bc 108d 4e3f b202 7dbc
00000060: 911d 543f 7c3b c7bc c684 483f 51b1 a8bc
00000070: 10b5 9b3c 0e37 153b 7611 5e3f de89 bd3c
0.75391424 0.781678 -0.04079286 0.90583664 -0.13148811 0.0028441302 -0.015280798 0.016176077
0.839673 0.0038574617 -0.052723374 0.047203064 0.71096224 -0.045498352 -0.054984275 0.02302494
-0.081576206 0.7160159 -0.06572459 0.008898227 0.8172503 -0.016153617 0.80683994 -0.015442537
0.82857615 -0.024320357 0.78327596 -0.020592364 0.019007236 0.002276841 0.86745393 0.02313703
