data/PPO_runs/20220509-030625/model.pth (torch, 8399 bytes, 7 tensors)

weight f4 [32, 4]
0.14851843 0.8626877 1.8733597 0.90842116 -0.3886124 0.76700544 2.1425614 0.7593846
-0.6422045 0.54827046 0.6263649 -0.060003452 0.6315298 -0.297473 -1.618318 -0.92804193
-0.10505927 0.020903768 0.13274394 0.3619316 0.09592034 0.14074458 0.0046781846 0.028789492
0.23759437 -0.435785 -0.52553296 -0.39539766 0.08690262 -0.2084164 0.024633456 -0.15292384
-0.3074612 0.38115036 0.2679134 0.40235832 -0.24672292 -0.51193315 -0.553619 0.30374518
-0.25728726 0.09366818 0.96012855 -0.27564162 -0.37810123 -0.527338 -0.13950817 -0.07867958
0.33184353 0.23714754 -0.410184 0.31276858 -1.3257849 -0.7492522 -1.9451253 -0.57209784
1.9067087 -0.6227265 -0.93210274 -0.4360568 0.2658936 -0.5649023 -0.9147903 0.37197587
-0.021900542 -0.19779623 0.56855226 -0.20896298 0.013200505 0.012742419 0.23813954 0.4288681
-0.18836918 0.03471319 0.12882906 0.2742556 -0.26321042 0.017304704 0.522802 -0.28531843
0.074516445 -0.1757643 0.26871157 0.028637603 -0.038948257 1.1056019 2.319981 0.9730547
-0.16718814 0.14758989 0.21331125 -0.06444133 1.2916965 0.8428081 1.4707654 0.5770669
0.262163 0.120265596 0.106185354 0.17189601 0.47605324 0.938239 2.168306 0.6446517
0.09666415 -0.06601669 -0.07214856 0.038131505 -0.04074311 -0.17354451 0.28114706 -0.1907318
0.044473562 0.31714445 0.4559551 -0.06725481 -0.3753744 0.49023157 0.7331528 -0.16323788
1.4800224 -0.37924606 -1.2840321 -0.44688317 0.25844538 0.2828049 -0.60899514 0.46797845
00000000: 3715 183e 1ad9 5c3f 40ca ef3f 4a8e 683f
00000010: 34f8 c6be 785a 443f ba1f 0940 0767 423f
00000020: 8467 24bf 745b 0c3f 7359 203f 2ec6 75bd
00000030: f0ab 213f 624e 98be 0b25 cfbf 2894 6dbf
00000040: 5129 d7bd 613e ab3c 07ee 073e 194f b93e
00000050: e271 c43d 591f 103e 754b 993b f1d7 eb3c
00000060: f04b 733e 361f dfbe 5489 06bf 9071 cabe
00000070: 00fa b13d 1c6b 55be 1acc c93c 1198 1cbe
00000080: 8e6b 9dbe 2426 c33e f22b 893e e901 ce3e
00000090: efa4 7cbe 0d0e 03bf fab9 0dbf 7d84 9b3e
000000a0: 28bb 83be 1ad5 bf3d fcca 753f e620 8dbe
000000b0: 7c96 c1be a0ff 06bf 3bdb 0ebe c222 a1bd
000000c0: 65e7 a93e ced6 723e a303 d2be 3423 a03e
000000d0: 52b3 a9bf fece 3fbf def9 f8bf 0175 12bf
000000e0: 080f f43f 016b 1fbf 499e 6ebf d642 dfbe
000000f0: 3523 883e 709d 10bf b22f 6abf 9f73 be3e
00000100: c468 b3bc 188b 4abe a48c 113f 64fa 55be
00000110: ee46 583c 94c5 503c dada 733e 9994 db3e
00000120: dae3 40be 6b2f 0e3d c4eb 033e 3b6b 8c3e
00000130: 84c3 86be 98c2 8d3c 5ad6 053f 4215 92be
00000140: 149c 983d 8ffb 33be 9094 893e 6899 ea3c
00000150: 3588 1fbd 5d84 8d3f 927a 1440 1d1a 793f
00000160: 5e33 2bbe ce21 173e 446e 5a3e d1f9 83bd
00000170: 5056 a53f 46c2 573f 0a42 bc3f a8ba 133f
00000180: 3b3a 863e cf4d f63d b577 d93d 8205 303e
00000190: 40bd f33e 6e30 703f 87c5 0a40 e507 253f
000001a0: dbf7 c53d c233 87bd a0c2 93bd c82f 1c3d
000001b0: 3fe2 26bd a7b5 31be 82f2 8f3e 324f 43be
000001c0: e929 363d c260 a23e f272 e93e e4bc 89bd
000001d0: 1331 c0be a2ff fa3e e7af 3b3f d527 27be
000001e0: 6071 bd3f 8a2c c2be 2a5b a4bf dfcd e4be
000001f0: f452 843e cecb 903e 1be7 1bbf df9a ef3e

bias f4 [32]
0.115146846 0.3439389 0.6800536 -0.18622248 1.1130226 0.71949065 1.0725338 0.898021
0.89784795 0.5160927 0.48325294 0.6472695 1.1792625 -0.009210117 -0.24403837 0.30902237
1.0930243 0.56020975 1.0150164 0.9342889 0.7965862 -0.26687673 0.8304013 -0.1720361
0.96662736 -0.09949587 -0.39592126 -0.4389325 1.0509001 0.6488203 -0.12434535 0.89891857
00000000: 1cd2 eb3d c218 b03e fe17 2e3f 1bb1 3ebe
00000010: 8677 8e3f 8a30 383f ca48 893f b4e4 653f
00000020: 5dd9 653f a71e 043f ee6c f73e 74b3 253f
00000030: 13f2 963f 08e6 16bc 32e5 79be 2e38 9e3e
00000040: 38e8 8b3f e869 0f3f 0fec 813f 8f2d 6f3f
00000050: 13ed 4b3f 11a4 88be 2e95 543f 3b2a 30be
00000060: e474 773f 7ec4 cbbd 31b6 cabe c3bb e0be
00000070: e583 863f 1619 263f c6a8 febd 871f 663f

weight f4 [32, 32]
-0.11654868 0.078161106 -0.19233996 0.034890145 -0.12322555 -0.11515406 0.073991545 0.007550108
0.08565195 -0.09308812 -0.04362009 0.0019847397 -0.06581431 0.07883231 0.14479406 0.17477845
-0.1203748 -0.056809843 -0.12795296 0.0032470108 0.054270487 0.04798752 -0.12957796 -0.10562352
-0.1975487 0.12727223 0.057726413 -0.040725127 0.093601845 -0.21403961 -0.1625678 0.0682129
0.03573446 -0.16111316 -0.015276879 -0.017059594 -0.18352258 0.015493587 -0.19943644 0.036170695
0.066006765 -0.1784469 -0.10887192 -0.037193954 0.059436705 0.05208984 0.17024256 0.16143544
0.1048424 -0.03345318 -0.0032105213 -0.093082644 -0.07689666 -0.0697232 -0.11306834 -0.07731877
-0.028795494 -0.07604895 -0.04142496 0.17446731 -0.105015874 -0.072543725 -0.16588266 -0.11165656
-0.19676313 -0.45978242 0.3488708 -0.6921918 0.8541687 0.23524888 0.6311493 0.6781662
0.7126026 0.46508312 0.33692762 0.45666453 0.8030299 -1.0948755 -1.3029145 0.33292633
0.6136531 0.25131977 0.61379343 0.67651176 0.750934 -1.1180944 0.71015334 -0.6061224
0.63985866 -0.7134749 -0.06509421 -0.024939483 0.67427206 0.43292415 -0.85614 0.5533025
-0.14068335 -0.018822178 -0.22334573 0.09218898 -0.12531182 -0.14052239 -0.20132834 -0.038334012
0.039526038 0.1514078 0.0617935 -0.15575722 0.054272085 -0.16214474 0.048072517 -0.13474166
-0.23027156 0.13672967 0.096983954 -0.09096728 0.16871841 -0.017638728 -0.055232145 -0.05229976
-0.141642 -0.06848684 -0.027197525 0.12871535 0.019445831 0.1085078 -0.12789586 -0.065539524
0.07949203 -0.17475177 0.20150201 1.1868504 0.44154993 0.55341303 0.5332483 0.5247812
0.30367658 -0.24926168 0.30325052 0.17841092 0.6611049 -1.0254587 0.70135826 -0.041785475
0.374723 0.115731284 0.54566187 0.49396998 0.4258484 0.09364661 0.3628558 0.030430667
0.74030197 -0.20893112 -0.1404401 0.101071134 0.5860729 0.2716908 0.9597519 0.6707476
-0.090536825 -0.036388382 -0.16695033 -0.17345333 -0.06432128 0.01245366 -0.03234332 -0.096133485
-0.023335734 0.047936328 -0.15233219 -0.23927194 -0.016434148 -0.16623189 -0.1288695 0.018459043
-0.040733386 -0.11983002 0.03373529 -0.079791896 -0.19585818 0.107193336 0.042522963 0.0744053
-0.034790486 -0.05912018 0.09395209 -0.021283086 -0.23889863 -0.08453949 -0.098183505 -0.1626934
-0.23961128 0.03132236 -0.19673839 -0.014949932 -0.07757779 -0.079459116 -0.056349006 -0.06519944
-0.0045331814 -0.20554471 -0.22859383 -0.124377765 -0.06701151 0.061350033 -0.019210923 -0.15103705
-0.014233169 -0.10297046 0.03719846 -0.040638376 -0.31727764 -0.040522255 -0.02562468 -0.021982862
-0.28694978 0.014331053 -0.12124662 -0.0034620464 0.012748139 -0.20518853 -0.06878656 -0.007863657
-0.7830738 -1.7289734 -0.1550733 2.505874 0.13803327 0.2863194 0.8289227 0.7348716
0.04217931 0.18897952 0.14868546 0.32622197 0.43144906 0.15330054 1.3058892 0.15030858
0.3216932 -0.108992934 0.11567862 0.33352616 0.57291484 -0.5987283 0.24564236 -0.50711495
0.2900113 -0.7797323 -0.12073095 -0.075127475 0.291409 -0.08304876 1.7480161 0.24154459
00000000: 13b1 eebd ee12 a03d c4f4 44be f8e8 0e3d
00000010: ad5d fcbd e4d5 ebbd e188 973d e566 f73b
00000020: 4a6a af3d fca4 bebd fbaa 32bd 6812 023b
00000030: a7c9 86bd d672 a13d e544 143e 1ff9 323e
00000040: 1087 f6bd 70b1 68bd 1a06 03be cdcb 543b
00000050: bb4a 5e3d 908e 443d 16b0 04be 2551 d8bd
00000060: 354a 4abe a753 023e 8872 6c3d 64cf 26bd
00000070: 53b2 bf3d 332d 5bbe 2c78 26be 34b3 8b3d
00000080: 4c5e 123d d9fa 24be e04b 7abc 90c0 8bbc
00000090: 58ed 3bbe d0d8 7d3c 1139 4cbe b927 143d
000000a0: 8e2e 873d c9ba 36be 3ef8 debd b058 18bd
000000b0: e773 733d 285c 553d 1154 2e3e 554f 253e
000000c0: 9db7 d63d 3406 09bd 9c67 52bb 1da2 bebd
000000d0: ff7b 9dbd 09cb 8ebd 6090 e7bd 4e59 9ebd
000000e0: 87e4 ebbc 8dbf 9bbd 38ad 29bd 8fa7 323e
000000f0: 9012 d7bd ce91 94bd 25dd 29be 32ac e4bd
00000100: 467c 49be 9a68 ebbe 329f b23e 7b33 31bf
00000110: cdaa 5a3f 15e5 703e 0093 213f 4d9c 2d3f
00000120: 206d 363f 601f ee3e c781 ac3e efcf e93e
00000130: 5e93 4d3f e124 8cbf e7c5 a6bf 5275 aa3e
00000140: 5f18 1d3f fcac 803e 9121 1d3f e02f 2d3f
00000150: 363d 403f b81d 8fbf 9ccc 353f d62a 1bbf
00000160: c7cd 233f 4ba6 36bf 1d50 85bd e34d ccbc
00000170: 189d 2c3f 3ca8 dd3e fe2b 5bbf 3ca5 0d3f
00000180: 4c0f 10be f830 9abc beb4 64be 93cd bc3d
00000190: be51 00be 1ae5 0fbe 0429 4ebe 2004 1dbd
000001a0: 0ee6 213d a50a 1b3e 2e1b 7d3d d27e 1fbe
000001b0: 684c 5e3d 4509 26be b0e7 443d b8f9 09be
000001c0: 4fcc 6bbe dd02 0c3e 869f c63d 0e4d babd
000001d0: 85c4 2c3e 187f 90bc 1a3b 62bd 4638 56bd
000001e0: 9a0a 11be d442 8cbd 58cd debc f5cd 033e
000001f0: dd4c 9f3c 5639 de3d 22f7 02be 9639 86bd
00000200: b8cc a23d 21f2 32be 8b56 4e3e b7ea 973f
00000210: d512 e23e 7aac 0d3f f682 083f 1058 063f
00000220: 7f7b 9b3e 743e 7fbe a743 9b3e 5ab1 363e
00000230: 2c3e 293f 3b42 83bf 378c 333f 3f27 2bbd
00000240: b1db bf3e 8604 ed3d 7fb0 0b3f a2e9 fc3e
00000250: cd08 da3e cbc9 bf3d 3cc8 b93e bc49 f93c
00000260: 6e84 3d3f 0af2 55be 88cf 0fbe 62fe ce3d
00000270: e008 163f 0e1b 8b3e 4db2 753f 1db6 2b3f
00000280: 5f6b b9bd fc0b 15bd 07f5 2abe c09d 31be
00000290: e0ba 83bd 700a 4c3c 6e7a 04bd a2e1 c4bd
000002a0: 952a bfbc e258 443d f8fc 1bbe b403 75be
000002b0: e8a0 86bc b138 2abe 5ef6 03be 6b37 973c
000002c0: 0dd8 26bd 7169 f5bd 042e 0a3d ef69 a3bd
000002d0: 0c8f 48be 2e88 db3d 8f2c 2e3d ce61 983d
000002e0: 7880 0ebd 0028 72bd f469 c03d de59 aebc
000002f0: d8a1 74be 0a23 adbd 6f14 c9bd 1999 26be
00000300: a95c 75be e04b 003d ca75 49be 8ff0 74bc
00000310: 1be1 9ebd 76bb a2bd 37ce 66bd 4987 85bd
00000320: 158b 94bb 507a 52be 8014 6abe c5b9 febd
00000330: 553d 89bd 2c4a 7b3d 3a60 9dbc 75a9 1abe
00000340: 3d32 69bc 2de2 d2bd 6a5d 183d 6d74 26bd
00000350: 3772 a2be aafa 25bd d9ea d1bc 6715 b4bc
00000360: 15eb 92be cbcc 6a3c 2650 f8bd 80e3 62bb
00000370: 92dd 503c f11c 52be f8df 8cbd 91d6 00bc
00000380: 8677 48bf 004f ddbf 89cb 1ebe 3d60 2040
00000390: 9858 0d3e 7598 923e 4734 543f 8c20 3c3f
000003a0: 36c4 2c3d d983 413e 0041 183e 9106 a73e
000003b0: e4e6 dc3e d1fa 1c3e 6127 a73f 7eea 193e
000003c0: f9b4 a43e b037 dfbd eae8 ec3d f1c3 aa3e
000003d0: 8caa 123f 4246 19bf ac89 7b3e 49d2 01bf
000003e0: 5c7c 943e 899c 47bf ca41 f7bd 6fdc 99bd
000003f0: 8f33 953e 7815 aabd febe df3f 7757 773e

bias f4 [32]
-0.1432892 -0.14937368 0.757114 -0.22715002 0.39341974 -0.21189182 -0.16739386 0.35760427
-0.0123046385 0.41714033 0.5394289 0.47823405 -0.18775605 0.042164497 0.44987208 0.5557456
0.6007755 0.58092505 -0.07922676 -0.2780399 0.058732577 0.07068964 -0.23035094 -0.020604663
-0.10394328 -0.12276249 0.6815411 0.0766198 -0.2140908 -0.24212845 0.53216344 0.6262096
00000000: 67ba 12be 6af5 18be 39d2 413f 049a 68be
00000010: 506e c93e 2bfa 58be 4c69 2bbe e817 b73e
00000020: 6599 49bc 6b93 d53e 0318 0a3f 18db f43e
00000030: 1f43 40be aeb4 2c3d a255 e63e 5845 0e3f
00000040: 6ccc 193f 81b7 143f a441 a2bd 3f5b 8ebe
00000050: 9291 703d bbc5 903d 1ee1 6bbe 1ccb a8bc
00000060: 37e0 d4bd e66a fbbd 7a79 2e3f d7ea 9c3d
00000070: 9e3a 5bbe 85f0 77be dd3b 083f 464f 203f

weight f4 [2, 32]
0.15936913 0.047937665 -0.12779528 0.13642514 -0.1324516 -0.14565374 0.016948212 0.6664298
-0.07621202 0.21448956 0.43646318 -0.08351886 0.12881961 -0.2086043 -0.18947707 -0.24970943
-0.15936062 -0.1889343 -0.0796566 -0.017278511 -0.06779029 -0.05865881 0.116298966 -0.16798867
0.002119039 -0.012609048 0.2038862 0.06341437 0.0983864 -0.022243883 0.03311756 0.34715062
0.10316953 -0.07189153 0.22566545 0.028210212 0.15546808 -0.06583894 -0.19534065 -0.8685327
0.07056981 -0.11811397 -0.21718928 0.2229389 -0.04513231 0.052010845 0.3010448 0.19271562
0.27792427 -0.077072255 -0.07527119 -0.024931248 0.104607075 0.08049332 0.012932769 -0.08149827
-0.22224462 0.0530096 -0.038630575 -0.1260781 0.09101271 0.08216375 0.051368687 -0.5250308
00000000: a931 233e 495a 443d c4dc 02be 08b3 0b3e
00000010: 64a1 07be 4126 15be fad6 8a3c 259b 2a3f
00000020: 0c15 9cbd 27a3 5b3e 1a78 df3e f00b abbd
00000030: 4ae9 033e 5e9c 55be 4706 42be d4b3 7fbe
00000040: 6e2f 23be fe77 41be 0023 a3bd aa8b 8dbc
00000050: a3d5 8abd 3844 70bd 272e ee3d 3905 2cbe
00000060: 93df 0a3b 2e96 4ebc 8bc7 503e 65df 813d
00000070: cf7e c93d ce38 b6bc 47a6 073d babd b13e
00000080: 8c4a d33d de3b 93bd d814 673e 1a19 e73c
00000090: 0633 1f3e 91d6 86bd 6107 48be 2958 5ebf
000000a0: e886 903d bde5 f1bd de66 5ebe 184a 643e
000000b0: a8dc 38bd 5309 553d 8b22 9a3e 3e57 453e
000000c0: 174c 8e3e 0fd8 9dbd c827 9abd 9e3c ccbc
000000d0: 3c3c d63d afd9 a43d f7e3 533c 91e8 a6bd
000000e0: 1894 63be 9820 593d 183b 1ebd 9e1a 01be
000000f0: df64 ba3d 7845 a83d f967 523d 6b68 06bf

bias f4 [2]
-0.22506319 0.2941809
00000000: f776 66be e19e 963e

weight f4 [1, 32]
-0.12058009 0.049404763 0.7540565 -0.111796565 0.69589007 -0.06571488 0.025579123 0.7269772
0.063909784 0.89809394 0.9246479 0.80508786 -0.0023668 0.0043887105 0.88600403 0.9370418
0.8078685 0.77510464 0.038531475 0.0214427 -0.03343798 0.028131096 -0.04050618 0.016468117
-0.023365276 0.039487418 0.9874982 0.084664665 -0.09857481 -0.08526399 0.94949085 0.8568941
00000000: b2f2 f6bd a65c 4a3d d909 413f 99f5 e4bd
00000010: da25 323f 8695 86bd 4f8b d13c 2e1b 3a3f
00000020: 22e3 823d 7ce9 653f bab5 6c3f 3d1a 4e3f
00000030: 511c 1bbb 2ccf 8f3b 29d1 623f f9e1 6f3f
00000040: 78d0 4e3f 426d 463f 2ed3 1d3d 9aa8 af3c
00000050: 43f6 08bd 2f73 e63c cfe9 25bd 25e8 863c
00000060: 8968 bfbc 8fbd 213d afcc 7c3f ab64 ad3d
00000070: 97e1 c9bd e39e aebd d511 733f 695d 5b3f
