data/20220509-135850/model.pth (torch, 8399 bytes, 7 tensors)

weight f4 [32, 4]
000000 bf b5 b7 be cb a4 16 bf 21 8e d6 bf 28 5d 0c bf
       -0.3588085 -0.58845204 -1.6762124 -0.54829645
000010 e8 ce 66 be 7b fe 04 be 4d 1a 55 bd 15 d0 58 be
       -0.22539866 -0.12987702 -0.052027036 -0.21173127
000020 95 a5 a0 bd cf 1d ca bd 99 28 8d be 54 7e ad 3e
       -0.07844082 -0.09868967 -0.27570036 0.33885443
000030 5e 8c 95 3e ee b1 b9 bc c4 38 7e 3d 1d 05 0b bf
       0.29208654 -0.022667851 0.062065855 -0.5430468
000040 ef 91 33 bf 38 84 f0 3d df 14 27 3e 21 05 ad 3e
       -0.7014455 0.11743969 0.16316555 0.33792976
000050 42 f9 3c bf cc 76 8d be d0 c2 2a bf 77 eb 65 be
       -0.7381784 -0.27629697 -0.6670351 -0.22453104
000060 84 05 df 3d 76 af fd be aa 5e d2 bf 59 7a 06 bf
       0.10889724 -0.4954793 -1.6435139 -0.5253044
000070 9a 26 b4 3e 85 71 1e be a7 49 b2 be 7e 1b 80 bd
       0.351857 -0.15472992 -0.34821817 -0.06255244
000080 e1 c2 a7 3f c2 80 f6 3e 2d a3 e8 3f 4e ce e7 3e
       1.3106347 0.4814511 1.8174797 0.45274585
000090 9f 9f cc 3e ef 0b 48 be 0c 59 b5 3e bf cb ca be
       0.3996553 -0.19535802 0.354195 -0.3960857
0000a0 c2 85 9b be 8b 48 3e 3e 0e 7a a2 be 08 27 0d 3e
       -0.30375487 0.1858236 -0.31733745 0.1378442
0000b0 10 f6 0d 3e e4 bb 5c 3e a8 48 83 be fa bd 08 3f
       0.13863397 0.2155605 -0.2564137 0.5341488
0000c0 8f f7 70 be 0d 55 e9 3e 82 ab 02 3c ad cb b9 be
       -0.23531936 0.455727 0.007975461 -0.36288205
0000d0 1e 87 8d 3f cb 5c 84 be e3 7a 9a be 0c dd 00 bf
       1.105686 -0.25852045 -0.3017188 -0.5033729
0000e0 c4 ea e3 bc f1 41 1e bf 14 24 d4 bf 80 78 e7 be
       -0.027821906 -0.6181937 -1.657351 -0.45209122
0000f0 9f c6 38 bf 22 d0 12 be 39 c5 41 3f 6f ce 12 3e
       -0.7217807 -0.14337209 0.7569156 0.1433656
000100 01 46 ab 3e 67 51 a1 be 58 ca da be 6b 61 91 3d
       0.33451846 -0.31507418 -0.427325 0.07098659
000110 d6 0e 3c bd 40 c5 41 be ac a9 69 bd 64 53 f0 3e
       -0.045912586 -0.18922901 -0.057046577 0.46938622
000120 d6 94 93 3e e6 0c 7b be 93 74 db 3f 58 00 6d 3e
       0.2882449 -0.24516639 1.7144951 0.23144662
000130 a3 ff 6e 3f d6 64 e2 3e 4b f6 5b 3f af 84 c7 3d
       0.9335882 0.44217557 0.8592269 0.09742104
000140 ff 78 d5 3d 0f d6 33 3e 97 10 1c 3e 0c ac 4e 3c
       0.10423469 0.17562126 0.15240704 0.012614261
000150 24 57 10 be 59 d1 1c 3d cc 9e de be 84 65 b5 3d
       -0.14095742 0.038285587 -0.43480527 0.08857253
000160 2d 1f 51 bf e3 a7 0c 3f 6b ec 48 3f f2 48 0b 3f
       -0.81688195 0.54943675 0.78485745 0.5440818
000170 d9 d3 be be 6e 29 2c 3e 2e 43 0e bf 30 7c 03 be
       -0.37271002 0.16812679 -0.5557126 -0.12840343
000180 a5 1e 48 3f 71 b6 09 3f e2 62 d0 3f 67 02 ed 3e
       0.7817176 0.5379401 1.6280177 0.46290895
000190 c7 74 c7 3d 8f 3b 8d be 95 b5 b2 be 2c ad 78 be
       0.097390704 -0.27584502 -0.3490416 -0.2428481
0001a0 83 11 dd bd 89 07 d8 be e4 52 d8 bf b7 3a ca be
       -0.10794356 -0.4219325 -1.6900296 -0.3949792
0001b0 fd e7 61 3e f9 57 10 be 3b ce 92 3e 3c e3 29 3e
       0.22061153 -0.14096059 0.28672966 0.1659059
0001c0 c2 0d 17 3e 2d c9 8d bd b2 66 62 3e 8a 59 c0 be
       0.14751342 -0.06923137 0.22109488 -0.37568313
0001d0 b9 61 0e bf 90 c7 dc be 41 a5 26 bf 09 7c f3 be
       -0.5561786 -0.43121004 -0.6509591 -0.4755557
0001e0 19 e8 a9 bd fe 35 f7 be 9d 7b 99 be 31 a4 18 3d
       -0.08296222 -0.4828338 -0.29977122 0.03726596
0001f0 85 ab 99 3e 5a 0f a4 be 3a 20 eb be 98 74 04 3f
       0.30013672 -0.32042962 -0.45923024 0.5174041

bias f4 [32]
000000 c0 c5 92 be c4 5b 4b 3f 99 e5 94 3f 06 e2 77 3f
       -0.28666496 0.794369 1.1632568 0.9682926
000010 df 1a 69 be 2a 8d e3 be c9 6a 81 3e 5d 13 60 3f
       -0.22764157 -0.44443637 0.25276783 0.87529546
000020 dc e9 0b be 04 9a 93 3f 79 87 2b 3f c1 03 93 3f
       -0.13663429 1.1531377 0.6700359 1.1485521
000030 64 51 45 3f 19 b0 b7 be b4 5d 4f bd 79 52 a9 be
       0.7707732 -0.3587654 -0.05062647 -0.33070734
000040 3f 7a e2 be 0d e2 60 3e 6b 00 a2 be 6d 63 f3 be
       -0.4423389 0.21961232 -0.31640944 -0.47536793
000050 1d 63 7a 3f 91 f7 01 bf a0 22 bf be c5 21 86 3f
       0.97807485 -0.5076838 -0.37331104 1.0479056
000060 14 73 e8 3d 97 4f 82 3f f6 cf 67 be f5 e3 5a 3f
       0.113500744 1.0180539 -0.22637925 0.85504085
000070 4b 3b 84 3f 69 66 c4 be c5 25 44 3f 76 99 50 3f
       1.0330595 -0.38359383 0.7662013 0.8148416

weight f4 [32, 32]
000000 63 1f 6c bf 33 c5 cb 3e 3c 46 db 3e 08 d6 ba 3e
       -0.9223539 0.3979889 0.42827022 0.36491418
000010 07 55 87 be 39 78 aa be 17 a8 37 bf 03 18 00 3f
       -0.26432058 -0.33294848 -0.7174086 0.5003664
000020 62 bf 34 bf 8f 7f de 3e 1f fb 15 3f 21 58 28 3f
       -0.70604527 0.43456694 0.58586305 0.65759474
000030 32 b1 b6 3e 57 b6 62 bf 33 c2 75 bf a2 18 78 be
       0.35682064 -0.8855948 -0.9599945 -0.24228147
000040 e5 54 cf bd 0d ee b1 bb bd bd 0c be a5 ad e8 be
       -0.10123614 -0.005429989 -0.13744254 -0.4544498
000050 b3 0f 15 3f f4 73 06 3e 40 26 53 bf 75 c1 19 3f
       0.5822708 0.1313017 -0.8248024 0.60060817
000060 ae 86 d8 be db 99 36 3f 88 4d 89 bf df 07 4a 3f
       -0.42290252 0.71328515 -1.0726786 0.7891826
000070 9a 2a fa 3e 8b 96 11 bf 24 5a f0 3e 0e ee 11 3f
       0.48860627 -0.56870335 0.46943772 0.5700387
000080 1e 1b 83 bf db 08 90 3e e0 b1 11 3f 40 c3 ee 3e
       -1.024265 0.28131756 0.5691204 0.4663334
000090 5e cc b4 be 02 4c f7 be 15 09 7b bf 54 ce e6 3e
       -0.3531217 -0.48300177 -0.98060733 0.4507929
0000a0 96 d0 12 bf fc cf cd 3e 96 09 3d 3f 39 4f 15 3f
       -0.57349527 0.40197742 0.7384275 0.5832401
0000b0 4c 9f dd 3e 5e 0d 4e bf 40 92 85 bf 50 1f 03 bf
       0.43285596 -0.80489147 -1.0435257 -0.51219654
0000c0 7c da 3a be d8 2a 3b 3e dc 56 e2 be db 4d c1 be
       -0.18247408 0.18278062 -0.44206893 -0.37754712
0000d0 2d ce 10 3f 02 81 98 bb 05 ab 36 bf 22 e9 0a 3f
       0.565646 -0.004654051 -0.71354705 0.5426198
0000e0 f8 7e 1e 3d d0 16 bb 3e 6d 2e 49 bf 99 97 ec 3e
       0.038695306 0.36540842 -0.78586465 0.4620941
0000f0 f2 29 07 3f 64 7e b3 be 3d 64 97 3e 05 20 00 3f
       0.5279838 -0.35057366 0.29568663 0.5004886
000100 00 3a 34 3b b6 e2 4f be d3 0e 7d bd f6 6c ed 3d
       0.002750039 -0.20301327 -0.061781716 0.11593048
000110 62 fc c1 3d e9 70 e9 bd b8 93 4e be a6 13 09 be
       0.09471966 -0.11398489 -0.20173538 -0.13386402
000120 05 6f 98 bd 86 5f bf bd 3d 22 df bd 31 3d 3c be
       -0.0744305 -0.093443915 -0.10895202 -0.18382718
000130 e3 52 52 be 82 bf f2 3d 5f 78 0e 3e 99 8a 29 be
       -0.20539431 0.118529335 0.13913105 -0.16556777
000140 65 62 4c be b3 65 53 bd cf 95 d3 3d 14 65 a7 bd
       -0.1995941 -0.05161066 0.10331308 -0.08173576
000150 93 42 1a 3d ba ff d1 3d 69 86 3c 3d 27 8a 49 be
       0.037661146 0.10253854 0.04602662 -0.19681607
000160 bf 0e 67 be 92 59 1c 3d 8d 6d d0 bd b6 01 c0 3c
       -0.22564219 0.03817136 -0.10177145 0.023438316
000170 b7 9f c8 bc ad b5 c6 3b 7e 92 a8 ba ed c0 dc bd
       -0.02449022 0.006064138 -0.0012861041 -0.10778985
000180 02 72 59 3d d2 8f d4 bd 43 73 75 be 73 a2 53 be
       0.053087242 -0.10378994 -0.2396975 -0.20667438
000190 88 86 86 be 2e f4 49 3d 96 bd b9 bd 1e 9e 8a bc
       -0.26274514 0.049305134 -0.09069364 -0.0169211
0001a0 3b 13 94 bd 08 23 66 3d 38 80 16 be 69 a5 78 bd
       -0.072302304 0.056185752 -0.14697349 -0.060704622
0001b0 4c 89 27 3d 40 1f 12 bb 5f 42 df bd 4d 7d 5e be
       0.04090242 -0.0022296458 -0.10901331 -0.21727486
0001c0 34 d4 93 bd a7 20 8a 3d 40 0e fa bd 87 7d 71 3c
       -0.07218209 0.06744509 -0.12209749 0.014739401
0001d0 db 6b b5 bd 30 99 8f bc d9 95 2f bd 73 32 d0 bd
       -0.088584624 -0.0175291 -0.042867515 -0.101658724
0001e0 bd 72 a1 bd b1 d8 35 be 6c 7b 32 3d d7 a0 62 bd
       -0.07883213 -0.17758442 0.043574736 -0.05532917
0001f0 6b ee 39 be 45 1b c7 3c b3 f7 16 bd cf e0 05 b9
       -0.18157355 0.024304995 -0.036857318 -0.00012767616
000200 82 7a 60 bd 1b c5 43 be 41 49 c9 bc b6 23 6b 3d
       -0.054804333 -0.19118159 -0.024571063 0.057407103
000210 86 f8 0e 3d c2 1a 5b be 2c af 1b bd ec d4 ea bd
       0.03490498 -0.21396926 -0.038008854 -0.11466393
000220 81 7e 47 3d c5 db 90 3d c5 37 c4 3c 0c 01 62 be
       0.048704628 0.07073168 0.023952374 -0.22070712
000230 49 2c c8 3c 58 c5 31 bd da 78 42 3e 18 60 cf 3d
       0.02443518 -0.043401092 0.18991414 0.1012575
000240 c5 b1 e4 bd f6 b8 e1 3d f5 75 2a be 4b aa a0 3a
       -0.11166719 0.110216066 -0.1664656 0.0012257783
000250 c5 c5 cf bd 43 d9 de bd 07 bd aa 3c 8f c2 05 be
       -0.101451434 -0.10881283 0.020842088 -0.130625
000260 6a 5f 91 3c e7 c0 3b be 2e 13 b0 bd ac ac 64 be
       0.017745692 -0.18335305 -0.08597408 -0.22331494
000270 8d 64 23 3d f2 4c 88 3d 64 1d fa bd 8f 6b 9f 3d
       0.039890815 0.06655301 -0.12212637 0.07784187
000280 84 0b 36 bf 03 25 bd 3e 29 84 09 3f 99 91 2a 3f
       -0.7111132 0.369423 0.53717285 0.66628414
000290 e4 0c 12 bf 6f 08 9a be 67 7d a8 be de e8 22 3f
       -0.5705092 -0.3008456 -0.32908174 0.6363658
0002a0 05 17 33 bf ff 64 23 3f bf df f5 3e 55 10 9b 3e
       -0.69957 0.6382598 0.48022267 0.30285898
0002b0 e0 ab f7 3e c7 5d 16 bf a4 15 0b bf 54 7a 04 bf
       0.48373318 -0.5873684 -0.54329896 -0.5174916
0002c0 dc 32 87 3e 25 d9 40 3d 43 fe 6f be fe 75 1a bf
       0.2640599 0.047082085 -0.23436837 -0.6033629
0002d0 9c 8f 11 3f 93 22 b1 3d 96 0c 4a bf eb 49 3d 3f
       0.56859756 0.08649173 -0.78925455 0.73940915
0002e0 35 71 c1 be d9 43 21 3f 73 1d 14 bf 69 ae d8 3e
       -0.37781683 0.6299415 -0.57857436 0.42320564
0002f0 86 a0 38 3f 50 e5 e8 be f6 4d b6 3e ff cb 9d 3e
       0.7211994 -0.45487452 0.35606354 0.308197
000300 1f 7b 5a bf f1 58 05 3f 01 c0 eb 3e ea d8 46 3f
       -0.8534412 0.5208884 0.46044925 0.77674735
000310 c4 10 30 bf 8e 22 2f bf 55 2f fd be 93 82 30 3f
       -0.6877558 -0.684121 -0.49450174 0.6894924
000320 c4 cb 9c bf db 96 24 3f 58 39 2c 3f c2 89 16 3f
       -1.2249684 0.6429269 0.67275 0.5880395
000330 4f df 08 3f ac f7 d0 be 18 e1 2e bf e2 9c 1f bf
       0.5346574 -0.4081396 -0.68312216 -0.6234876
000340 8d 6a 9b 3e 74 5b 52 bd 9c e4 7f be 23 3e 26 bf
       0.3035473 -0.051356748 -0.24989551 -0.64938563
000350 eb 38 32 3f 72 c9 d5 bd 49 1d 2f bf ac 73 f8 3e
       0.696181 -0.10438813 -0.6840406 0.4852575
000360 5b 01 56 bf ba 6c d1 3e e0 5f 50 bf a4 d2 06 3f
       -0.8359582 0.40903264 -0.81396294 0.5266516
000370 88 1d 08 3f 66 6d 32 bf 97 6d 72 3e 56 e2 fd 3d
       0.5317006 -0.6969818 0.23674618 0.12396686
000380 55 f0 89 bf 98 5a d5 3e b4 a2 33 3f 09 e0 d5 3e
       -1.0776469 0.4167068 0.7017014 0.41772488
000390 33 f2 e1 bd 69 d3 1c be c8 07 44 bf 2d 90 32 3f
       -0.11032524 -0.15315022 -0.76574373 0.69751245
0003a0 56 6c 0c bf 8b cc 40 3f bc a4 49 3f a2 96 13 3f
       -0.5485281 0.7531211 0.7876699 0.5765172
0003b0 7f 3e e0 3e ca 29 34 bf 73 7c 41 bf 27 4c 39 be
       0.4379768 -0.70376265 -0.7558052 -0.18095456
0003c0 3f d6 9d bb 3f bf 1c 3e ec 30 91 be 86 82 05 bf
       -0.0048168 0.1530733 -0.28357637 -0.5215229
0003d0 91 36 1a 3f d4 51 56 3e 5a 18 23 bf e9 c3 e7 3e
       0.6023951 0.20929652 -0.6370903 0.45266655
0003e0 1e b8 ab be 7d 55 2a 3f 34 8c 2d bf 7c d6 3a 3f
       -0.33538908 0.66536695 -0.6779206 0.7298353
0003f0 15 b1 3f 3f 25 67 72 be c1 12 d9 3e fb 5c f7 3e
       0.7487958 -0.23672159 0.4239712 0.48313126

bias f4 [32]
000000 4b ae e5 3e ed 98 14 3f ba f6 98 bb 72 ec 73 bc
       0.44859537 0.58045846 -0.004668084 -0.014887916
000010 fc 42 8e bc ff 1e 1e 3f b6 ce bb 3e 8b 21 19 3f
       -0.017365925 0.61766046 0.36681145 0.5981681
000020 a0 cd 06 3f 9e 47 de 3e c8 d5 2f 3f 9b f6 1e bd
       0.5265751 0.43414015 0.6868558 -0.0388094
000030 93 24 17 3f 1f 09 8c be e2 46 2a 3f 8e 5d 04 be
       0.5904018 -0.2735071 0.6651441 -0.12926313
000040 cf ee 57 be 54 00 10 3f 0e 97 f9 bd 49 5b 4c be
       -0.21087192 0.562505 -0.121870145 -0.19956698
000050 12 8d 7b be e5 38 87 b8 97 8c e9 bb e8 49 08 3f
       -0.24565533 -6.447899e-05 -0.0071273553 0.5323777
000060 3d ab 29 3f 15 8f 2c 3f 82 5d 21 be 45 b5 01 3f
       0.66276914 0.67405826 -0.15758327 0.5066722
000070 ba 63 b6 3d 8a 42 5b be 64 59 26 3f 12 81 24 3b
       0.0890574 -0.21412101 0.6498015 0.0025101346

weight f4 [2, 32]
000000 a8 a0 de bd 53 f8 7d be 00 f2 1f 3d 70 b5 15 be
       -0.108704865 -0.2480176 0.03904915 -0.14619994
000010 24 50 55 3e f5 b3 55 3e ac e7 9e 3e a1 c0 0c bd
       0.20831352 0.2086943 0.31036127 -0.034363393
000020 7c 6e 82 be 6d 06 b0 3e 24 a6 18 3e 66 bd 59 3e
       -0.25474918 0.34379902 0.14907128 0.21263656
000030 de 12 04 3e 8f 00 55 bf 78 18 e3 be f9 fa 93 3d
       0.12897822 -0.8320398 -0.44354606 0.072256036
000040 3d 2b 34 bd 37 9f 82 be 83 dc 63 be c3 33 97 3d
       -0.043986548 -0.25512096 -0.22252087 0.0738292
000050 1e b3 c0 3f fe 63 3d be 12 e7 27 3c 57 b4 98 3d
       1.5054662 -0.18495175 0.010247963 0.07456272
000060 10 2b 02 3d 35 9e e3 bd af 99 03 be 85 3b 94 bd
       0.03177935 -0.1111416 -0.12851594 -0.07237915
000070 56 00 5c 3e 84 f7 89 bd 22 1b 30 be 3f 49 c2 bd
       0.21484503 -0.06736663 -0.1719785 -0.09486627
000080 d3 50 ba 3d cb 99 3f 3e 6c a4 87 3d 2c 59 cd bd
       0.09097447 0.18711011 0.06623158 -0.10026774
000090 52 ff 6b be f9 99 55 be b7 33 f3 bd 29 7d aa 3d
       -0.23046616 -0.20859517 -0.11875098 0.08324654
0000a0 3b 00 ed bb b5 e7 b5 be 19 c1 97 be b6 77 df bb
       -0.0072326935 -0.3552834 -0.2963951 -0.0068196906
0000b0 fd ef c5 bd 95 96 79 3f 38 fb 92 3e 41 cf 80 bd
       -0.09664915 0.97495395 0.2870729 -0.062895305
0000c0 51 6f db bd 91 fa 4a 3d c7 09 25 3c 93 07 64 3e
       -0.10714591 0.049555365 0.010073132 0.22268514
0000d0 bd 71 af bf 65 ea 97 3d c8 2f 9e bd 27 01 dd 3d
       -1.3706585 0.07417754 -0.07723957 0.107912354
0000e0 3d 44 65 3e 81 ee 70 3e 28 6b e8 3c 4d 40 14 3c
       0.22389312 0.23528482 0.028371409 0.009048534
0000f0 79 b3 4f bd 66 fe e6 3d 70 2d ac bc 2a 6d 35 3d
       -0.050708268 0.112789914 -0.02101776 0.04429356

bias f4 [2]
000000 91 f6 6f bd 35 22 be bd
       -0.058584753 -0.09283868

weight f4 [1, 32]
000000 e6 49 5c 3f 97 31 5a 3f 13 93 d0 bd 7e 5a 55 3d
       0.8605026 0.8523192 -0.10184302 0.052088253
000010 59 5b cd bc f3 2f 54 3f 61 af 54 3f 30 ad 39 3f
       -0.025067972 0.82885665 0.83080107 0.7252989
000020 91 f8 4c 3f 3b a6 45 3f f5 49 2e 3f 52 2c 19 3d
       0.8006678 0.7720677 0.680816 0.037395783
000030 5b ff 44 3f 4c 26 97 be bf c9 3a 3f 5c 16 22 3c
       0.7695214 -0.29521406 0.7296409 0.009893026
000040 2b 97 14 3d 85 26 38 3f 57 bf ad bd 5b 60 d2 bd
       0.036276978 0.71933776 -0.08483761 -0.102722846
000050 85 21 bb be 1a b7 f6 bb 9f 59 a9 bd a4 2b 53 3f
       -0.3654901 -0.0075291516 -0.08269047 0.82488465
000060 ab 78 36 3f 21 19 3e 3f 20 82 1f be 36 ee 4e 3f
       0.71277875 0.74257094 -0.15576982 0.8083223
000070 bf 47 b2 bd f9 37 90 bd b5 c9 4b 3f 50 5d 3f 3d
       -0.08705091 -0.07041926 0.79604656 0.04671985
