data/PPO_runs/20220509-135844/model.pth (torch, 8399 bytes, 7 tensors)

weight f4 [32, 4]
000000 eb a0 7d 3e e0 6c bc be bf 2e 2a be 1a 8f f2 bd
       0.24768417 -0.36801815 -0.16619395 -0.11843701
000010 e0 82 c3 3d c2 e7 19 be 85 92 b5 3e 86 9f c0 3e
       0.09546447 -0.15029815 0.35463348 0.37621707
000020 7f f6 58 3e c4 50 4e be 2c fa 08 3f 78 8d d6 be
       0.21187781 -0.20147997 0.5350673 -0.41904807
000030 4b 3b 4c 3f eb 9f 5f 3e 02 4d a1 3f ec 14 ae 3e
       0.79777974 0.21838348 1.2601626 0.34000337
000040 6b ee c3 be 0d 33 0b bf f3 74 3a 3e 0d 99 d4 bc
       -0.38267836 -0.5437477 0.18208675 -0.025951887
000050 68 da 2d bf 4f b7 d6 be b3 5f e8 be 1e 59 ae bc
       -0.67911386 -0.41936728 -0.45385513 -0.021282729
000060 55 6a 4b be 58 03 24 3e 50 b1 a2 3e 08 24 6e be
       -0.19864781 0.160169 0.31775904 -0.23255932
000070 9e 6c 07 bf 21 19 14 bf 4e 10 a2 bf e6 3a 20 bf
       -0.5290011 -0.57850844 -1.2661226 -0.6258987
000080 13 22 b7 3d 10 84 0e be cf 26 d6 3e 98 10 9b 3e
       0.08942046 -0.13917565 0.41826484 0.30286098
000090 e2 76 67 bd 9e cb a3 3e 53 67 3a be 2a 91 89 39
       -0.05650986 0.31991285 -0.18203478 0.00026238832
0000a0 3a 98 6d bf fc 38 3a 3e 3d f8 4f 3f 1d d7 b0 3e
       -0.92810404 0.181858 0.81238157 0.34539118
0000b0 fe e3 49 3f 80 60 4b be 2c 77 2e be 5f 6b 48 be
       0.78863513 -0.1986103 -0.17037648 -0.19572209
0000c0 bc 6a f6 bd 19 18 0f 3c 04 a7 f3 3e 11 13 5a be
       -0.12032077 0.008733773 0.4758836 -0.21296336
0000d0 57 4c 1e be 5d 76 c6 bc a4 75 c2 be 0e dd 44 be
       -0.15458809 -0.024226362 -0.37980378 -0.1922495
0000e0 d7 7b 72 3d de 6c 88 be 6d f5 6b 3c 1f ed dc be
       0.059200134 -0.2664556 0.014401776 -0.4314966
0000f0 30 3e 2f bf 13 79 50 bf 17 70 8e bf 35 9d 05 bf
       -0.68454266 -0.81434745 -1.1127957 -0.52193004
000100 c7 14 3a be f8 c7 f7 bd 60 41 fd 3e 68 85 90 3d
       -0.18171988 -0.12098688 0.4946394 0.07056695
000110 1c cd 9c bc 6f 97 74 be fd 89 cc 3e 65 3c 19 be
       -0.019140773 -0.23885892 0.39949027 -0.14964445
000120 02 82 61 be 9c 63 f0 3c 05 d1 a8 be 16 ad 9c 3c
       -0.2202225 0.029344372 -0.3297197 0.019125503
000130 6d e4 3b 3e 88 ac 59 3e d9 c5 0f 40 ae 54 72 3e
       0.18348856 0.21257222 2.2464507 0.23665115
000140 c0 d4 87 3e 4a e0 73 be fa 9a 3e bf cd 42 f2 be
       0.26529503 -0.23816028 -0.74455225 -0.4731659
000150 7d a7 50 3e a6 32 19 3e 90 0c 19 3f 3b 2c e4 bd
       0.20376392 0.14960727 0.59784794 -0.11141249
000160 28 33 ae 3e f9 b5 4b be 15 71 07 3f c4 ca 14 3e
       0.34023404 -0.19893636 0.52906924 0.14530474
000170 f2 93 18 3f 9f a3 29 be 02 f5 c3 bf af 82 ed be
       0.59600747 -0.16566323 -1.5309145 -0.46388766
000180 69 8d fb bd d1 18 2e bd 8a f1 2f 3d 23 a5 a6 3d
       -0.12282831 -0.042504136 0.04295496 0.08136966
000190 1d 88 48 3e 64 d7 7e be fb 2d eb be 11 60 c5 3e
       0.19583173 -0.24886853 -0.45933518 0.38549855
0001a0 d3 9f 98 be 83 86 64 be 96 95 31 c0 fd 0f ab be
       -0.29809436 -0.22316937 -2.774755 -0.33410636
0001b0 87 9b b5 3e d6 37 df 3e 1c 9e a7 3f c5 6b cb 3e
       0.3547022 0.43597287 1.3095126 0.3973066
0001c0 c2 46 f9 3c 2f 71 9e 3e a8 f5 0f bb ef 12 03 3f
       0.030429248 0.30945727 -0.002196649 0.51200765
0001d0 ae 0a aa 3e b1 78 11 be f6 e1 40 40 b7 bf 91 3d
       0.33211273 -0.14206196 3.0137916 0.07116645
0001e0 32 b0 93 bd 52 01 47 be 96 d8 6e be d2 13 80 be
       -0.07211341 -0.19434097 -0.23324808 -0.25015122
0001f0 8f 3d eb 3d 6d 6e 33 3e 99 ba 2a 3f 7a 1c 69 3e
       0.11486351 0.17522593 0.66690975 0.22764769

bias f4 [32]
000000 ef 25 1c bf 83 5f 3c 3f a5 b3 50 3f 0e 8d 1a bf
       -0.6099538 0.7358324 0.81524116 -0.6037148
000010 c8 d3 37 bd cd a6 0e bf cc 51 1b 3f 57 35 da be
       -0.044879705 -0.5572327 0.6067169 -0.4261882
000020 60 48 86 3f 51 ed 47 3f 94 9c b3 be 0c fb d2 be
       1.0490837 0.7809649 -0.35080397 -0.4120716
000030 fd f1 61 3f 85 05 28 3f 47 32 7c 3f 4b 17 88 be
       0.8825987 0.6563342 0.9851422 -0.2658027
000040 5d 43 84 3f ed 95 4e 3f ad bf 40 3f 86 9d 97 3c
       1.0333058 0.8069752 0.75292474 0.01850773
000050 b8 9f c9 be e1 49 87 3f 4a 54 70 3f 7d 4d d3 be
       -0.39379668 1.0569421 0.93878615 -0.41270056
000060 49 01 3e 3f 51 a2 34 3f 98 05 27 be 96 08 85 be
       0.7422071 0.70560175 -0.16310728 -0.25983113
000070 c0 a2 67 3f 55 c1 4b bd 95 de 6c 3f 02 2e 6e 3f
       0.9048271 -0.049744923 0.92527133 0.9303895

weight f4 [32, 32]
000000 d5 28 75 3d d7 52 02 3f 83 65 d2 3e fe ce 1c bf
       0.059853394 0.50907654 0.41093072 -0.61253345
000010 6e fd d4 bd 1d 53 00 bf 33 d7 f5 3e a1 fd 49 bf
       -0.103999004 -0.5012682 0.48015746 -0.7890263
000020 8e 1b da 3e 37 fb 0e 3f d3 35 fb be be 00 8e be
       0.42599148 0.55852073 -0.49064502 -0.2773494
000030 1e b0 00 3f fb 12 de 3e ba 2f cc 3e 09 24 3e bf
       0.50268734 0.43373856 0.39880162 -0.74273735
000040 9f 49 eb 3e b2 1b 0e 3f 20 8e 2c 3f c5 77 4d bf
       0.45954606 0.5551101 0.67404366 -0.8026088
000050 7e 76 14 be 91 06 fc 3e 6b 7e 1b 3f f8 9d 25 bf
       -0.14498326 0.4922376 0.60739774 -0.64694166
000060 ba 34 1f 3f 1c e3 aa 3e 29 5b 6f bf 86 8b df be
       0.6218983 0.33376396 -0.93498474 -0.43661135
000070 1e 14 33 3f 67 e2 4a bf 11 7e cc 3e 66 e3 3f 3f
       0.6995257 -0.7925171 0.3993993 0.7495636
000080 8a 91 20 be 3a 23 69 3e e6 03 23 3f 68 20 54 bf
       -0.15680519 0.22767344 0.63677824 -0.8286195
000090 f9 a3 77 3d f4 ec d0 be 10 cf 1b 3f 7f c4 80 bf
       0.06045911 -0.4080578 0.6086283 -1.0059966
0000a0 81 09 d5 3e e0 e3 27 3f 6d 13 1e bf d6 a5 e3 be
       0.41608813 0.65582085 -0.6174839 -0.4446246
0000b0 52 2d df 3e fa f2 01 3f 93 db 2d 3f e3 b6 07 bf
       0.43589264 0.5076138 0.6791317 -0.5301344
0000c0 90 6e e7 3e cc 02 26 3f 35 ed 2d 3f 79 cd 4e bf
       0.4520154 0.6484802 0.67940074 -0.80782276
0000d0 97 52 66 3c 7a 8a df 3e f6 3d 0c 3f a2 5f 70 bf
       0.014057777 0.43660337 0.54782045 -0.93895924
0000e0 ed 18 ea 3e 14 bf 06 3f d4 f0 89 bf 50 83 ce be
       0.45722142 0.5263531 -1.077662 -0.40334558
0000f0 01 90 cc 3e 74 57 75 bf 66 52 da 3e 47 96 0d 3f
       0.39953616 -0.9583657 0.4264099 0.5530743
000100 2b 06 16 3e 78 bd 3f bd a2 c6 54 be 80 dc 30 be
       0.1465079 -0.04681155 -0.20778897 -0.17271614
000110 98 8f f1 bc 98 3a a3 bc 4b a2 59 be 45 3d 32 bd
       -0.029487416 -0.0199254 -0.21253316 -0.043515462
000120 de 1a 69 be 92 71 58 be 69 cb 27 be 62 e9 d1 bd
       -0.22764155 -0.21137074 -0.16386189 -0.10249592
000130 0f d3 12 bd a7 2d 37 3d 74 d2 97 bc 02 cc d8 3d
       -0.035845812 0.04472127 -0.018532969 0.105857864
000140 3c e7 63 be 9b 37 0b 3d 20 dd d6 bd a0 8a 0d be
       -0.22256178 0.033988576 -0.10491395 -0.13822412
000150 2a a2 9e bc 95 66 ea bd 86 22 31 be 6d 1d f8 bd
       -0.019364435 -0.11445347 -0.17298326 -0.121149875
000160 92 e4 fa bb 5c 51 20 be 6c 52 4b 3d cc ac 35 bd
       -0.0076566422 -0.15656036 0.04963915 -0.044354245
000170 0b 31 1a be c2 ce 14 be dd 17 c7 3d e0 1c 06 bc
       -0.15057771 -0.14531997 0.097213484 -0.008185595
000180 30 32 cd 3d 8b ae c5 3e 16 91 ef 3e 1d 7c 1c bf
       0.10019338 0.38609728 0.4679038 -0.6112688
000190 66 dd a5 3b f3 76 9c be 81 44 00 3f 3d 1b 4a bf
       0.005061793 -0.305595 0.5010453 -0.7894781
0001a0 69 f1 0f 3f fd cd 95 3e 9b 4d 43 bf 26 44 44 be
       0.5622774 0.2925872 -0.7629029 -0.19166622
0001b0 9d 88 e3 3e 1d a4 bc 3e 51 23 e9 3e 20 b9 5b bf
       0.44440165 0.36843958 0.45534757 -0.85829353
0001c0 94 2e 28 3f f2 f1 bd 3e 1e 0b c2 3e 0e e1 31 bf
       0.6569607 0.37098652 0.37899107 -0.6948403
0001d0 dd ea 79 be 7e 9c 22 3f a0 0c 15 3f fa a4 66 bf
       -0.24406 0.6352004 0.5822239 -0.90095484
0001e0 e3 48 2f 3f 90 3c 06 3f cb 5e 8d bf 44 31 94 be
       0.6847059 0.5243616 -1.1044554 -0.28943837
0001f0 90 ca de 3e d6 11 5e bf d2 b3 85 3e 2f e3 fd 3e
       0.43513918 -0.86745965 0.26113755 0.4958739
000200 68 30 e6 bd 4e 28 9e 3d 70 e0 3a be 7a f7 64 be
       -0.112397015 0.07722531 -0.18249679 -0.2236003
000210 cb 2f c6 3d 2d 3a be bd 9d 54 de bd 9a 4f f0 bd
       0.096770845 -0.0928844 -0.108559825 -0.11733933
000220 39 cf 72 3b 3e d1 b0 3d d9 bc 7a 3d 81 d7 24 3e
       0.0037049784 0.0863366 0.061215255 0.16097833
000230 99 14 ac 3d bc fc 2d be 63 ce f9 bd 66 cf f0 3d
       0.08402366 -0.16990942 -0.12197568 0.11758308
000240 38 49 4b be 44 f7 53 3d 5f f4 32 3d 8b d6 9c bd
       -0.1985215 0.051749483 0.04369008 -0.07658108
000250 8e 97 cf 3d 48 d3 62 bb 2e 3a 8d bd 73 1b 04 3e
       0.10136329 -0.0034610797 -0.068958625 0.12901096
000260 31 9d 6b 3d a6 13 20 bd 30 cb 4d 3d 2b 10 6c be
       0.057522956 -0.03908124 0.050242603 -0.23053043
000270 a3 61 17 be 9c f0 74 3d c6 73 4d bd 70 e9 82 3d
       -0.14783339 0.059799775 -0.05015924 0.06392181
000280 b2 a8 3b bd 31 96 8f 3d d4 00 62 bd 13 5f b0 3d
       -0.045815177 0.070110686 -0.05517657 0.08611884
000290 36 e8 d8 3c 89 ef a6 3d 9c d6 6a 3d 23 da 18 3e
       0.026477914 0.081511565 0.057333574 0.14926963
0002a0 f2 13 8d 3c e4 59 a7 bd 00 87 96 bd 35 0a 1e 3e
       0.017221425 -0.08171442 -0.07349968 0.15433581
0002b0 ce 5d e9 bd 2b ba 26 be 43 ea 5b be db 57 16 3e
       -0.11394845 -0.16281955 -0.21476083 0.14681952
0002c0 f8 4a 0d be 14 9d 63 3d dd a3 60 bd 30 94 72 bd
       -0.1379813 0.055569723 -0.054843772 -0.059223354
0002d0 8c 61 49 bd c2 e9 e6 bd 8d ed 38 3d ae d7 dd bd
       -0.049165294 -0.112750545 0.04514842 -0.10832153
0002e0 8e 0d cc 3d f5 1d 2b be 7f d4 0d be 9d c6 49 be
       0.09963523 -0.16710646 -0.13850592 -0.19704671
0002f0 5b 7f 0b be ac 0e 8f bd 99 95 00 be 40 5f 70 bd
       -0.13622801 -0.0698522 -0.12557067 -0.058684587
000300 b5 63 14 bc 39 fe 18 3e 79 5f fb 3e eb 67 e0 be
       -0.009056975 0.14940728 0.49096277 -0.43829283
000310 e3 19 05 be 7f 9b a3 be f3 5b 19 3f b2 31 37 bf
       -0.12998156 -0.31954572 0.5990593 -0.71560204
000320 44 1c f0 3e 32 2e c7 3e 38 a8 0a bf a2 23 62 be
       0.46896565 0.38902432 -0.5416293 -0.22083905
000330 9e 6e 19 3f d7 83 26 3f 7d 1e 1f 3f 64 c0 10 bf
       0.59934413 0.6504492 0.62155896 -0.56543565
000340 33 38 0f 3f 16 5b e6 3e 00 8e 23 3f 1b d3 4e bf
       0.5594513 0.44991368 0.6388855 -0.8079087
000350 d4 a1 92 3c ca 72 0e 3f d0 c8 08 3f b3 f0 41 bf
       0.017899431 0.55643904 0.53431416 -0.757579
000360 7e 86 20 3f fb 5f 74 3e 08 35 51 bf c0 71 06 bf
       0.6270522 0.23864739 -0.81721544 -0.5251732
000370 8b 61 7a 3e 08 cd 3a bf 16 6a e4 3e 51 e3 03 3f
       0.24451272 -0.729691 0.44612187 0.5151873
000380 c9 de d9 ba 24 1b 02 3f 3b 1a 11 3f dc 5c 08 bf
       -0.0016622181 0.50822663 0.5668065 -0.5326669
000390 4f a7 a1 3b 90 71 a1 be 86 f1 ad 3e 38 a6 68 bf
       0.004933275 -0.31531954 0.3397333 -0.9087863
0003a0 a3 bb 05 3f 46 0b 18 3f bb de 2d bf 09 4f cf be
       0.52239436 0.593922 -0.67917985 -0.40489987
0003b0 13 5f b5 3e 30 4d d0 3e ac 9e 26 3f 69 ef 40 bf
       0.35424098 0.4068389 0.65085864 -0.7536531
0003c0 70 e2 d8 3e c8 a5 1b 3f 67 31 0b 3f b4 15 31 bf
       0.42360258 0.6079984 0.54372257 -0.6917374
0003d0 c6 b9 2b bd 1d 6c 13 3f 81 e4 d1 3e 51 ac 37 bf
       -0.041925214 0.5758684 0.40994647 -0.7174731
0003e0 b7 dd 1d 3f aa 97 89 3e 9f 0b 69 bf e7 4b 7d be
       0.61666435 0.26873523 -0.9103336 -0.24735986
0003f0 02 f0 fe 3e ea d6 33 bf ae 3c c3 3e dd 85 bc 3e
       0.49792486 -0.7024981 0.38132232 0.3682088

bias f4 [32]
000000 b8 b4 ec 3e f3 1c bf 3e 70 91 66 be d8 a2 99 3e
       0.46231627 0.37326774 -0.22516418 0.30007052
000010 5f 71 3c be ff 67 40 bd 4a d4 e5 3e ea dd 09 3f
       -0.18402623 -0.04697418 0.44888526 0.5385424
000020 36 1f 03 3f 59 dc f5 bd 49 96 3d bd 4b 5b 74 be
       0.512195 -0.120049186 -0.0462859 -0.2386295
000030 f3 2c cf 3e f5 de d6 3e b4 e5 38 3d 1b a4 d2 3b
       0.4046398 0.41966978 0.045140937 0.0064282543
000040 95 90 84 bc 50 13 a1 3e ec 62 81 bd 0c 22 08 3d
       -0.016182223 0.31460047 -0.06317696 0.033235595
000050 10 a1 db 3e 05 45 05 3f 4e 40 2e 3f 84 6e 05 3f
       0.42896318 0.5205844 0.6806687 0.5212176
000060 98 6b b2 bd 6d 84 48 3d 0d 76 0f 3d a3 42 44 3d
       -0.08711928 0.048954416 0.03502469 0.047915112
000070 af e1 fa 3e 9f 3c ea 3e f3 84 c3 3e 49 19 cf 3e
       0.49000308 0.45749375 0.3818737 0.4044898

weight f4 [2, 32]
000000 92 d6 0b be 9a 8f 25 3e 02 35 29 be 0f d4 41 bd
       -0.13656071 0.16168061 -0.16524127 -0.047321375
000010 b8 a4 1a 3d 64 78 99 3d b7 d0 38 3e 61 ce 6d 3d
       0.037754744 0.07493666 0.18048368 0.058058146
000020 62 91 11 bd d1 c0 1e 3e c9 4b 94 bd 8e f7 8c 3d
       -0.03553904 0.15503241 -0.07241017 0.06883155
000030 b7 41 9b be ab 9b ed 3d c7 d8 ac 3d 4c 53 c9 3d
       -0.30323574 0.11601957 0.084397845 0.09830341
000040 f4 ed 9c bd c1 cf c2 3e 1c 3f bf be 4c 42 51 3d
       -0.076625735 0.3804913 -0.37352836 0.051088616
000050 8b 96 53 be f1 dd 81 3e f3 3a 81 3c 40 40 2c bd
       -0.20662896 0.2536464 0.01577518 -0.04205346
000060 7c fc 17 3e 36 ea 17 3e 5b 1d 42 bd 6c f3 3f bc
       0.14842409 0.14835438 -0.047391277 -0.011715751
000070 4f e1 4e 3e d1 7a 67 3e 00 ec 0d be 72 99 49 bf
       0.20203136 0.22605444 -0.13859558 -0.78749764
000080 27 8c ea 3d 51 d5 21 3d 44 8f 1c bd 51 ea 46 3e
       0.11452513 0.039510075 -0.038222566 0.19425322
000090 a8 24 5d be ae a9 3a be 5e b0 0d be f7 d9 1b 3d
       -0.21596014 -0.1822879 -0.1383681 0.038049664
0000a0 fc bf 1a be 6e 72 aa 3d e2 dc 4e be 26 33 14 3e
       -0.15112299 0.08322607 -0.20201448 0.14472637
0000b0 f1 ee 9b 3d fd c4 76 3d ec 10 0c 3d 14 66 1c bd
       0.07613934 0.060246456 0.034195825 -0.038183287
0000c0 78 3f ab bd ef 3a ba be 5b f3 05 3f 00 d9 96 ba
       -0.08361715 -0.36373088 0.52324456 -0.0011508763
0000d0 33 89 47 3e 34 a2 90 be e5 ae f8 3d 88 a9 80 b9
       0.19485931 -0.2824875 0.121427335 -0.00024540373
0000e0 8c 2f cc bd ef cb 73 be 1f 6d ec b9 e4 c8 02 3d
       -0.09970006 -0.23808263 -0.0004509473 0.031929865
0000f0 cf a0 00 bf 4d b1 95 bc ca 23 25 bd a9 c6 35 3f
       -0.50245374 -0.01827302 -0.040317334 0.71006256

bias f4 [2]
000000 e2 ea 05 3d be 74 f9 bd
       0.032694705 -0.1218047

weight f4 [1, 32]
000000 6e 2e 2a 3f 1f 8f 33 3f 7f e5 2c 3d 65 fe 46 3f
       0.66477096 0.7014026 0.042211052 0.77731925
000010 38 44 dc bd 14 9e 33 bd 3f ed 34 3f ac 32 30 3f
       -0.10755199 -0.043851927 0.7067451 0.6882732
000020 9d 93 4b 3f ac 62 c8 bd d4 38 9c 3c b1 80 a1 bd
       0.79522115 -0.09784445 0.019070067 -0.07885874
000030 cc bd 2f 3f d9 b1 30 3f 76 c5 7d 3c 04 c6 d9 bd
       0.6864898 0.69021374 0.015488973 -0.106334716
000040 e6 84 d9 3c 9d 16 33 3f 87 03 93 bf ef 2b 21 3e
       0.026552629 0.6995638 -1.1485451 0.15739416
000050 98 0a 32 3f 28 37 3d 3f 9c bf 22 3f e5 17 4a 3f
       0.69547415 0.73912287 0.6357362 0.7894271
000060 c8 1d 47 bc 3d 44 0b 3d a2 6e 52 bd c5 69 fa 3d
       -0.0121530965 0.034000624 -0.05137504 0.12227205
000070 e4 b8 36 3f 7b 81 35 3f 9b 7a 4a 3f 95 50 20 3f
       0.7137587 0.70900697 0.7909333 0.6262296
