data/PPO_runs/20220509-011922/model.pth (torch, 8399 bytes, 7 tensors)

weight f4 [32, 4]
000000 3f 3e 9f 3e 97 84 0c 3d e6 e5 e6 bd 8d 6b 91 3e
       0.31102178 0.034306135 -0.112743184 0.28402367
000010 20 e8 d2 3e 0f b3 66 3e ff ef ab be 71 93 31 bd
       0.41192722 0.22529243 -0.3358154 -0.0433535
000020 a3 71 8d 3e 7c e3 a2 be 30 2b 41 3f bd 4c 18 3f
       0.2762576 -0.31814182 0.75456524 0.59492093
000030 10 36 24 be 49 56 37 3e 99 ae 31 3f 0f 03 9f be
       -0.16036248 0.17904009 0.6940704 -0.3105702
000040 31 7c 95 3e 69 90 f2 bd a2 78 32 3f 5e 04 da 3e
       0.29196313 -0.1184395 0.6971532 0.42581457
000050 1b fb b2 bf 20 0c 49 be 38 32 01 3f a2 7e bb bc
       -1.3982881 -0.19633532 0.5046725 -0.022887532
000060 ee 91 a4 be 99 2e a5 3e fc 05 8d be fd 90 8b 3e
       -0.32142586 0.32262114 -0.27543628 0.27259055
000070 fb 3a fa 3d 5a 2c 9f 3e ff 77 32 3f c8 5f 96 3e
       0.12218281 0.31088525 0.6971435 0.2936995
000080 0b 41 16 3f 33 44 de 3e 10 f8 c0 be 07 db 07 bd
       0.58693 0.43411407 -0.37689257 -0.033167865
000090 85 98 94 3e c8 9e b1 be 58 0d f0 bd 72 82 dd 3d
       0.29022613 -0.34691453 -0.11721295 0.10815896
0000a0 89 71 5b 3c de 2e cc 3e 24 50 54 3e 13 55 9f be
       0.013393768 0.39879507 0.20733696 -0.31119594
0000b0 70 5b 56 be 24 17 89 3e 6a d8 da 3e 49 c6 a2 3e
       -0.20933318 0.26775467 0.42743236 0.31791905
0000c0 a5 52 a1 bf 6e 85 7f be d8 92 81 bd 9d 00 bb 3d
       -1.2603346 -0.24953243 -0.06326836 0.09130976
0000d0 91 41 1b 3f 9f 61 19 3f ce 8e dc 3f ef e4 46 3f
       0.6064692 0.5991458 1.723108 0.77693075
0000e0 3d ea 66 be 8c 2e ca 3e 0d c3 c9 3e 07 b7 06 3f
       -0.22550292 0.39488637 0.39406624 0.5262303
0000f0 cd 60 04 3f b9 c2 98 3e b4 5c a6 3f 69 0c d8 3e
       0.51710206 0.29836062 1.2997041 0.42196968
000100 08 67 86 3e 83 b1 7c bd 33 8c 79 3e d0 72 91 3e
       0.26250482 -0.061692726 0.24369888 0.28407907
000110 50 09 50 3e 98 a5 cb be 76 7e 6f bd 30 01 0d 3f
       0.20316052 -0.39774776 -0.058470212 0.55079937
000120 33 6b dc bd 0a 4c 31 be ca af a5 3e 9f 37 9b bd
       -0.10762634 -0.17314163 0.3236068 -0.07578968
000130 1d 92 27 be 94 d1 46 3e 0c 32 f7 bd 56 95 4d be
       -0.16364332 0.19415885 -0.120700926 -0.20076498
000140 d6 20 e3 3e 99 9c 40 be 38 b8 d4 3e 37 3b f4 be
       0.4436099 -0.18809737 0.41546798 -0.47701427
000150 28 da 8e bd b5 76 3f 3e eb d2 87 be 84 ab 7a 3e
       -0.06975204 0.18697627 -0.26528105 0.2447949
000160 c4 cf 83 be 17 44 cc 3e 85 a5 c1 bd 2e 66 5f 3e
       -0.2574445 0.39895698 -0.094553985 0.21816322
000170 41 4a 20 3f a9 51 0b 3e 23 70 22 40 9a 23 a0 3e
       0.626133 0.1360537 2.5380943 0.31277162
000180 7c 30 ae 3d 22 fb 2f 3e ab 1e 66 3f 26 77 d9 3e
       0.085053414 0.17185643 0.89890546 0.42473716
000190 1a a6 c7 bd 8c 5d f2 3c 76 02 89 3e dd 8d 41 3e
       -0.09748478 0.029585622 0.2675969 0.18901773
0001a0 b1 7c 63 3e f3 89 b6 be 1a b8 c9 bf f5 f0 ec be
       0.22215535 -0.35652122 -1.5759308 -0.46277586
0001b0 f8 05 a6 3e 6b e1 75 3f bf 65 a3 3f f1 6c 20 3f
       0.3242643 0.96047086 1.2765425 0.6266623
0001c0 36 4d ab bf 13 0b e9 be 32 c8 a5 bf 36 5b a3 be
       -1.3382938 -0.4551626 -1.295172 -0.31905526
0001d0 e3 78 a4 3e e0 ee f6 be 27 94 25 3e 85 db 3a 3d
       0.3212348 -0.48229122 0.16169797 0.045619506
0001e0 1f 38 84 be 3a 99 fe 3e f0 41 b6 3e 51 00 01 be
       -0.25824067 0.49726278 0.3559718 -0.12597777
0001f0 bb 87 82 be e1 3e 0f bf 28 4e de bf 21 ba 0b bf
       -0.2549418 -0.5595532 -1.7367601 -0.54580885

bias f4 [32]
000000 ee ae 8c 3f 0f 6c 5f 3f 07 b0 3c be b7 9d 5f 3f
       1.0990884 0.8727426 -0.18426524 0.8735003
000010 3f 28 54 3f b1 10 c1 bd 03 c6 03 bf c8 f2 63 3f
       0.8287391 -0.09427012 -0.51474017 0.8904233
000020 18 fb 33 bf dc 47 1c 3f 0c e7 73 3f e8 e6 5a 3f
       -0.70305014 0.6104715 0.95274425 0.85508585
000030 01 50 0b 3c a3 48 d5 bd 53 dd 70 3f 1d ad 37 bf
       0.008502961 -0.10414245 0.94087714 -0.71748525
000040 dc a9 7f 3f d4 0b 51 3e b3 a0 88 3f 15 b2 85 3f
       0.9986856 0.20414668 1.0674042 1.0444971
000050 90 37 6a 3f b5 7e 1f 3f fc b7 80 3f ac d6 8e be
       0.9149103 0.62302715 1.0056148 -0.27898157
000060 1e ea 50 3f e8 d6 75 3f 80 ff 8e be 76 2b 80 bd
       0.81607234 0.96031046 -0.27929306 -0.062582895
000070 ed 40 76 bd 39 26 16 3f d7 d5 6c 3f fb c8 0c be
       -0.06012051 0.58652073 0.92513794 -0.13748543

weight f4 [32, 32]
000000 a4 22 d2 3e a6 57 08 3f b0 9c 3f 3d ae 5b 18 3f
       0.41042054 0.5325874 0.04678029 0.5951489
000010 6d a6 c3 3e 9b 8c 89 bf 33 f9 19 3e 0c db 30 3f
       0.3821291 -1.0746034 0.15036468 0.6908424
000020 9a b5 64 bf 04 99 07 3f ac 13 10 3f 71 a2 3b 3f
       -0.893396 0.5296786 0.56280017 0.7329474
000030 77 4d e1 be fb 1f 18 bf 64 2f 2c 3f 17 11 79 bf
       -0.44004413 -0.594238 0.6725981 -0.972917
000040 8f a8 24 3f 8c 53 26 3e b6 28 2c 3f d5 8d 19 3f
       0.643197 0.16242808 0.6724962 0.59982044
000050 60 62 8d 3e b8 8a d1 3e d7 64 07 3f b5 72 24 bf
       0.27614117 0.40926147 0.52888244 -0.6423753
000060 1f b4 16 3f 7c 6c 30 3f fb 0f 70 bf e9 d6 44 bf
       0.5886859 0.68915534 -0.93774384 -0.76890427
000070 af 78 a3 bf 92 62 c9 3e a0 f0 fc 3e 01 92 89 bf
       -1.2771205 0.39333016 0.49402332 -1.0747682
000080 6c 9a c6 3e 85 c3 11 3f 67 f3 fb bd 80 7c d7 3e
       0.3878969 0.56938964 -0.12302285 0.42087173
000090 e1 f8 df 3e b8 80 8a bf a5 e9 14 3d e0 b8 1a 3f
       0.43744567 -1.0820532 0.036355633 0.60438347
0000a0 56 19 4a bf 1f db 1a 3f 08 38 e4 3e c0 04 ef 3e
       -0.7894491 0.604906 0.44573998 0.4668331
0000b0 8b e3 22 bf 39 1a 3e bf d5 ca ae 3e e1 c4 3b bf
       -0.63628453 -0.7425876 0.34139124 -0.7334729
0000c0 ef 96 d6 3e fd c9 df 3c 0a 3a 2d 3f ed 4f 2b 3f
       0.41912028 0.027317995 0.67666686 0.6691883
0000d0 93 4d 14 3f b4 27 f6 3e b6 c1 3e 3f fa ca 80 bf
       0.5793087 0.48077166 0.7451433 -1.0061944
0000e0 84 10 fb 3e d9 e0 03 3f 7e 9f 35 bf 47 66 3a bf
       0.49036038 0.51514965 -0.7094649 -0.7281231
0000f0 b8 48 9f bf a8 a2 0f 3f d9 3f 24 3f 67 06 89 bf
       -1.2444067 0.5610757 0.64159924 -1.0705079
000100 1e 85 41 be e3 27 76 be a8 f0 48 be 9f cc d2 3b
       -0.18898436 -0.24038653 -0.19623053 0.006433084
000110 67 d0 89 be b8 9d 2b bd d2 39 8c 3d 8f 63 6b bd
       -0.2691681 -0.04189846 0.06846966 -0.057467993
000120 66 93 ae bc 9b 3c df bd 77 2e 69 bb 5d 3e 78 be
       -0.02131052 -0.109002315 -0.0035580674 -0.2424254
000130 0e 5f 6c be 21 0a db bc a1 7d 71 bd dd fa 17 be
       -0.23083135 -0.026738228 -0.0589577 -0.1484179
000140 01 2d 97 3c bd a6 eb 3c a0 18 83 be c7 4b 10 bd
       0.018454077 0.02876603 -0.25604725 -0.035228517
000150 3d 2e 1a be 7f 97 76 bd 19 00 93 bd 10 6b 85 3c
       -0.15056701 -0.06020307 -0.07177753 0.016286403
000160 94 32 ae 3c 41 62 33 bb 49 92 1d be 24 6a 8d 3d
       0.021264352 -0.0027371796 -0.15387835 0.0690501
000170 06 2b 5a bd 5e 9d fa 3c 2b ee 21 bb 78 81 93 bd
       -0.053263687 0.030592617 -0.002470861 -0.072024286
000180 95 96 e1 3d cf ad 06 bd 60 f5 d9 3d a9 5a 5d be
       0.11015049 -0.0328806 0.10642505 -0.21616615
000190 a7 4f 65 bd 8a ec 1a 3d f6 10 cd 3d 33 e8 c4 bd
       -0.055984166 0.037823237 0.10013001 -0.09614601
0001a0 44 1b 82 bd c4 75 47 3d 19 8f b2 bd a2 0b 37 be
       -0.06352857 0.048696294 -0.087187 -0.17875531
0001b0 54 0b 3f bd 0c 6d 28 3d b9 83 53 be 28 22 4b 3d
       -0.046641663 0.04111962 -0.20655717 0.04959312
0001c0 16 97 2e be 97 49 2f bd a2 03 4f 3c 75 c7 1b 3d
       -0.17049822 -0.04279479 0.0126351435 0.038032014
0001d0 24 31 73 3d 62 70 1b bd ac 01 98 bd 71 91 b2 bd
       0.059373036 -0.037948973 -0.07422194 -0.08719147
0001e0 b9 1d 00 3d e5 1d 50 be aa 6b b5 3d 1d 75 33 be
       0.031278346 -0.20323904 0.08858426 -0.17525144
0001f0 a7 01 23 be 35 1a 61 3d ce 90 74 bd 42 b9 2d bc
       -0.15918599 0.054956634 -0.05970841 -0.010603251
000200 dc 50 1a be 86 73 97 3d f6 e8 db bd 15 95 6a be
       -0.15069908 0.07395081 -0.10737793 -0.22908433
000210 ce 15 f1 3c 2c d2 55 bd a8 20 6c bd 52 57 0d bd
       0.029429343 -0.05220239 -0.05764833 -0.034507103
000220 a0 04 d3 3c 78 a6 13 be c8 af 03 bd f0 71 08 be
       0.025759041 -0.14418972 -0.03215006 -0.13324714
000230 be 50 fb bd 80 67 43 bb f7 bd 99 3d 80 9a fe bb
       -0.1227126 -0.002981633 0.07506936 -0.0077698827
000240 b3 48 07 be 36 68 4a be 16 65 45 3d 60 73 2b be
       -0.13211326 -0.19766316 0.048192106 -0.16743231
000250 3e 54 f9 3d b4 99 6b 3d db 38 1f bd aa 39 bb bd
       0.12174271 0.05751963 -0.03887258 -0.09141858
000260 3c e9 ed bc a9 c9 e8 3d ca 2a d4 3d eb 5a d7 bd
       -0.029041879 0.113665886 0.10359724 -0.10515388
000270 58 3d e5 bc a8 18 10 be 1f f9 44 be 47 0f bc bd
       -0.027983353 -0.14071906 -0.19235657 -0.091826014
000280 d9 bc 86 be 48 e8 7d be 0a 21 89 be 15 dd 84 bd
       -0.26315954 -0.2479564 -0.2678302 -0.064874806
000290 5a e7 3f 3c 19 d8 cf bd 67 c4 fe bd d8 b9 21 3d
       0.011712873 -0.10148639 -0.124398045 0.039483875
0002a0 dc 5c 30 bd d2 2a d5 bd 76 6f 90 be a8 8e cd 3c
       -0.043057308 -0.10408558 -0.28210038 0.025092438
0002b0 e9 df c4 bd 49 21 04 3e 7a 14 c9 3c a6 86 8a bd
       -0.0961302 0.12903322 0.024545897 -0.067639634
0002c0 88 22 29 3d b8 4e 8c 3c e7 4f c1 bd 71 0f 38 bd
       0.041292697 0.01712738 -0.09439068 -0.0449366
0002d0 9b 75 78 bd 60 fd 02 be 71 a7 69 be 97 4e 66 3b
       -0.060659032 -0.12791967 -0.2281778 0.0035142058
0002e0 39 fc 26 be 10 59 1c bd d6 fb 71 bd 51 cf 97 3d
       -0.16307153 -0.038170874 -0.05907806 0.07412589
0002f0 0f 89 87 be c1 62 85 3c 9b e9 8b be 0d cd 89 bd
       -0.26471755 0.016282441 -0.27326664 -0.067285635
000300 b6 5a 0b 3f 1d 9b 1e 3f bc b9 78 3c 54 9c 24 3f
       0.5443529 0.61955434 0.015181001 0.6430104
000310 39 d7 7d 3e 6e 5a 3d bf a4 79 d7 bc fe 4e 0d 3f
       0.24789132 -0.7396611 -0.02630312 0.5519866
000320 e3 f8 3e bf bd 32 0c 3f 81 34 d8 3e e9 dd b2 3e
       -0.7459852 0.5476492 0.42227557 0.3493493
000330 a0 79 1b bf 5d 10 3c bf ce 22 ae 3e 7b d6 31 bf
       -0.6073246 -0.7346247 0.3401093 -0.69467896
000340 80 d6 ac 3e 9a 16 78 3d dd 0f 14 3f f2 7f 00 3f
       0.337574 0.06056843 0.57836705 0.5019523
000350 5e 08 44 3f 82 ae a6 3e 39 5b 13 3f bb 4e 51 bf
       0.7657527 0.32555014 0.5756107 -0.8176076
000360 30 5f 35 3e 90 f5 1c 3f b8 db 11 bf a9 20 3a bf
       0.17712092 0.613122 -0.5697589 -0.72706085
000370 36 35 43 bf 7b e9 3e 3f 3e d8 35 3f 1a b2 42 bf
       -0.7625307 0.7457501 0.71033084 -0.7605301
000380 e3 ff 6e 3e 27 63 0b be cf 83 7b 3e e9 06 1d 3e
       0.233398 -0.13612042 0.24562 0.15334667
000390 6b b7 69 3e 84 5d d1 3e c4 d9 ac 3d 8b 24 06 3f
       0.22823875 0.4089166 0.08439973 0.5239951
0003a0 ab 46 49 be 32 f5 f0 bd e4 a6 44 be 23 c8 4d 3e
       -0.19655864 -0.11765517 -0.19204289 0.20095877
0003b0 cc a6 9b 3e 8f 38 8a 3f 7d 3f 9b 3e 47 e8 f4 3e
       0.30400693 1.079851 0.30321875 0.47833464
0003c0 93 84 7f 3e a9 a5 5d 3d 1c 95 f9 bd ed 00 38 be
       0.24952917 0.054113064 -0.121866435 -0.17969103
0003d0 2b 87 82 be d9 80 5a be b3 f1 43 3e 06 31 87 3f
       -0.2549375 -0.21338214 0.1913517 1.0561836
0003e0 2d 63 ba 3e 14 b4 19 3e 90 b5 eb bf 9a 49 86 3f
       0.3640379 0.150101 -1.8414783 1.0491211
0003f0 f2 45 d0 3d 34 b2 d1 be 3f 97 0a bd a4 b7 a7 bf
       0.10169591 -0.4095627 -0.033835646 -1.3102918

bias f4 [32]
000000 d7 ca 9c 3e f1 bb f0 3e dc 50 80 bd eb a8 e4 bd
       0.30623505 0.47018388 -0.06265423 -0.11165031
000010 25 51 f6 bd 0c ee 23 3d 76 cb 0f 3f 73 1b cf bd
       -0.12027196 0.04002194 0.5616983 -0.101126574
000020 b2 b2 08 be ca 39 03 3f cd 0e 63 be f9 b6 8b 3d
       -0.13349417 0.51260054 -0.22173615 0.06822009
000030 1b c1 80 be 02 cb f4 bd eb 7e 53 be 7d 57 01 3d
       -0.25147328 -0.11952783 -0.20653884 0.031577576
000040 f0 f8 a5 3e 73 db d5 3e 66 11 fb 3e 2a 8a 87 be
       0.32416487 0.4176899 0.4903671 -0.26472598
000050 9e b7 f7 3e 7e cc 63 be 43 ff a4 bd 8a fd 1c 3f
       0.48382276 -0.22245976 -0.080565 0.6132437
000060 f8 58 08 3f de ef f0 bd f9 65 20 3f a2 76 ce 3e
       0.53260756 -0.11764501 0.626556 0.40324885
000070 db f1 f1 3e d6 da 23 3f e0 0a 90 3c ee 12 28 bd
       0.47254834 0.6400579 0.01758331 -0.041033678

weight f4 [2, 32]
000000 95 8d b2 bd ff b5 6c 3d 5e 1d 56 3e a2 fa 0d 3e
       -0.08718411 0.057790753 0.2090964 0.1386514
000010 de 78 a2 3d 9d 80 e8 bc 99 b6 a7 3e 98 6a 84 bf
       0.0793321 -0.02838164 0.32756498 -1.034503
000020 ee 4e e6 3d 6f 5a da 3d cc 78 62 be f5 70 9d bd
       0.112455234 0.1066178 -0.22116393 -0.076875605
000030 ca 61 48 3e cd 4d 16 3e c7 c4 aa 3d db d2 fe 3d
       0.19568554 0.14678116 0.083383135 0.12442561
000040 e9 57 80 3d 5e a3 d4 be a4 e5 4a 3e cc 4b 99 3d
       0.062667675 -0.4153089 0.19814163 0.0748516
000050 dd 09 82 be c6 4a c5 bc c2 53 71 be 5d c5 70 3e
       -0.2539815 -0.024083506 -0.23567107 0.23512788
000060 9f d3 3e be 2a 07 18 bd 6b b9 a2 3e 9e 1f 96 3d
       -0.18635415 -0.037116207 0.31782088 0.07330249
000070 86 eb d9 3d 3a db fe bd 9d c2 d6 bd b9 b9 79 be
       0.10640626 -0.12444158 -0.10486338 -0.24387254
000080 d5 dd 08 3e a6 eb 8d bd 25 3f 79 be 34 89 00 be
       0.13365872 -0.06929712 -0.24340494 -0.12552339
000090 d1 3e 7d 3d 75 37 1b 3e a0 95 18 bd 6a df 8f 3f
       0.061827485 0.15157874 -0.03725207 1.1240056
0000a0 12 80 ae 3d 2a 8d b6 3c cf 61 cb 3d a6 f3 48 3e
       0.08520521 0.02228411 0.09930765 0.19624195
0000b0 02 c9 52 bc 03 8b 65 bd d0 08 9d bd dd 9a bd bd
       -0.012865307 -0.056040775 -0.076676965 -0.092580535
0000c0 11 e0 67 3c 31 22 2c 3e 18 86 c1 bd a0 c7 df 3d
       0.014152543 0.16809918 -0.094494045 0.10926747
0000d0 27 6c 5a 3e 53 27 3a be 5f e2 a6 3d 1a fc ac bc
       0.2133032 -0.18179063 0.081486456 -0.021116305
0000e0 3f 20 51 3e 53 34 02 3e 6e 3a 54 be 13 c7 65 be
       0.20422457 0.12715273 -0.20725414 -0.22439222
0000f0 70 85 7a 3c 79 9b d9 3d aa 07 f4 3d 54 28 df 39
       0.015290603 0.10625357 0.11915524 0.0004256392

bias f4 [2]
000000 ea e3 16 3e 18 2c 2d 3e
       0.1473538 0.16911352

weight f4 [1, 32]
000000 f2 5b 46 3f 3a 98 4d 3f c0 0b 97 bd d9 4d 47 3d
       0.7748405 0.80310404 -0.07375288 0.048658226
000010 e8 25 fe bc d4 f5 3f 3c 0c 6b 53 3f 9f 24 89 be
       -0.031023934 0.011716325 0.82585216 -0.26785752
000020 32 c8 58 bd 57 05 3e 3f 1f 27 33 bd be 46 01 3d
       -0.052925296 0.742269 -0.04373848 0.031561606
000030 b5 01 69 bd e0 96 9b bc 53 ea 87 bd 70 bc cb bc
       -0.056886394 -0.018992841 -0.06636491 -0.024870127
000040 b3 97 3b 3f fe b5 30 3f 8c 8e 2b 3f c4 ff 5a bc
       0.7327835 0.690277 0.67014384 -0.013366643
000050 fe 5b 49 3f 86 00 9f bd ff de 2c bd af 30 28 3f
       0.78655994 -0.07763772 -0.042204853 0.65699285
000060 3e 63 3c 3f f5 35 54 bd 8e 70 3e 3f 62 c1 60 3f
       0.7358893 -0.05180927 0.74390495 0.8779508
000070 ff 46 3f 3f 40 62 2e 3f 08 7d 2a be 09 76 87 bd
       0.74717706 0.6811867 -0.16649258 -0.0661431
