data/PPO_runs/20220509-030348/model.pth (torch, 8399 bytes, 7 tensors)

weight f4 [32, 4]
00000000: 5d65 7f3d dc21 ab3b 4846 9f3e 1093 d53b
00000010: 4dba 873e bb19 fabd 1cd2 c2be 46eb 0e3e
00000020: 2b7e b93e 746d 1fbe bca0 903d 3580 843e
00000030: f110 3fbf ebc0 37be fa7f 5fbf e4be 88be
00000040: ff4d ab3d f992 083e b3fa c63e 593f 9a3e
00000050: dfe8 393e 63f3 b3bd 9805 92be 5c05 0abf
00000060: 5f4c 60bc fddd ac3e 7cf4 eb3d ef90 cabe
00000070: 573e d33e 3368 0abe 238a 8fbf cc86 51bf
00000080: 7db5 83be 283b 1c3f 92b1 b43e 3150 b8bd
00000090: 1b48 05be d35a e43d 4810 e13e 957c f3bd
000000a0: 55f0 11be 411e 613e 5806 b8be d086 473e
000000b0: ba68 0f3e 0ad5 87be 3266 79bf 8eaa 5dbf
000000c0: 2202 003e e63c 77be f0bf 033d 9396 cdbe
000000d0: f974 aa3e 851a 66be e8b2 4dbf 404b 1cbf
000000e0: c933 3b3f 1275 073f ebdd c9bd 0aa4 1d3d
000000f0: 8735 063d c2ad 7a3e c10c 5fbe deb1 ccbe
00000100: f777 2bbe 8e8c 85be f634 a2bf 8879 03bf
00000110: 6296 0dbd 0a4e 56be bad2 443d 4e2a 7bbe
00000120: 3840 403e 4dea 2d3e 5b77 633e 9fed 30be
00000130: 88df 49be d7fd aebe 7d4e f6be 65a2 833e
00000140: 2c43 dbbd 9bf8 cfbd a081 be3d 6ee2 ad3e
00000150: 4056 d3bd e338 efbe beaf c5bd af91 ed3e
00000160: cf19 603e 02db d93e 13e7 a83e 9234 e2be
00000170: c039 c83e dd37 c6be cdcd a63e 681d 8bbd
00000180: c37b 1a3e 9103 43be 2444 fdbe aa75 dbbe
00000190: 1bd6 23bf 9153 81bd 9e0a 80be c8d4 263e
000001a0: afb6 70be afab abbe ec2a d83c 4c93 94be
000001b0: f344 183f 29ab 3dbf 6027 44bf 4229 533e
000001c0: 20cc 543c 6c8c a73e 8271 133f c4f4 87be
000001d0: e49f b3be 91cb c93e 864a 2d3f fe00 a93e
000001e0: 9f14 383f 29cb 093f f873 df3e b2db e43e
000001f0: e2e9 32be 7b18 91bd bec8 ec3e c81b 9bbe
0.062352527 0.005222542 0.31108308 0.0065177754 0.26509324 -0.12211939 -0.38050926 0.13956937
0.3622907 -0.15569097 0.07061908 0.25879064 -0.74635226 -0.17944686 -0.8730465 -0.26708138
0.08364486 0.13337316 0.38863143 0.30126455 0.1815524 -0.08786657 -0.28519893 -0.5391443
-0.013690083 0.33763114 0.11521241 -0.395637 0.412585 -0.13516311 -1.1214031 -0.8184631
-0.25724402 0.61027765 0.35291725 -0.0899967 -0.13015787 0.11150136 0.43957734 -0.118889965
-0.14251836 0.21984197 -0.3594234 0.1948502 0.14004794 -0.26529723 -0.9742156 -0.8658837
0.12500814 -0.24144325 0.032165468 -0.40153942 0.33292368 -0.22471054 -0.80351114 -0.6105232
0.7312589 0.5291301 -0.098567806 0.038486518 0.03276589 0.24480346 -0.21782209 -0.39979452
-0.16744982 -0.26083797 -1.2672412 -0.51357317 -0.034567244 -0.20928207 0.048052527 -0.24527857
0.18774498 0.1698391 0.22213499 -0.17278145 -0.19714177 -0.3417804 -0.48106757 0.25709835
-0.107061714 -0.101548396 0.09302068 0.33961815 -0.10319185 -0.4672309 -0.09652661 0.4640021
0.21884845 0.42549902 0.32988796 -0.44180733 0.3910656 -0.38714495 0.3257889 -0.06792718
0.15086274 -0.19044329 -0.4946605 -0.42863208 -0.63998574 -0.06314767 -0.250081 0.16292107
-0.23507188 -0.33529422 0.026387654 -0.2901863 0.5948021 -0.74089295 -0.7662258 0.20621207
0.01298812 0.3272432 0.57595074 -0.2655393 -0.35082924 0.3941312 0.6769184 0.3300857
0.71906465 0.5382562 0.43643165 0.44698864 -0.17472032 -0.070847474 0.46246904 -0.30294633

bias f4 [32]
00000000: 3969 223f 9714 153f cde3 533f b77d 39be
00000010: b9b8 353f be47 473f 127f 803f 1995 56be
00000020: ac1d bd3e 77c9 04bf d2db fe3e bc9f 30be
00000030: ea9f 413f 0be6 7a3f 585f e8be 1cfe 633f
00000040: 5e00 12be 60b3 763f e1bb 6a3f c3bb fc3e
00000050: e5ac 1b3f 6bc0 2e3f e4bc d63e 174c 1f3f
00000060: aa38 513f 7e6f acbe 56da 013f 1af0 b83e
00000070: 309e 523f 2843 2e3f 1608 57be b575 783f
0.6344181 0.5823454 0.8276947 -0.18114363 0.7098499 0.77843845 1.0038779 -0.20955314
0.369367 -0.5186991 0.49777085 -0.17248434 0.75634634 0.9800727 -0.45385242 0.89059615
-0.14257953 0.96367455 0.9169293 0.49362 0.6081069 0.68262357 0.41940987 0.6222548
0.8172709 -0.33678812 0.5072378 0.36120683 0.82272625 0.6807122 -0.20999178 0.97054607

weight f4 [32, 32]
00000000: 53fc 2abe 880c c4bc aacc f43d 3007 2f3d
00000010: 5d9c 2d3e 64e3 7e3d c60e 2abe 5ddd 1c3e
00000020: 0405 6bbd bca6 3c3d 5814 17be c0c2 01bc
00000030: 07f7 8ebd e57e 2dbe c244 af3d 28b7 44bd
00000040: d496 35bd 3a16 c03d d2f2 a7bd a8be 40bd
00000050: b417 b4bd f0a3 95bc ce48 af3d cb7b 043e
00000060: f0dd cf3c 4967 013e 804e 243c 76f2 cebd
00000070: bee0 ed3d 700c 7a3d 4b83 b4bd 4fb7 2bbe
00000080: 7afd d83e 304d 173f 2e72 033f a62d acbe
00000090: 39ee 1f3f 1495 913d fd4a c33e 2de1 30bf
000000a0: 18b9 7c3e 0182 f73c 9649 e23e 440e 01bf
000000b0: 95cf a23e fd86 433e 604a 45be 978f bf3e
000000c0: a439 1abf 84fc 7e3e 921a 9a3e 9adb 983e
000000d0: 9eb0 623e bd75 f33e 22e7 4e3e 0062 1e3f
000000e0: 8249 4f3e 1e99 b2be db7b b53d b718 9c3e
000000f0: 2039 8e3e 4c37 b13e fc02 fdbd 7f13 b13e
00000100: 5b1e b13e ac3b 073f 9cd6 133f 8d00 ccbe
00000110: 208c 2e3f 1eca 2f3e 93ae b43e e3f5 0ebf
00000120: 3381 fd3e 9e42 a4bd 0864 013f e9f0 0bbf
00000130: 607f 813e 93b5 943d d623 abbe fedd e23d
00000140: 590d 3abf fc5e aa3e a217 023f ef06 733e
00000150: 1cca 153f 046e 8d3e c269 763e 5a42 223f
00000160: 9a2f c53d f02b 98be b1cf af3d 2a48 f63e
00000170: c6a6 e23e 27ca fe3e 9b95 223d 3a4c b93e
00000180: 2d63 99bd 84c8 62bd 7cf0 1bbe b2de d63d
00000190: 481c e4bc 3d81 2f3e d80b a6bd f61d f0bd
000001a0: bcf5 7d3d ff2e babd 777d 0f3e a5a7 8abd
000001b0: 2367 003e c674 28be 16c3 18be d2b0 2fbe
000001c0: 6c9d 2bbe 00b7 853b 971e 02be f871 33bd
000001d0: 7a2f f0bd 4c52 483d 9796 333e b8d2 863d
000001e0: b467 6bbd ea61 1cbe e7cf 10be 322f e93d
000001f0: 5801 cb3c f1a3 82bd 50d7 733c 345a f4bd
00000200: 5119 c8bb 359c c6bc 49f1 57be 5084 6c3d
00000210: 1aea 6e3d 663c 673d 5396 2bbe 1547 03be
00000220: e1c9 ea3c 3103 83bd 9f3b 273d eebe b63d
00000230: 4f72 67bd b457 3e3d 5b03 5c3c a415 acbd
00000240: 75fe fbbd d694 273d 244d 52be a0f4 02bd
00000250: 789f f9bd 5025 45be bf68 42be 9856 0fbe
00000260: 0e98 41be 4ff4 1abe 8961 0fbe 7a0d 5d3d
00000270: 1f07 6a3d f776 673c 9ed4 33be a31c 953d
00000280: d69f a93e 5693 c03e 9d0f cf3e e503 79be
00000290: fe83 863e de41 cb3e 3626 8c3e 24ac 10bf
000002a0: 2748 fd3c 0c3d 20bd 4515 ae3e 181c 26bf
000002b0: 6618 f03e 88d8 893e 9a59 d6be eb68 6e3e
000002c0: 852b 25bf bc0d 003f 3727 0a3f 0472 b43e
000002d0: 3dc2 c33d 545d cc3e 0451 f83c 8feb bd3e
000002e0: 37ab 8e3e 06b6 49be 0148 903e 9c2b f63e
000002f0: e5b0 013f 8e71 d23e 4dce b3be 6114 ac3e
00000300: 0a18 00be 400d 113d fa4a 83be b41c 3e3d
00000310: c15d 22be c828 83be 2b85 fdbd ca15 34be
00000320: ceb3 98bd 8918 883c 5157 28be d180 16be
00000330: a1c0 91bb fc6c 2dbe b22b 82bd 10d4 16bd
00000340: e702 efbd 1fa4 19be 3409 7b3d 718c 8dbe
00000350: 656c c73b fd00 433c fd1d a1bd db28 d9bd
00000360: 3c12 07be e5bc 0abe 9f40 8f3d 2484 fdbb
00000370: b138 8bbc d44c 93be 38c9 51be 27c2 223c
00000380: b465 ab3d 2fe9 193d 9f96 27be c059 acbc
00000390: 8b90 7abe da4b a1bd 077b 11be b0a0 10be
000003a0: 559a bebd 9bc1 253d 834c 35bd 027b 4ebe
000003b0: bb5a 8abc e763 0dbe 6580 8abc 59b2 e5bd
000003c0: 06cb 2ebe afec 27be ed32 0abe 942a a43d
000003d0: 1fd2 843d 2ad8 82bd d252 a13d 9c33 57be
000003e0: 2de6 603d 27b7 aabd 2dd3 ddba a4da 6cbe
000003f0: d28c 993d c232 68be f184 cfbd e182 b6bd
-0.16697817 -0.023931757 0.11953099 0.042731464 0.16954179 0.062228575 -0.16607198 0.15318818
-0.05737783 0.046057448 -0.14753854 -0.007919967 -0.069807105 -0.16942938 0.085580364 -0.048026234
-0.044333294 0.093792394 -0.08200611 -0.047056824 -0.087935835 -0.018266648 0.08558808 0.12937848
0.025374383 0.12637056 0.0100284815 -0.101048395 0.11615132 0.061047018 -0.08814105 -0.16769145
0.42380887 0.59102154 0.513461 -0.33628577 0.62472874 0.071085125 0.3814315 -0.6909359
0.24679983 0.030213358 0.44196767 -0.5041239 0.31798998 0.19094463 -0.19266653 0.37414238
-0.602442 0.24901015 0.30098397 0.29855043 0.22137687 0.47550765 0.20205358 0.61868286
0.20242885 -0.34882444 0.08861514 0.30487606 0.27777958 0.346125 -0.12354085 0.34585187
0.34593472 0.5282543 0.5774934 -0.3984417 0.68182564 0.17166945 0.3528944 -0.55843943
0.49512634 -0.08020519 0.5054326 -0.54664475 0.25292492 0.07261195 -0.33425778 0.11077498
-0.72676617 0.33275592 0.5081731 0.23733114 0.5851152 0.27622998 0.24063781 0.63382494
0.0962822 -0.29721022 0.08584536 0.48101932 0.44267863 0.49763605 0.039693456 0.3619097
-0.074896194 -0.055367008 -0.15228456 0.104916945 -0.027845517 0.17139144 -0.08107728 -0.117244646
0.06200193 -0.09090995 0.14012705 -0.06770257 0.12539344 -0.16450796 -0.1491817 -0.17157295
-0.1675927 0.004080653 -0.12706982 -0.04380986 -0.117278054 0.04890661 0.17537914 0.0658316
-0.057471946 -0.15271726 -0.14141808 0.11385955 0.024780914 -0.063789256 0.0148828775 -0.119312674
-0.0061065336 -0.024244407 -0.21088137 0.05774337 0.058328725 0.056454085 -0.16756563 -0.12820084
0.028660716 -0.06397093 0.040828343 0.08923136 -0.056505498 0.04647036 0.013428534 -0.08402565
-0.12304393 0.040913425 -0.2053724 -0.031971574 -0.121886194 -0.19252515 -0.1898527 -0.13997877
-0.1890566 -0.15132259 -0.1400205 0.05396793 0.057135697 0.0141274845 -0.17561576 0.07280853
0.33129758 0.37612408 0.404416 -0.24317892 0.26272577 0.3969869 0.27372903 -0.56512666
0.030918194 -0.03912072 0.34000602 -0.6488662 0.46893615 0.26923013 -0.41865236 0.2328221
-0.6451953 0.50020957 0.5396609 0.35243237 0.095585324 0.39914954 0.030312069 0.3709378
0.27865002 -0.19698343 0.28179935 0.48080146 0.50660545 0.4110226 -0.35118333 0.33609298
-0.1250917 0.035413027 -0.2564314 0.046414092 -0.15856077 -0.2561705 -0.123789154 -0.17586437
-0.0745617 0.016613262 -0.16439559 -0.14697577 -0.004448012 -0.16936105 -0.063559905 -0.036823332
-0.116704755 -0.15004013 0.061288074 -0.2764621 0.0060859197 0.011902091 -0.07867048 -0.10603496
-0.1319055 -0.1354862 0.06994747 -0.0077366997 -0.016994806 -0.28769553 -0.20486915 0.009933985
0.08369008 0.037575897 -0.16366051 -0.02103889 -0.24469201 -0.07875796 -0.14207087 -0.14123797
-0.0930678 0.04046784 -0.04426242 -0.20164111 -0.016888967 -0.13807641 -0.016906926 -0.11215658
-0.17069635 -0.16398881 -0.13495989 0.08015934 0.0648539 -0.06388886 0.07877125 -0.21015781
0.054907013 -0.08335715 -0.0016923897 -0.2313028 0.074975625 -0.22675613 -0.101327784 -0.08911682

bias f4 [32]
00000000: 07a6 12be eeef cf3e 56e6 6d3e 8022 3a3c
00000010: c710 cdbd a99f c33e c0c6 363d 03d6 b23d
00000020: 7f67 f23c c23f e53e 3398 58be 4f3f ab3e
00000030: 4540 3c3e 989f b53c 471c 993d 16d0 32be
00000040: ff25 8a3d 55e1 c93e 61fd 013f d26d dd3e
00000050: f4c2 9c3e 6d62 66be 1781 56be a0a9 5a3e
00000060: 3748 9a3e 9d0e 433e 47ee 083f 32c7 be3e
00000070: bc0c 9a3e 3a7f 8b3d 2deb d03b 8df5 bcbc
-0.14321147 0.4061274 0.23232397 0.0113607645 -0.10012966 0.3820775 0.044623137 0.08732226
0.029590366 0.44775206 -0.2115181 0.33446738 0.18383892 0.022170827 0.074760966 -0.17462191
0.067455284 0.39429727 0.5077725 0.4324785 0.30617487 -0.22498484 -0.20947681 0.2135377
0.3013322 0.19048543 0.5348858 0.3726135 0.3008784 0.06811376 0.0063756914 -0.023066306

weight f4 [2, 32]
00000000: 00de 6d3d 7078 15bd c95c 68be c8f6 9ebc
00000010: c309 853e d9b4 42be 7acd 233e b8cc 3f3e
00000020: 95cb 043e 778b 82be b9c8 7e3d c0f5 363e
00000030: f0bf 813e 9a82 29be 72f8 243e 0d99 90be
00000040: 614a 05be e61f a23d 349b 1e3e b5d0 9fbe
00000050: 41a5 f23c 5707 0b3f 18c4 16be 8b0b d43c
00000060: 20ca 853e 6d8d 85bd fede d4bd 4cbc 753e
00000070: 0a5a bfbd 21f1 033e bee4 8fbd 47e6 c13c
00000080: ec74 d1bd 5a27 a73e f2e5 933e 7846 5b3d
00000090: 4809 85be 6c1f 12be 4413 dcbd dc10 35be
000000a0: af81 39be 2365 983e 47aa 9f3d 1386 66be
000000b0: 6e75 84bd c664 a93d 0b30 913c e5d0 0a3e
000000c0: 3657 b13d 87d2 b5bd 8368 85be 6513 b93d
000000d0: 357c 2fbe 2430 4dbe 5ebd f2bc 7a93 ab3d
000000e0: 83a1 17bd c7fb 6a3d e894 723e e2ff acbe
000000f0: ee25 253e 0088 133b 3509 1cbc 0eff 013e
0.058073044 -0.03649181 -0.22691645 -0.019404784 0.2598401 -0.190143 0.15996352 0.18730438
0.12968285 -0.25497028 0.062203143 0.17867184 0.2534175 -0.16553727 0.161104 -0.28241768
-0.13016655 0.079162404 0.15488893 -0.31213918 0.029619815 0.54308075 -0.14723241 0.02588441
0.26130772 -0.065211155 -0.10394095 0.23997611 -0.093433455 0.12884952 -0.07026051 0.023669375
-0.10227379 0.3264721 0.28886372 0.053534 -0.25983644 -0.14269799 -0.10745862 -0.17682213
-0.18115877 0.2976466 0.0779615 -0.22512083 -0.064677104 0.08271174 0.017723104 0.1355625
0.08659212 -0.088780455 -0.260563 0.09036902 -0.17137225 -0.20037895 -0.029631313 0.08377738
-0.037019264 0.05736902 0.23689616 -0.33788973 0.1612775 0.0022511482 -0.0095236795 0.12694952

bias f4 [2]
00000000: 9c8a 873c 940e ab3d
0.016545586 0.0835239

weight f4 [1, 32]
00000000: d01d 23be c4a1 1b3f 47ed 003f cb51 f4bd
00000010: 372d a4bd b84c 073f bcfe 753c ce03 0dbd
00000020: ea7f 0d3d 41e9 e63e ba43 4bbd 5429 083f
00000030: 859f 203f dde3 21be 464f febc 5d14 8bbe
00000040: 664a 62bc 62c6 ed3e 86cf ec3e 74ff 1a3f
00000050: d276 153f b901 d5be 7512 8dbc 5ef0 ec3e
00000060: d471 1a3f 7944 1d3f 9fb1 033f 1b4d 1d3f
00000070: 7558 053f b034 2ebd bda8 9ebd 27a0 cd3b
-0.15929341 0.6079371 0.50362056 -0.11929663 -0.080164365 0.5285144 0.015014347 -0.034427457
0.034545816 0.45099834 -0.049625136 0.5318806 0.6274341 -0.15809579 -0.03104366 -0.27163973
-0.013811683 0.46440417 0.46252078 0.6054604 0.5838443 -0.41602877 -0.017220715 0.46277136
0.6032994 0.61432606 0.51442903 0.6144578 0.520881 -0.042530715 -0.07747028 0.006275195
