data/20220509-030343/model.pth (torch, 8399 bytes, 7 tensors)

weight f4 [32, 4]
0.27565882 0.4936906 0.7148578 0.18112402 0.1813035 0.22565123 -0.6127236 0.102792256
-0.18886353 0.2754296 -0.27804932 0.01867019 0.32580182 -0.46018073 0.17633438 -0.18688841
-0.58702284 -0.22013201 -0.39751017 -0.32002932 -0.09877548 0.05751416 -0.13153931 0.17198825
-0.26851836 0.63392156 0.93668115 -0.34829417 0.18745221 0.4212459 0.37123597 -0.7323566
0.2613409 -0.21006165 -0.43118674 0.4564384 -0.044530697 -0.17671521 0.37456867 -0.072048105
0.1807015 -0.050341163 0.3691931 0.07241734 -0.0055729253 -0.12183309 -1.1592544 -0.6617297
-0.25378978 0.33124432 -0.47171542 0.15416138 -0.06086445 -0.57881933 -0.029156147 0.24230675
0.1330274 0.1755906 0.26945478 0.35816532 0.39243776 -0.42408273 -0.054395176 -0.4703784
0.3187848 -0.26310074 -0.25461763 -0.5777009 0.03555804 0.16853195 -0.018669862 -0.17704514
-0.17189676 0.42366418 0.6053926 0.47764468 0.05802152 -0.004247524 0.22061397 0.08002682
-0.2546348 0.15539011 -0.5394045 0.29750508 0.18855006 -0.100734055 0.3759246 -0.03978616
0.2637516 -0.47940636 -0.3580964 -0.05637822 0.16551778 -0.12568383 -1.0971153 -0.65849274
0.0662845 -0.087565735 -0.014852995 0.20899291 -0.08959194 -0.47149217 -0.5800423 0.028648755
-0.25671354 0.57010466 0.85006005 -0.05377995 0.012060184 -0.11111371 0.0589577 -0.22381407
0.4710147 0.31162906 0.36845294 0.5997046 0.16295087 0.08486025 -0.53082985 -0.37454683
0.12150438 -0.6161687 -0.7984873 0.33947486 -0.32770377 0.38433787 0.26511893 0.20629187
00000000: 2723 8d3e 04c5 fc3e ec00 373f 9378 393e
00000010: a0a7 393e 1e11 673e 74db 1cbf bf84 d23d
00000020: 7165 41be 1c05 8d3e 7b5c 8ebe 3af2 983c
00000030: 7fcf a63e cf9c ebbe 0091 343e ad5f 3fbe
00000040: 2147 16bf 496a 61be 7486 cbbe e2da a3be
00000050: cd4a cabd f893 6b3d 3eb2 06be b01d 303e
00000060: 3d7b 89be af48 223f 56ca 6f3f 9d53 b2be
00000070: 79f3 3f3e 8bad d73e a412 be3e b97b 3bbf
00000080: 79ce 853e 671a 57be 82c4 dcbe 4bb2 e93e
00000090: d265 36bd d5f4 34be 77c7 bf3e f58d 93bd
000000a0: d009 393e 8932 4ebd e106 bd3e 8b4f 943d
000000b0: 169d b6bb a183 f9bd 7362 94bf 1e67 29bf
000000c0: bcf0 81be db98 a93e af84 f1be 7bdc 1d3e
000000d0: 004d 79bd 812d 14bf dfd8 eebc 431f 783e
000000e0: 5638 083e 06ce 333e faf5 893e 7261 b73e
000000f0: 9aed c83e 5f21 d9be 7acd 5ebd 70d5 f0be
00000100: c337 a33e 24b5 86be 3e5d 82be 35e4 13bf
00000110: 4fa5 113d a493 2c3e 8af1 98bc 524b 35be
00000120: b405 30be 83ea d83e 02fb 1a3f d88d f43e
00000130: f9a7 6d3d d02e 8bbb a1e8 613e 1ae5 a33d
00000140: 7e5f 82be 961e 1f3e 6a16 0abf 9652 983e
00000150: 4413 413e a84d cebd 3079 c03e d0f6 22bd
00000160: 730a 873e c074 f5be 6958 b7be d9ec 66bd
00000170: 7e7d 293e 43b3 00be 466e 8cbf fb92 28bf
00000180: 2bc0 873d aa55 b3bd fa59 73bc 3d02 563e
00000190: fb7b b7bd 6c67 f1be a77d 14bf cbb0 ea3c
000001a0: f56f 83be 61f2 113f 899d 593f 5d48 5cbd
000001b0: 1498 453c 968f e3bd a17d 713d 842f 65be
000001c0: d728 f13e d88d 9f3e dda5 bc3e 3e86 193f
000001d0: 98dc 263e 36cb ad3d 77e4 07bf 9ac4 bfbe
000001e0: 4ad7 f83d 3bbd 1dbf aa69 4cbf a6cf ad3e
000001f0: cac8 a7be efc7 c43e abbd 873e 2d3e 533e

bias f4 [32]
0.06604737 0.9475678 0.5473961 0.56004506 -0.38383794 0.6211467 0.18864615 0.8402191
0.54042274 0.80274665 0.91767716 -0.13395856 0.68621284 0.19376248 0.7168306 0.6167382
0.8324374 0.8327656 0.4858069 0.57636094 0.9155528 -0.496121 0.21943077 -0.16844673
0.6824614 0.12730981 0.16518977 0.524147 -0.10716535 0.8213121 0.32939824 0.73440117
00000000: d843 873d ce93 723f 2722 0c3f 1d5f 0f3f
00000010: 6886 c4be 7803 1f3f 752c 413e 9918 573f
00000020: 2559 0a3f ce80 4d3f e4ec 6a3f 6f2c 09be
00000030: a5ab 2f3f ac69 463e 3682 373f 8ee2 1d3f
00000040: 9e1a 553f 2030 553f afbb f83e 648c 133f
00000050: ab61 6a3f 9203 febe 76b2 603e 4d7d 2cbe
00000060: cab5 2e3f 815d 023e 8227 293e 7f2e 063f
00000070: 8279 dbbd 8341 523f e3a6 a83e b701 3c3f

weight f4 [32, 32]
0.12504235 0.4721711 0.4077228 0.33578187 -0.43037176 0.40602762 0.41217855 0.4906864
0.31514788 0.23427169 0.5265638 -0.29416043 0.4599298 0.22102945 0.28225288 0.3038613
0.4890444 0.5363665 0.16312295 0.4659985 0.36021268 -0.14438975 0.2649995 -0.5860856
0.17101032 0.050747946 0.1066669 0.24009298 -0.32030734 0.3514394 0.3000582 0.5081344
-0.14616384 0.4752316 0.259159 0.3894417 -0.5371202 0.29691017 0.23608194 0.119639024
0.39042374 0.25779957 0.28826034 -0.5671111 0.44725674 -0.046013415 0.3563744 0.3278785
0.24348776 0.49807876 0.26641566 0.52784365 0.53459287 -0.1740907 0.19468296 -0.6756558
0.39488947 -0.06900235 0.302254 0.58554316 -0.43163615 0.2760694 0.07419315 0.25801116
-0.20564201 -0.16772485 0.079372704 0.08347447 0.05181298 -0.16877788 -0.086379915 -0.22685489
-0.02638346 0.02393704 -0.2266376 0.05591341 0.042919558 -0.075035065 -0.23594815 0.1120991
-0.17611252 0.10060528 0.0029311627 -0.21749608 -0.2007789 -0.12369074 -0.064320326 0.024705486
0.07560702 -0.100905806 0.11324121 -0.11332316 -0.16852123 0.10178421 0.05908084 -0.018445218
-0.30547282 0.32548308 0.32659826 0.42708912 -0.18203679 0.16693814 0.5593493 0.63749665
-0.16536772 0.2874068 0.19268101 -0.061820254 0.36218053 -0.10802089 -0.13257672 0.7461677
0.7105018 0.5853334 -0.20183684 0.066291094 0.36223003 -0.063124284 0.35474244 -0.44312298
0.07758664 0.2644616 0.042479157 0.5130609 -0.31824565 0.5548681 0.14317194 0.09463344
0.14183521 0.3614322 0.2129284 0.5410204 -0.44214413 0.547955 0.3353737 0.30076107
0.4984708 0.34312716 0.5809395 -0.41613707 0.44646388 0.06342286 0.49396965 0.29305574
0.19416289 0.44178107 0.325757 0.3376868 0.47914723 -0.0050169677 0.17669861 -0.5816071
0.3743882 0.026518049 0.2911467 0.46200958 -0.045367204 0.16931842 0.33781946 0.5239966
-0.18848617 0.4464148 0.530541 0.48031628 -0.45843273 0.08700481 0.21517503 0.32986966
0.03261877 0.30837455 0.25549203 -0.26277655 0.27388743 0.079930454 0.16028157 0.6830544
0.46632814 0.54790986 -0.12957688 0.3291914 0.18528286 0.048979357 0.3056875 -0.561777
0.36005658 0.0655298 0.054405242 0.584569 -0.34492314 0.6764537 0.091533236 0.14968857
0.1523275 0.3464735 0.50927305 0.41973048 -0.49961472 0.43552154 0.40901607 0.38385323
0.42209464 0.5702025 0.47068045 -0.47242182 0.24702589 0.20629835 0.38870803 0.3539631
0.45013788 0.40650117 0.38442165 0.58080834 0.31629848 0.009616956 0.12356606 -0.5506923
0.5223167 0.107730456 0.31273806 0.5262637 -0.1653096 0.44953492 0.17953748 0.3234673
0.05269194 0.013615262 -0.25447845 0.026428184 0.006358312 -0.19238329 -0.1668879 -0.24323408
-0.1003209 -0.14249678 0.043509208 -0.17367806 0.017867742 -0.15892394 0.07048351 -0.1092624
-0.08275789 -0.20683786 -0.06740967 0.06822263 0.0261086 -0.12162098 0.07532741 -0.11725904
0.041020036 0.032236163 -0.0208183 -0.024708817 -0.009315087 0.041367263 -0.2113589 -0.14158492
00000000: 1a0b 003e 69c0 f13e 0bc1 d03e 9aeb ab3e
00000010: b059 dcbe dae2 cf3e 1109 d33e 3f3b fb3e
00000020: 105b a13e ebe4 6f3e e3cc 063f 329c 96be
00000030: eb7b eb3e 8b55 623e 7383 903e b593 9b3e
00000040: 0764 fa3e 514f 093f b409 273e 5b97 ee3e
00000050: cc6d b83e e8da 13be 04ae 873e b509 16bf
00000060: 541d 2f3e 14dd 4f3d 2d74 da3d efda 753e
00000070: 53ff a3be ddef b33e 3aa1 993e 1915 023f
00000080: f9ab 15be 8e51 f33e 7db0 843e e764 c73e
00000090: b680 09bf 9c04 983e 77bf 713e 4e05 f53d
000000a0: 9fe5 c73e 4efe 833e dc96 933e 312e 11bf
000000b0: d6fe e43e 9078 3cbd b576 b63e b1df a73e
000000c0: db54 793e 2e04 ff3e a267 883e c320 073f
000000d0: 14db 083f d544 32be f85a 473e c7f7 2cbf
000000e0: f42e ca3e 1b51 8dbd 09c1 9a3e 28e6 153f
000000f0: 6aff dcbe f858 8d3e 94f2 973d 0a1a 843e
00000100: d293 52be 10c0 2bbe 288e a23d aaf4 aa3d
00000110: d939 543d 1cd4 2cbe f4e7 b0bd a64c 68be
00000120: 2022 d8bc 9c17 c43c b013 68be 7605 653d
00000130: 6bcc 2f3d fcab 99bd 649c 71be 3794 e53d
00000140: d756 34be 240a ce3d c018 403b 4bb7 5ebe
00000150: fc98 4dbe 9251 fdbd 60ba 83bd 2963 ca3c
00000160: dad7 9a3d b4a7 cebd 02eb e73d f915 e8bd
00000170: d490 2cbe 3d74 d03d c0fe 713d 6d1a 97bc
00000180: ef66 9cbe b8a5 a63e e337 a73e 6dab da3e
00000190: da67 3abe d5f1 2a3e 8431 0f3f fb32 233f
000001a0: 2856 29be fc26 933e 2c4e 453e 3c37 7dbd
000001b0: ba6f b93e 0e3a ddbd 31c2 07be d904 3f3f
000001c0: 72e3 353f 69d8 153f 51ae 4ebe a0c3 873d
000001d0: 3776 b93e 4e47 81bd cda0 b53e 04e1 e2be
000001e0: bfe5 9e3d 8367 873e a0fe 2d3d f657 033f
000001f0: 18f1 a2be d60b 0e3f aa9b 123e 2dcf c13d
00000200: 403d 113e a40d b93e e709 5a3e 5080 0a3f
00000210: b760 e2be c746 0c3f 1ab6 ab3e 5bfd 993e
00000220: 9137 ff3e 5dae af3e 73b8 143f eb0f d5be
00000230: ea96 e43e d8e3 813d 97e9 fc3e 670b 963e
00000240: a3d2 463e 2131 e23e 9fc9 a63e 49e5 ac3e
00000250: c952 f53e 6065 a4bb 7bf0 343e 34e4 14bf
00000260: cfaf bf3e 613c d93c 2e11 953e 858c ec3e
00000270: f6d2 39bd cf61 2d3e acf6 ac3e a424 063f
00000280: 8502 41be 7b90 e43e 89d1 073f 04ec f53e
00000290: b2b7 eabe 942f b23d d856 5c3e ade4 a83e
000002a0: 429b 053d 45e3 9d3e dacf 823e a68a 86be
000002b0: f93a 8c3e 94b2 a33d da20 243e a7dc 2e3f
000002c0: 90c2 ee3e d243 0c3f cdaf 04be c68b a83e
000002d0: caba 3d3e 949e 483d 1283 9c3e 9ed0 0fbf
000002e0: 5659 b83e 7d34 863d 08d8 5e3d 50a6 153f
000002f0: c499 b0be 122c 2d3f c775 bb3d f647 193e
00000300: bdfb 1b3e f964 b13e b85f 023f eae6 d63e
00000310: 80cd ffbe aefc de3e 8e6a d13e 6988 c43e
00000320: ca1c d83e cbf8 113f 07fd f03e 46e1 f1be
00000330: 5bf4 7c3e e03f 533e bd04 c73e a73a b53e
00000340: 7978 e63e ec20 d03e ead2 c43e dbaf 143f
00000350: e0f1 a13e 7090 1d3c 3410 fd3d 2cfa 0cbf
00000360: 8cb6 053f c9a1 dc3d 341f a03e 38b9 063f
00000370: eb46 29be 7129 e63e acd8 373e 829d a53e
00000380: 81d3 573d 8c12 5f3c 004b 82be eb7f d83c
00000390: 6359 d03b 2000 45be a9e4 2abe 5b12 79be
000003a0: 0b75 cdbd adea 11be b636 323d a9d8 31be
000003b0: 5f5f 923c f5bc 22be a959 903d f7c4 dfbd
000003c0: f87c a9bd 4ecd 53be 150e 8abd 4eb8 8b3d
000003d0: b4e1 d53c 6c14 f9bd 4245 9a3d 8225 f0bd
000003e0: a004 283d 110a 043d 248b aabc 256a cabc
000003f0: 4f9e 18bc b870 293d 786e 58be a3fb 10be

bias f4 [32]
0.22341423 0.37561893 -0.07927313 0.4947118 0.43778962 0.43758485 0.38490853 -0.23580109
0.5187058 -0.14403893 0.055110283 0.49753705 0.42771068 0.49038407 0.4879536 -0.031368177
-0.21724851 0.5437287 -0.2523845 0.0017529184 -0.07452453 0.012816962 -0.22870167 0.08341682
0.12704037 0.26333597 0.19557573 0.095212266 -0.1571223 0.53298515 0.5230117 -0.23656751
00000000: b3c6 643e 2051 c03e f359 a2bd dd4a fd3e
00000010: f625 e03e 1f0b e03e bb12 c53e d775 71be
00000020: e7c9 043f f17e 13be 52bb 613d 2dbd fe3e
00000030: e5fc da3e 9f13 fb3e 0ed5 f93e eb7b 00bd
00000040: 6576 5ebe ce31 0b3f 8b38 81be 2ec2 e53a
00000050: 51a0 98bd 3cfe 513c c530 6abe 70d6 aa3d
00000060: df16 023e f9d3 863e 0145 483e a6fe c23d
00000070: abe4 20be b771 083f 18e4 053f c13e 72be

weight f4 [2, 32]
0.079884596 -0.06940973 0.23555174 0.385899 -0.1881125 0.25304046 -0.124380425 -0.027538732
-0.03176147 0.08783166 0.1746374 0.13406743 -0.03597405 -0.090732545 0.0628145 -0.012696256
0.006351935 -0.057415016 0.27766994 0.10602354 -0.025022227 -0.10700142 -0.18563542 -0.43381408
0.5905128 0.0019313773 0.136118 0.041683048 0.017386872 -0.18887162 -0.0012014429 0.035409376
-0.004030453 0.14511462 -0.15301938 -0.2648313 0.19288638 -0.063547686 0.11190124 0.08585586
0.084380075 -0.027266378 0.039709043 -0.10063588 0.115872346 -0.1363069 0.015621866 0.069887586
0.06480455 -0.020064106 -0.1556069 -0.041001633 0.2527965 -0.0994483 0.014628774 0.41830862
-0.57107496 -0.007661367 -0.2637771 0.054195404 -0.0071469382 -0.06285321 0.15711108 0.06323796
00000000: 899a a33d b026 8ebd 7a34 713e 8e94 c53e
00000010: 90a0 40be 858e 813e 2abb febd e898 e1bc
00000020: 5118 02bd 16e1 b33d 26d4 323e f948 093e
00000030: 8759 13bd fcd1 b9bd e3a4 803d f503 50bc
00000040: e523 d03b 022c 6bbd c12a 8e3e df22 d93d
00000050: 6afb ccbc 8f23 dbbd 3617 3ebe e11c debe
00000060: d92b 173f 4526 fd3a 8462 0b3e d8bb 2a3d
00000070: ea6e 8e3c 9067 41be bc79 9dba 6c09 113d
00000080: e411 84bb ed98 143e 1db1 1cbe f897 87be
00000090: 0284 453e 4a25 82bd 7a2c e53d 32d5 af3d
000000a0: 76cf ac3d bd5d dfbc f3a5 223d 2f1a cebd
000000b0: 7b4e ed3d 0994 0bbe dbf2 7f3c 3921 8f3d
000000c0: 3fb8 843d 7b5d a4bc 6a57 1fbe 54f1 27bd
000000d0: 8b6e 813e 8dab cbbd 86ad 6f3c 8c2c d63e
000000e0: f831 12bf 340c fbbb cb0d 87be 00fc 5d3d
000000f0: dd30 eabb 2fb9 80bd bae1 203e e782 813d

bias f4 [2]
0.10267353 0.038971663
00000000: 8046 d23d c0a0 1f3d

weight f4 [1, 32]
0.57939947 0.49727517 -0.026981832 0.48191205 0.48278487 0.4774084 0.5023993 -0.08601627
0.5353569 -0.059773374 0.019895755 0.44630197 0.56761944 0.5471477 0.49265528 -0.085868225
-0.020841725 0.5193721 -0.009153681 -0.014773489 -0.08122851 -0.08751928 0.0791231 0.29828063
0.0745716 0.45419455 0.50123566 0.073258474 0.036579676 0.43912968 0.52732855 -0.11177552
00000000: 8653 143f da9a fe3e 0109 ddbc 2dbd f63e
00000010: 942f f73e e06e f43e 3e9d 003f 4c29 b0bd
00000020: 260d 093f edd4 74bd 6cfc a23c b181 e43e
00000030: 824f 113f df11 0c3f 503d fc3e aedb afbd
00000040: 44bc aabc 92f5 043f 52f9 15bc 810c 72bc
00000050: 225b a6bd 4f3d b3bd 4b0b a23d 3db8 983e
00000060: ffb8 983d 308c e83e fb50 003f 8a08 963d
00000070: 92d4 153d 9bd5 e03e 01ff 063f 90ea e4bd
