data/PPO_runs/20220509-030629/model.pth (torch, 8399 bytes, 7 tensors)

weight f4 [32, 4]
0	0xbe214926	-0.1575056
1	0xbeb17fcd	-0.34667817
2	0x3ded8dad	0.11599288
3	0x3df542d0	0.11975634
4	0xbea9c183	-0.3315545
5	0x3ebd0db8	0.3692453
6	0x3f16aa7e	0.588539
7	0xbf198434	-0.5996735
8	0xbe54bce8	-0.20775187
9	0x3df70e4d	0.120632745
10	0xbf9138ca	-1.1345456
11	0xbf4879b4	-0.78310704
12	0x3e763144	0.24042231
13	0xbf02a97c	-0.5103986
14	0xbf84451c	-1.033359
15	0xbe188e4b	-0.1489803
16	0x3e2dfa86	0.16990098
17	0xbf1ae61f	-0.60507387
18	0xbd0f909f	-0.03505003
19	0xbe4cd088	-0.20001423
20	0xbda233cb	-0.07920035
21	0x3e969f92	0.29418617
22	0xbee3c2e5	-0.4448463
23	0x3ed5a9fa	0.41731244
24	0x3e0ce8c1	0.13760664
25	0xbea9c479	-0.3315771
26	0xbf93143d	-1.1490551
27	0x3e817297	0.25282738
28	0xbecd5d72	-0.40110356
29	0x3dc33b52	0.09532799
30	0xbf2b0e1b	-0.668184
31	0x3ea72f15	0.32653108
32	0xbe3bad79	-0.18327893
33	0xbe6f6458	-0.23378122
34	0xbf20856b	-0.6270358
35	0xbea8ec06	-0.32992572
36	0xbe1200a4	-0.14258057
37	0x3ac24710	0.0014822204
38	0xbe803106	-0.25037402
39	0xbe96b722	-0.29436594
40	0x3e087639	0.13326348
41	0xbea6e089	-0.32593182
42	0xbebaa231	-0.36451867
43	0xbf0c06e9	-0.54698044
44	0xbe202a04	-0.15641028
45	0x3c847b81	0.016172173
46	0x3e45985e	0.19296405
47	0x3ee51f53	0.4475046
48	0x3d083613	0.033254694
49	0xbeeea439	-0.46609667
50	0xbdcd84ab	-0.1003507
51	0x3e192050	0.14953732
52	0x3e3dd6a5	0.18538912
53	0x3e804a7f	0.25056836
54	0x400c8772	2.195767
55	0x3eef7b2b	0.46773657
56	0xbed778ea	-0.42084438
57	0x3eafde2d	0.34349194
58	0x3e80bedb	0.2514561
59	0x3ed873cf	0.42275855
60	0xbe1b2b3c	-0.15153211
61	0xbe97a1e6	-0.29615706
62	0xbf36c2cd	-0.7139099
63	0xbea15baf	-0.31515262
64	0xbe2cbaa6	-0.16868076
65	0xbe85d769	-0.26140907
66	0xbfe8b456	-1.8180034
67	0xbf1f311c	-0.6218431
68	0x3f914836	1.1350162
69	0x3f04d7bd	0.5189169
70	0x3e2a918c	0.16657084
71	0x3e4c6c8f	0.19963287
72	0xbccc7d72	-0.02496216
73	0xbe5612a3	-0.20905547
74	0xbf0dc750	-0.5538225
75	0xbeeb5c1c	-0.4596871
76	0xbe882a4e	-0.26594776
77	0x3ea79c3e	0.3273639
78	0x3e860f1e	0.26183408
79	0xbe9e7940	-0.3095188
80	0x3e5be3ce	0.2147362
81	0x3d8ff403	0.070289634
82	0x3cbecb61	0.023290338
83	0x3ae3261e	0.0017330085
84	0x3bcbf9d4	0.00622485
85	0xbecb02bf	-0.39650533
86	0x3de3b1f6	0.11117928
87	0xbdc39551	-0.09549964
88	0xbe7b7b33	-0.24558716
89	0xbf3a44b6	-0.72761095
90	0xbeb5f796	-0.35540456
91	0xbe69494f	-0.22781871
92	0xbb871111	-0.0041219075
93	0x3d7568e3	0.05991448
94	0x3e05d038	0.1306771
95	0xbe21f8f6	-0.15817627
96	0xbf1f458a	-0.62215483
97	0x3dae9e72	0.08526315
98	0x3f4949a3	0.78627986
99	0x3e7063f1	0.23475625
100	0xbf133d41	-0.5751534
101	0xbf41e995	-0.7574704
102	0xc0185982	-2.3804631
103	0xbf20c265	-0.6279662
104	0xbe1ee4c4	-0.15516955
105	0xbe28ff43	-0.16503625
106	0xbee29398	-0.4425323
107	0xbec00ac0	-0.37508202
108	0xbbe7d46e	-0.007074884
109	0xbe07d455	-0.13264592
110	0x3e17180a	0.14755264
111	0xbe22acb6	-0.15886196
112	0xbe1382bd	-0.14405341
113	0x3e8db8f6	0.27680176
114	0x3e93ecf0	0.28891706
115	0x3e9e1885	0.30878082
116	0xbf42f1f6	-0.76150453
117	0xbf0fdd55	-0.561971
118	0xbfdbd30e	-1.7173784
119	0xbf341dd6	-0.70358026
120	0xbdf8547f	-0.12125491
121	0xbee7040f	-0.45120284
122	0x3eac4a4b	0.3365043
123	0xbdf87b30	-0.12132871
124	0xbd9d6b00	-0.07686424
125	0xbcc8e656	-0.024523895
126	0xbc700dbc	-0.014651712
127	0x3e00a7b7	0.12563978

bias f4 [32]
0	0x3f672b7b	0.9030072
1	0x3ee7e1dd	0.45289508
2	0x3f1a2931	0.60219103
3	0x3f284bd8	0.6574073
4	0x3f8f5410	1.1197529
5	0x3f71557c	0.94271064
6	0x3f18a9b8	0.5963397
7	0x3f5dc684	0.86631036
8	0x3f54bc75	0.8310006
9	0x3f9722e9	1.1807529
10	0x3f5321d2	0.8247348
11	0x3f56bdb9	0.83883244
12	0x3f0f3239	0.5593601
13	0xbc1cb872	-0.00956546
14	0x3f772afc	0.96549964
15	0x3f9527bf	1.1652755
16	0xbebf3edb	-0.37352642
17	0xbe3568a8	-0.17715704
18	0x3f56fc7f	0.8397903
19	0x3f559f9f	0.8344669
20	0x3f959fef	1.1689433
21	0x3f1473f5	0.57989436
22	0xbe81613e	-0.25269502
23	0x3f90cfe6	1.1313446
24	0xbe9ba4cc	-0.30399168
25	0xbddc1bed	-0.10747514
26	0x3f79d159	0.97585064
27	0xbea8f963	-0.33002767
28	0x3f4d9fac	0.80321765
29	0xbe4f6148	-0.20251954
30	0x3f82476c	1.0178046
31	0xbee28b2e	-0.4424681

weight f4 [32, 32]
0	0x3d9e1a80	0.07719898
1	0x3c7f67e0	0.015588731
2	0xbe105db2	-0.14098242
3	0x3d97ebe6	0.07418041
4	0xbdf53069	-0.11972124
5	0x3bc9c2e4	0.006157266
6	0x3dafd944	0.08586362
7	0xbd2e04d5	-0.042485077
8	0xbd8d96ba	-0.069135144
9	0xbd6fed8e	-0.05857616
10	0xbe03216b	-0.12805717
11	0xbdb0552c	-0.08609995
12	0xbe050eb2	-0.12993887
13	0x3e22095f	0.15823887
14	0xbe25d734	-0.16195375
15	0xbe2e6b30	-0.17033076
16	0xbdfae559	-0.12250776
17	0x3d0136e0	0.031546474
18	0xbe3774f8	-0.17915714
19	0x3db6d980	0.089282036
20	0x3d76d17a	0.060258366
21	0x3dabcfbd	0.08389232
22	0xbe06b434	-0.1315468
23	0xbe3b5a56	-0.18296179
24	0xbd2d6c0c	-0.04233937
25	0x3e1360f7	0.14392458
26	0xbe5c67e7	-0.2152401
27	0x3da861f6	0.082218096
28	0xbdf0356f	-0.11728942
29	0x3df58a9e	0.1198933
30	0x3db03f77	0.08605855
31	0xbe311b9c	-0.17295688
32	0xbd903a47	-0.070423655
33	0xbe17b07b	-0.14813416
34	0x3e208e47	0.15679274
35	0x3dae566e	0.08512579
36	0xbe19ce83	-0.15020184
37	0x3d914792	0.07093729
38	0x3d83b1c5	0.06430391
39	0xbe098de9	-0.1343304
40	0xba32d400	-0.00068217516
41	0xbe0d1b7f	-0.1378002
42	0x3de4ea2e	0.11177479
43	0x3d5ce2b9	0.053927157
44	0xba92dd1a	-0.0011204809
45	0x3e8708b8	0.2637384
46	0xbe186265	-0.14881285
47	0xbe38eedb	-0.18059866
48	0xbde8feda	-0.11376734
49	0xbdab6ccb	-0.0837036
50	0x3dd7aa3a	0.10530515
51	0xbde10069	-0.10986406
52	0xbe59c99c	-0.21268314
53	0xbdc155b5	-0.094401754
54	0xbd3755a8	-0.044759423
55	0x3dd74046	0.10510306
56	0xbb74fa40	-0.0037380606
57	0xbc2c3380	-0.010510325
58	0xbe52234e	-0.2052128
59	0xbdd05102	-0.10171701
60	0xbd68bc3b	-0.056820136
61	0xbc9ecf10	-0.019385844
62	0xbe07edea	-0.13274351
63	0x3d5ca9b1	0.053872768
64	0x3eac5ed6	0.33666104
65	0x3e5974ce	0.21235964
66	0x3ea940a7	0.33057138
67	0x3f048b19	0.51774746
68	0x3f3fdfc0	0.7495079
69	0x3f076a4c	0.5289657
70	0x3e276e06	0.16350564
71	0x3f0dee2b	0.5544154
72	0x3f092d64	0.53584886
73	0x3f1632c0	0.5867119
74	0x3f06590f	0.5247964
75	0x3ec5504c	0.38537824
76	0x3de51e35	0.11187402
77	0xbf8db359	-1.1070358
78	0x3e9c758b	0.30558428
79	0x3f52f4f1	0.82405
80	0xbf33cb9e	-0.7023257
81	0xbf88d612	-1.0690329
82	0x3f506e96	0.8141874
83	0x3f23a37b	0.63921326
84	0x3f2f9961	0.6859341
85	0x3e8bfa1c	0.27339256
86	0xbf128e08	-0.5724797
87	0x3edd3e8c	0.43211782
88	0xbf3dcf3c	-0.7414434
89	0xbf76af60	-0.9636135
90	0x3f3be5e5	0.73397666
91	0xbe2b20f8	-0.16711795
92	0x3e88eb34	0.26741946
93	0xbf147a83	-0.5799944
94	0x3eccdc06	0.40011615
95	0xbd863bd5	-0.06554381
96	0x3d660a51	0.056162182
97	0xbdde0d5d	-0.108423926
98	0x3d68ff54	0.056884125
99	0xbe6219b8	-0.22080123
100	0x3ddfbf8b	0.10925206
101	0xbe0698fb	-0.13144295
102	0xbdab6d73	-0.08370485
103	0xbd9a3684	-0.07529929
104	0x3d7362bf	0.059420343
105	0xbe4883b6	-0.19581494
106	0xbd94ef63	-0.07272222
107	0xbe2c3788	-0.16818058
108	0xbcbc06db	-0.022952488
109	0xbda67fdb	-0.08129855
110	0xbe42ec30	-0.19035411
111	0xbd843b4a	-0.06456621
112	0xbdceb3ac	-0.100928634
113	0x3e2a8e95	0.16655953
114	0x3d996a8a	0.07491024
115	0x3dff8e36	0.124782965
116	0xbbb9c80f	-0.005669601
117	0xbe1e440b	-0.15455644
118	0xbd75ffdc	-0.06005846
119	0xbe31df94	-0.17370445
120	0x3e03d4fd	0.12874217
121	0xbc574940	-0.013140023
122	0xbd60dac8	-0.054896146
123	0xbe021411	-0.12702967
124	0xbd9e9196	-0.07742612
125	0x3c319d40	0.010840714
126	0x3d0552bb	0.0325496
127	0xbe110da5	-0.14165361
128	0x3ebb2943	0.36554918
129	0x3f0fb958	0.5614219
130	0x3f08cb41	0.5343514
131	0x3f577e63	0.84177226
132	0x3ee01105	0.43762985
133	0x3e9e5134	0.30921328
134	0x3e352eec	0.1769368
135	0x3eb2e8bb	0.34943184
136	0x3f558ce1	0.8341809
137	0x3f45b7e6	0.7723373
138	0x3f28c92e	0.65931976
139	0x3e9fdae5	0.3122169
140	0x3d93e077	0.07220548
141	0xbf7283a5	-0.94732124
142	0x3e885fda	0.2663563
143	0x3f5094b3	0.81476897
144	0xbeba5159	-0.36390188
145	0xbf0d4778	-0.5518718
146	0x3f3eae5f	0.7448482
147	0x3f2a1087	0.6643147
148	0x3f29f061	0.66382414
149	0x3e167155	0.1469167
150	0xbf082338	-0.5317874
151	0x3f1a12c9	0.60184914
152	0xbf1c6759	-0.61095196
153	0xbf111162	-0.5666715
154	0x3f345222	0.70437825
155	0x3e4ff522	0.20308354
156	0x3ebc0ba0	0.3672762
157	0xbec748a9	-0.38922623
158	0x3ebfd181	0.37464526
159	0x3d963971	0.07335175
160	0x3f08231e	0.53178585
161	0x3ed350f1	0.4127269
162	0x3e73629b	0.23768084
163	0x3f21d781	0.6321946
164	0x3f2cb44a	0.674626
165	0x3f1a4adc	0.60270476
166	0x3e12d286	0.14338121
167	0x3eddd152	0.4332376
168	0x3f3a8a4f	0.7286729
169	0x3f04edd0	0.51925373
170	0x3f028eb5	0.50999004
171	0x3e680e7a	0.22661772
172	0x3d45f7f4	0.04833217
173	0xbf585bcb	-0.84515065
174	0x3f2475b9	0.6424213
175	0x3f21cb38	0.6320071
176	0xbf0a474f	-0.5401506
177	0xbf4e188a	-0.80506194
178	0x3efde9bd	0.4959239
179	0x3eaf0487	0.34183142
180	0x3f004c56	0.5011648
181	0x3e0aba25	0.13547571
182	0xbf34c74d	-0.7061661
183	0x3f14bc8f	0.5810022
184	0xbf204c51	-0.6261645
185	0xbf49dfdd	-0.78857213
186	0x3ee6022c	0.44923532
187	0xbd88497d	-0.06654642
188	0x3e9bc024	0.3042003
189	0xbf0a018c	-0.5390861
190	0x3ecd4e2f	0.40098712
191	0xbdc67be5	-0.096916
192	0x3da7083b	0.08155867
193	0x3ae8b8c7	0.0017755263
194	0xbe5befdc	-0.21478218
195	0xbc2a5319	-0.010395789
196	0xbe039bcc	-0.128524
197	0xbb3bfea4	-0.0028685713
198	0xbe00b007	-0.12567149
199	0xbe24869a	-0.16066971
200	0xbd6155a4	-0.055013314
201	0xbcc72f83	-0.024314648
202	0x3d8013eb	0.06253799
203	0xbd78694c	-0.060647294
204	0x3c8da5d0	0.01729098
205	0x3c2c8900	0.01053071
206	0xbe679748	-0.22616303
207	0x3d2ca77e	0.04215192
208	0xbb9721f2	-0.004612201
209	0x3d8df8d2	0.06932224
210	0xbe06b7f5	-0.13156112
211	0x3d393d8e	0.04522472
212	0xbdae44b0	-0.08509195
213	0xbcf4747b	-0.029840698
214	0xbe2c64fb	-0.16835396
215	0xbcd60e1e	-0.026129778
216	0x3d893f3e	0.067015156
217	0xbd503d80	-0.0508399
218	0xbcac1c2a	-0.021009523
219	0xbcdc3548	-0.026880875
220	0xbe37b087	-0.17938434
221	0xbe6b9d01	-0.23009111
222	0xbe148de6	-0.14507255
223	0xbd6214a0	-0.05519545
224	0x3efb33e9	0.49063042
225	0x3e99a42d	0.3000807
226	0xbe0d649a	-0.13807908
227	0x3f03d793	0.51500815
228	0x3ef10386	0.47073
229	0x3f2fabf2	0.6862174
230	0x3eba388a	0.3637126
231	0x3efa47b5	0.48882833
232	0x3e7f0df8	0.24907672
233	0x3f0ec261	0.5576535
234	0x3edeadee	0.43492073
235	0x3f0aac4d	0.5416916
236	0x3e9a2bed	0.30111638
237	0xbf7cc92f	-0.9874448
238	0x3f374232	0.7158538
239	0x3ed77f08	0.42089105
240	0xbf349761	-0.70543486
241	0xbf3ac862	-0.7296201
242	0x3eb57e8f	0.3544812
243	0x3f006c6b	0.5016543
244	0x3f086d53	0.53291816
245	0x3ebfa097	0.37427208
246	0xbf1a6510	-0.6031046
247	0x3f257465	0.6463073
248	0xbf288a61	-0.6583615
249	0xbf4346d7	-0.7627997
250	0x3ec7fbfe	0.39059442
251	0x3ca60aea	0.020268876
252	0x3f2fb586	0.6863636
253	0xbf102697	-0.56308883
254	0x3f12c6b3	0.5733444
255	0x3decbd72	0.11559571

bias f4 [32]
0	0xbe2f0fe0	-0.170959
1	0xbd05531c	-0.032549962
2	0x3ebd780c	0.3700565
3	0xbe69022e	-0.22754738
4	0x3f18110b	0.59401006
5	0x3f189ab1	0.5961104
6	0xbe39012a	-0.1806685
7	0x3f0777d9	0.5291725
8	0xbe291ff7	-0.165161
9	0x3f0c8736	0.54893816
10	0x3ebad125	0.3648769
11	0xbce43e88	-0.027861848
12	0xbbeb9361	-0.0071892
13	0xbe4bb0de	-0.19891688
14	0xbe067f17	-0.13134418
15	0x3f242bfe	0.64129627
16	0xbd5ddc6d	-0.054165293
17	0xbe46869c	-0.19387287
18	0xbe0480e7	-0.12939797
19	0x3eb27b64	0.34859765
20	0xbe48b43f	-0.19600008
21	0x3ed2bfe9	0.4116204
22	0xbcca32c8	-0.024682418
23	0xbe07c446	-0.13258466
24	0xbe21bcde	-0.15794703
25	0xbcc0856e	-0.023501124
26	0xbe228ebd	-0.15874763
27	0x3f03419f	0.51272005
28	0x3f1e786b	0.61902493
29	0x3f0c3cc9	0.5478025
30	0x3d92a9bb	0.0716128
31	0xbdfccd2a	-0.123438194

weight f4 [2, 32]
0	0x3da43c56	0.08019321
1	0x3e097570	0.13423705
2	0x3e8d5d15	0.27610078
3	0x3dcf0221	0.10107828
4	0x3e6d56f0	0.23177695
5	0x3ded7729	0.115949936
6	0xbd5a1f33	-0.05325241
7	0xbe7a00bc	-0.24414343
8	0xbdd595ed	-0.10428987
9	0xbd85a6d5	-0.06525961
10	0x3d214e9b	0.039381605
11	0xbdb7b27a	-0.089695886
12	0xbd87d476	-0.066323206
13	0xbc5e9fcf	-0.013587906
14	0xbe146f10	-0.14495492
15	0xbd5d2379	-0.053988907
16	0x3f5d31c6	0.86404073
17	0x3c50f625	0.012753998
18	0x3d1a9b29	0.03774563
19	0x3e0065b8	0.12538803
20	0xbdc908df	-0.09816145
21	0xbe77e850	-0.24209714
22	0xbcc610f0	-0.024177998
23	0x3d855d2d	0.065119125
24	0x3e351deb	0.17687194
25	0x3df1cc0a	0.118064955
26	0xbc0f8e08	-0.00876189
27	0xbeefa662	-0.46806628
28	0x3e8f138c	0.279446
29	0xbd676a0f	-0.05649763
30	0xbdc26fdf	-0.09493994
31	0xbe0322df	-0.12806271
32	0xbdbb7747	-0.0915361
33	0xbe6f907d	-0.23394962
34	0x3c8001fa	0.015625942
35	0x3dee5486	0.11637215
36	0xbe96025d	-0.29298678
37	0x3d1944c7	0.037419107
38	0xbdb3058d	-0.08741293
39	0x3e3c983e	0.18417451
40	0xbdd3e72d	-0.10346828
41	0xbe6e75d7	-0.2328714
42	0x3e0004f0	0.12501884
43	0x3e2d8825	0.16946466
44	0x3d4373cc	0.047717854
45	0xbbd2452e	-0.0064169383
46	0x3dfab296	0.12241094
47	0x3dbd8fbf	0.09255933
48	0xbf3bd5d3	-0.73373145
49	0x3dd557ba	0.10417123
50	0x3dbb48bb	0.091447316
51	0xbdcde48f	-0.1005336
52	0xbddf5d79	-0.109065
53	0x3e2d84d0	0.16945195
54	0x3b998e00	0.004686117
55	0xbe339922	-0.17538884
56	0xbda9e4ca	-0.08295591
57	0xbe82d235	-0.25551
58	0x3cff56e1	0.031169357
59	0x3efd4c1b	0.49472126
60	0xbedf1074	-0.4356724
61	0x3e11e692	0.14248112
62	0x3e0ccbf4	0.13749677
63	0x3dece5fd	0.11567304

bias f4 [2]
0	0x3d8a86ba	0.06763978
1	0x3c4c664d	0.012475562

weight f4 [1, 32]
0	0x3ce73a95	0.028226176
1	0x3cc83225	0.024437973
2	0x3f466add	0.7750681
3	0xbc6fbe3d	-0.014632759
4	0x3f33606f	0.7006902
5	0x3f4f6007	0.810059
6	0x3c940f2d	0.018073643
7	0x3f52eccf	0.8239259
8	0x3e164749	0.1467563
9	0x3f52a098	0.82276297
10	0x3f56246b	0.8364932
11	0x3cc7b4b6	0.024378162
12	0x3ccc2371	0.024919244
13	0x3d74e1f7	0.05978581
14	0xbde0c1fc	-0.109744996
15	0x3f3e8597	0.7442259
16	0xbf3a9156	-0.72878015
17	0xbe152369	-0.14564289
18	0xbdab36e4	-0.08360079
19	0x3f4e08c9	0.80482155
20	0xbbbb9fe0	-0.0057258457
21	0x3f34be2a	0.7060267
22	0xbd4f5a54	-0.050623253
23	0xbd06b354	-0.032885864
24	0xbdc83ce0	-0.09777236
25	0xbce270ac	-0.027641617
26	0xbda094d4	-0.07840887
27	0x3f44b689	0.76841027
28	0x3f37eebc	0.71848655
29	0x3f3ddf86	0.74169195
30	0x3d935c1d	0.071953036
31	0x3b536903	0.0032258637
