data/PPO_runs/20220509-135854/model.pth (torch, 8399 bytes, 7 tensors)

weight f4 [32, 4]
000000 b0 62 30 be 09 0b 8b 3e 50 4d ba bd 1b b3 22 bc
       -0.17225146 0.27156857 -0.090967774 -0.009930397
000010 3c 1b b5 be a8 2b 9e 3e e6 fa 8d be fa 25 de be
       -0.3537234 0.30892682 -0.27730483 -0.4338835
000020 21 4e 2e bf b6 22 4f 3e dc 5f 59 3f b9 97 8b 3e
       -0.68087965 0.20228085 0.84911895 0.27264193
000030 9a f4 35 bb 93 d4 12 bf 5b 3e d3 be b2 0b 33 3e
       -0.0027764202 -0.5735561 -0.4125851 0.1748493
000040 0b fc d4 be 89 06 54 bf 35 f6 f3 bf 6f 08 1a bf
       -0.41598544 -0.8282247 -1.9059511 -0.6016912
000050 f1 e1 6b 3f 23 83 7d 3f 52 76 09 40 91 79 67 3f
       0.92141634 0.99028224 2.1478467 0.9041987
000060 c7 2e 36 be 9d ea a5 be d0 ee 51 bc 9a 83 9a bc
       -0.17791282 -0.32405558 -0.012813285 -0.01886158
000070 07 0d 49 3f 15 42 43 be 82 af dc bf 28 1c cf be
       0.78535503 -0.19068177 -1.7241061 -0.4045117
000080 34 ff 95 be 7a a7 74 be 52 ce 09 bf 5c dc c1 be
       -0.29296267 -0.23892012 -0.53830445 -0.37863433
000090 13 2e 97 be 2c 8b c1 3e f0 06 2a bf 83 bf e4 be
       -0.2952734 0.37801492 -0.66416836 -0.44677362
0000a0 a7 aa 04 3f 06 89 71 3e 45 a0 77 bf f5 b8 06 be
       0.51822895 0.23587427 -0.96728927 -0.13156493
0000b0 22 02 47 3e b7 b0 88 bd c1 bc d8 3d fe 59 cf 3e
       0.19434407 -0.06674331 0.10582877 0.40498346
0000c0 e4 f0 56 3c a5 1f 2c 3e 2c ee 80 3e 7f 39 31 be
       0.013118956 0.16808946 0.2518171 -0.1730709
0000d0 63 18 6d 3e c1 48 a8 be cf cd a4 3d b4 3d 40 3e
       0.23153834 -0.32868007 0.080470674 0.18773538
0000e0 00 de 51 bf 0d 0b 8a bf 9a 5c dc bf 9a 03 55 bf
       -0.8197937 -1.0784622 -1.721576 -0.8320862
0000f0 be 54 58 3e 3f 73 fe be 16 7c 5c bf 38 c7 fe be
       0.21126077 -0.496973 -0.8612684 -0.49761367
000100 3a e6 55 3e d9 94 a2 be d1 89 7c bf 29 ee 08 bf
       0.20888606 -0.31754187 -0.9864779 -0.53488404
000110 6e 34 c4 3d cb 21 c4 bd 29 37 d7 be 64 de b8 be
       0.09580313 -0.09576758 -0.4203427 -0.3610717
000120 4f f1 b6 be 30 f3 9f 3e 98 63 a1 bd bc dc 4b 3e
       -0.3573098 0.31240225 -0.07880324 0.19908422
000130 55 60 7c be 5e f8 c5 be e7 31 2e c0 e5 06 31 bf
       -0.24646123 -0.38666052 -2.7217958 -0.69151145
000140 80 a9 0b 3e 13 fb 06 3d 1e 42 d5 be 3c a9 0a 3e
       0.13638878 0.032954287 -0.41652006 0.1354112
000150 c7 5f 39 3d a4 12 1a bd 47 e8 31 bf a3 cb 00 bf
       0.045257356 -0.037615433 -0.6949505 -0.50310725
000160 e7 35 7b bd a9 ec 91 be ed 4e 5c bf 9f ea 20 3e
       -0.061330702 -0.2850087 -0.8605793 0.15714501
000170 7e fe d6 be 63 7f a9 bd 36 e5 78 be c3 c6 1a be
       -0.41991037 -0.0827625 -0.24306187 -0.15114884
000180 b6 58 6a 3e 26 a5 c6 be 67 bf 83 bf 4f a9 9c 3e
       0.22885403 -0.38797873 -1.0292786 0.30597922
000190 c5 f5 63 3f 2c a1 9b 3f a6 2a 1a 40 93 11 87 3f
       0.8904689 1.2158561 2.408853 1.0552238
0001a0 5b 24 86 be aa e6 88 be 8d 03 2e be 49 9b 8d be
       -0.26199612 -0.26738483 -0.16993542 -0.27657536
0001b0 e7 01 a1 bd d4 50 88 3e c0 5e e7 3e ac 00 8c 3e
       -0.07861691 0.26624167 0.45189476 0.27344263
0001c0 4a f8 88 3f ef ec 34 3f 22 1d dd 3f 61 30 34 3f
       1.0700772 0.7067403 1.7274516 0.7038632
0001d0 a7 5d 15 be 38 1b ac be 55 dc 50 bd bf 70 29 3e
       -0.14586507 -0.33614516 -0.050991375 0.16546915
0001e0 1e e9 75 3e f8 c7 0f bf 43 ca 0f be 21 03 c5 bd
       0.24014708 -0.56164503 -0.14042 -0.096197374
0001f0 91 5d 60 3f 3c 62 5b 3f ec 53 db 3f 9c c2 49 3f
       0.8764277 0.8569677 1.7134986 0.78812575

bias f4 [32]
000000 7c 93 6d 3f fc 84 33 3f ae e5 d6 be 7e 9e 57 3f
       0.9280317 0.70124793 -0.41972107 0.84226215
000010 98 7b 04 be e3 a3 28 be 95 c0 8c 3f 63 b0 d1 be
       -0.12937772 -0.16468768 1.0996271 -0.40954885
000020 8e 7f 8e 3f e4 80 7e 3f c0 a8 92 be f7 a4 8a 3f
       1.1132677 0.9941542 -0.2864437 1.0831593
000030 be ac 81 3f 43 8f 7e 3f 33 52 b8 bd bb 44 73 3f
       1.0130842 0.9943735 -0.09000053 0.9502675
000040 36 bb 89 3f 4a 2e 89 3f 55 ab 4b 3f 67 44 a5 3d
       1.0760257 1.0717251 0.79558307 0.08069687
000050 cf 8b 79 3f 60 df 95 3f e4 94 1e 3f 95 c2 93 3f
       0.97478956 1.1708794 0.6194594 1.1543757
000060 bc 02 d9 3e 7c 4a 56 be 2b ab 69 3f b7 79 77 3f
       0.423849 -0.20926851 0.91276807 0.966701
000070 35 74 a6 bd 47 f0 09 3f 9c 76 36 3f 89 86 40 be
       -0.081276335 0.5388226 0.71274734 -0.18801321

weight f4 [32, 32]
000000 65 ac 35 be a5 68 cb bd f0 64 dc bd 17 d5 35 be
       -0.17741545 -0.09932069 -0.1076144 -0.17757069
000010 7d 09 bc bd e7 03 18 be b5 3e b0 3c c0 3b 66 3d
       -0.09181497 -0.14845239 0.021514276 0.056209326
000020 cd ab c7 bc 54 47 f1 bc ff b9 28 bc b1 1c 84 39
       -0.024373913 -0.029452957 -0.010298251 0.0002519838
000030 7e e8 f2 bd 52 65 23 bd f1 8d 5e bd 3c 41 44 3d
       -0.118607506 -0.03989155 -0.054334585 0.047913775
000040 b0 b9 28 bd 5a b7 12 be bf 59 bb bd ac 0d 6c be
       -0.04119271 -0.14327756 -0.09147977 -0.2305209
000050 a0 99 9f 3c 62 0a dd bc d7 9a 98 3d b0 47 8e 3d
       0.019482434 -0.02698249 0.07451408 0.06947267
000060 6f e1 db bc f0 5c 20 bc ea b1 60 be 05 0b 44 be
       -0.026840894 -0.009787783 -0.21942869 -0.19144829
000070 10 0b fe 3c 3a 32 8d 3d aa ac de 3c 71 cd 2f be
       0.031011134 0.068943456 0.027181942 -0.17168213
000080 9d 16 69 bc 10 da 7d 3d 4a 6c e8 3e 25 af d4 bd
       -0.014226583 0.06197554 0.45395118 -0.10384969
000090 52 06 0f bf d5 93 84 3f 83 c1 96 3d 30 d3 15 3f
       -0.5586902 1.0357615 0.07361128 0.5852537
0000a0 a8 88 f4 3c f1 8e 9c 3e ac b7 ab 3e d4 97 2c 3e
       0.029850319 0.30577806 0.33538568 0.16854793
0000b0 a6 05 e8 3d 59 c2 b9 3d af 83 28 be 46 22 48 be
       0.11329202 0.09070272 -0.16456483 -0.19544324
0000c0 27 dc 57 bd 3f ac 9f 3d f3 aa be 3d 2f 8c 99 bf
       -0.052700188 0.07796525 0.0930995 -1.1995906
0000d0 a6 62 02 be d4 4c 93 3d c2 86 7c bc c5 35 9e bd
       -0.12732944 0.07192388 -0.015412988 -0.077250995
0000e0 ed 8b 9a bd 82 b3 89 3f b4 9b 1b 3e a9 a8 86 3e
       -0.0754622 1.0757906 0.15196115 0.26300552
0000f0 d4 aa 88 3e 51 b7 c0 3c a1 fb 97 bd 8e 0f 7d 3f
       0.26692832 0.023524912 -0.07421041 0.9885186
000100 4a a7 2c 3f 6b 43 48 3e 2f 85 2f bf e1 d5 98 3e
       0.6744276 0.19556968 -0.685626 0.29850677
000110 b5 43 72 bf b9 8d 4f bf 68 40 26 3f 59 a2 4c bf
       -0.9463456 -0.81075627 0.64942026 -0.7993522
000120 bc 81 01 3f 00 57 7b 3e df 59 04 bf b9 08 40 3f
       0.50588584 0.24544907 -0.5169963 0.7501331
000130 50 50 d4 3e d3 87 3c 3f 07 2c 4d bf c5 5b 16 3f
       0.41467524 0.7364475 -0.80145305 0.5873378
000140 5e 4a de 3e ca c3 d9 3e 38 46 59 3f be 21 65 bf
       0.43416113 0.42532188 0.8487277 -0.8950461
000150 99 67 20 3f 30 5f 04 3f eb f0 e8 3e 6c 8c 24 3f
       0.6265808 0.51707745 0.45496306 0.64276767
000160 aa 21 e2 3e d8 d7 94 bf ed 5b 11 3f 8f 6e 33 3f
       0.4416631 -1.162837 0.5678089 0.70090574
000170 f0 60 76 bf e7 5d ef 3e 16 58 04 3f 10 e5 87 bf
       -0.96241665 0.4675133 0.5169691 -1.0616779
000180 f3 29 cf 3e a8 9f fd 3e ae 4b 74 bf d7 e5 ab 3e
       0.40461692 0.4953587 -0.9542798 0.3357379
000190 69 0c 66 bf bc 9f 62 bf 4c a5 0f 3f a6 28 3c bf
       -0.89862686 -0.88524985 0.561116 -0.73499525
0001a0 cb 29 0e 3f 2d b6 f9 3e 63 64 1a bf 04 0e 0a 3f
       0.5553252 0.48771802 -0.6030943 0.53927636
0001b0 2b 81 17 3f 23 74 1a 3f 68 56 19 bf 29 4c d9 3e
       0.5918147 0.6033346 -0.5989747 0.42440918
0001c0 cb ac 04 3f 0c 88 d3 3e 8d 18 26 3f da c5 50 bf
       0.5182616 0.41314733 0.6488121 -0.815519
0001d0 e6 e0 aa 3e 07 3a 11 3f c2 03 0c 3f 45 76 33 3f
       0.3337471 0.5672917 0.54693234 0.7010234
0001e0 2e 5d ba 3e 47 af 88 bf 00 2f 3d 3f 0f ed da 3e
       0.36399215 -1.067849 0.7389984 0.42758986
0001f0 12 da 19 bf 27 31 8b 3e 2a 42 bc 3e 7c 8a 5d bf
       -0.60098374 0.27185938 0.3676923 -0.86539435
000200 b5 65 c8 3c 5e 35 cd bd 18 d7 3d 3f 5d f3 09 bd
       0.02446256 -0.100199446 0.7415633 -0.033679355
000210 f4 5e 3f 3f 4b 0a 84 3f b2 34 96 3c 50 3a 23 3f
       0.7475426 1.0315641 0.018335674 0.6376085
000220 a2 f6 b5 be 97 98 e1 bd 5c 29 12 3f 83 3e 66 3d
       -0.35539728 -0.11015432 0.5709436 0.05621196
000230 aa a0 08 be 7f de a2 bd c1 8d f9 3e a3 e7 f3 be
       -0.13342538 -0.07952594 0.48740962 -0.47637662
000240 76 94 30 be f8 c1 3a bd 8b 0d 7a 3e 57 08 a0 3f
       -0.17244133 -0.04559514 0.24419229 1.2502545
000250 77 77 46 3d 52 15 96 bd 63 91 2b be 79 22 c3 be
       0.048453774 -0.07328285 -0.1675468 -0.38112238
000260 be c2 cc 3d 72 e1 8c 3f 25 63 98 be cf 80 89 3e
       0.099980816 1.10063 -0.2976314 0.26856086
000270 09 62 8c 3f 67 c1 01 3d 78 76 5b 3e 8e 7b 90 3f
       1.0967418 0.031678583 0.21431911 1.1287706
000280 75 86 aa bd 42 e7 a8 bd c0 e7 bc 3d 5a a9 32 3d
       -0.08326427 -0.08247234 0.0922389 0.043618537
000290 f8 b5 51 3c 97 3b 85 bd 7c 25 5d 3d 12 cb d8 3d
       0.012799732 -0.065055065 0.053990826 0.105856076
0002a0 6e ce 23 be b6 b1 79 bc e5 18 cf b9 df e5 2d 3d
       -0.15996715 -0.0152401235 -0.00039500665 0.04245555
0002b0 a6 90 15 be 67 0b d8 bd 15 1c 59 be 91 4f fd bd
       -0.1460596 -0.1054905 -0.21202119 -0.12368692
0002c0 e6 ef a8 3d da 02 c1 bd 63 4c 2b be da b2 57 bd
       0.08248882 -0.09424372 -0.16728358 -0.0526608
0002d0 1e fc 1d be d8 6c 97 bd 92 be 51 3d 30 22 d6 bd
       -0.15428206 -0.07393807 0.051207133 -0.104557395
0002e0 32 a1 ff bd 16 ca 10 be 83 cf 5d be 1e c3 e4 bc
       -0.124819174 -0.1413959 -0.2166119 -0.02792507
0002f0 a9 fc 0b 3d 5b 80 77 bd ed e8 70 be 54 2e 1a bd
       0.034176502 -0.060425144 -0.23526354 -0.03764184
000300 8b 6f a8 3d b6 55 ac 3d 3a c7 00 be 5e a8 0f be
       0.082244 0.084147856 -0.12575999 -0.1402907
000310 e6 27 a2 3d ca cf f3 3d 41 b3 b3 bd 96 44 03 be
       0.07917766 0.11904867 -0.08774424 -0.12819132
000320 46 bb 95 3d 2d 97 11 bd a3 c7 8e 3d 89 87 96 3d
       0.0731111 -0.035544563 0.069716714 0.0735007
000330 fa 61 0f be 6d 92 5c 3d d9 40 0a be a6 30 04 be
       -0.14002219 0.05385058 -0.135013 -0.12909183
000340 29 dd 40 be 94 02 20 be bd 58 19 bc 65 03 21 3e
       -0.18834366 -0.15625983 -0.009359536 0.15723951
000350 53 ad d8 3c 8e 7f 5c be 82 0e 35 bd 52 9f 34 be
       0.026449835 -0.21533033 -0.04420329 -0.17638901
000360 22 ae 46 3d ac e5 25 be f2 44 7e bc 79 e2 48 be
       0.04850591 -0.16200894 -0.0155193675 -0.19617642
000370 0e f3 72 3c 93 e2 e3 bc 3f 03 b7 bd a2 6b f6 3d
       0.014828457 -0.027818 -0.08936166 0.12032248
000380 5d 7f 0c 3f e0 dc e6 3e f8 57 58 bf a4 84 d6 3e
       0.5488184 0.4509039 -0.8450923 0.41898072
000390 c0 d9 ed be e8 18 66 bf f1 60 16 3f 1f e2 2d bf
       -0.46455193 -0.89881754 0.5874167 -0.6792316
0003a0 e0 c6 27 3f 0f cd fb 3e 65 fc 1a bf 64 27 ac 3e
       0.65537834 0.49179885 -0.60541373 0.33623803
0003b0 68 40 11 3f 8c 9e ad 3e 49 47 c9 be 88 72 5a 3f
       0.567389 0.33910024 -0.393122 0.8533101
0003c0 69 cc 5e 3f c7 58 4b 3f ad bf a6 3e 71 ae 26 bf
       0.87030655 0.7943234 0.32568112 -0.65109926
0003d0 92 1f 02 3f cb 36 50 3f 0b 75 94 3e 39 0a ea 3e
       0.5082942 0.8133361 0.28995547 0.45710924
0003e0 83 97 b9 3e e5 b0 a9 bf d7 e4 3d 3f 82 34 be 3e
       0.36248407 -1.3257109 0.74177307 0.37149435
0003f0 9e 56 33 bf 79 db 0b 3e 29 32 ac 3e 4e fd 57 bf
       -0.7005404 0.13657941 0.3363202 -0.8437089

bias f4 [32]
000000 60 d3 4a be 08 6b ea 3d 04 3b 16 3f f7 e6 ea 3e
       -0.19807196 0.11446196 0.586838 0.45879337
000010 a3 92 82 be 59 11 e9 bd 91 1b 93 bd 98 cd 27 3f
       -0.255025 -0.11380262 -0.07182992 0.65548086
000020 ed 54 03 be e6 63 01 be f0 7f 3b bd 4d a2 29 bc
       -0.12825365 -0.12635764 -0.045776308 -0.010353637
000030 1e 6c 63 be f1 92 2f bd 91 39 13 3f 36 d7 09 3f
       -0.22209212 -0.042864744 0.57509714 0.5384401
000040 8c 50 f5 bd 03 ba d5 3e 33 9b 85 bb 71 2b f8 3e
       -0.11978254 0.41743478 -0.004077339 0.48470643
000050 91 57 65 be ed 33 0e 3f 51 58 f0 3e 0e 8b 0e 3f
       -0.22396685 0.5554798 0.4694238 0.5568093
000060 c3 95 45 3d 02 d1 97 bc a6 0c 72 be c7 cd 1c 3f
       0.048238527 -0.01853228 -0.23637637 0.6125149
000070 e2 cb 1d 3b fa 66 1e be 54 35 38 be 7c ae 02 be
       0.0024077822 -0.1546897 -0.17989093 -0.12761873

weight f4 [2, 32]
000000 86 6c ab 3c f5 3b d2 be 0c 0a 76 be 42 e1 e3 bc
       0.020925771 -0.4106137 -0.2402727 -0.027817372
000010 e0 e2 4a 3e 4f e0 36 bd 5d 85 39 be 4c d9 88 3e
       0.19813108 -0.04464751 -0.1811728 0.26728284
000020 c7 44 d2 3c ed df 3e be 76 cf d5 ba 41 8f 45 bd
       0.025667561 -0.18640108 -0.0016312439 -0.04823232
000030 6b 17 d5 bd 50 dd 2e bc b5 e3 84 3c 71 9b b2 3e
       -0.10404857 -0.010672882 0.01622186 0.34884217
000040 e6 b0 16 bd d1 a7 b3 be f2 16 7f be e6 66 91 3c
       -0.036789797 -0.3508897 -0.24911097 0.017749261
000050 4e a5 d2 3e db 4b 55 3e 11 09 12 bf 4a 77 d8 3b
       0.41141742 0.20829718 -0.57045084 0.0066060172
000060 61 20 df bc 27 16 36 3d 2e f5 aa bd b9 a8 51 be
       -0.02723712 0.04445472 -0.083475456 -0.20474519
000070 75 25 7f 3d 0f 02 81 b8 b6 9b 18 bf 95 9a 80 3c
       0.06229158 -6.151583e-05 -0.59612596 0.01569871
000080 5c 5e 37 3e a9 49 fd 3e 32 16 e3 3d d0 c6 bf 3d
       0.17907089 0.4947026 0.11088218 0.09364092
000090 c5 a7 a9 be a8 91 f7 3c aa 66 c6 3d 1f 48 3d be
       -0.3313581 0.030220821 0.0968755 -0.18484543
0000a0 dd 7a 85 3d 43 23 2f 3e 7c 9d 0d 3e 20 b6 37 bd
       0.06517575 0.17103295 0.13829607 -0.044851422
0000b0 22 f5 31 3e f6 fe 78 bd a8 45 62 be 9c 32 9f be
       0.17378667 -0.060790025 -0.22096884 -0.310933
0000c0 26 2f ad bd d1 b9 46 3e e8 6b 0f 3d 4c c2 a9 bd
       -0.084562585 0.19406821 0.035015017 -0.08289012
0000d0 bd 94 7d be a7 bf a3 be 22 6f e4 3e 12 04 b5 bd
       -0.2476377 -0.31982157 0.44616038 -0.08838667
0000e0 c1 46 e1 3d ae 1c 6a 3e e1 b7 9a bd e3 5e b3 3d
       0.10999823 0.22862503 -0.07554603 0.087583326
0000f0 d7 a7 fb 3c 50 73 86 3d 77 39 c3 3e d9 43 38 3e
       0.03071968 0.06564963 0.3812978 0.17994632

bias f4 [2]
000000 4e 60 f8 3d 85 41 c9 3c
       0.12127744 0.024567375

weight f4 [1, 32]
000000 f7 5a 2d 3d 16 83 0a 3e 8c 67 40 3f a5 d0 5a 3f
       0.04232308 0.13526568 0.75158 0.85474616
000010 1c eb 96 bf 3f ec c7 bd a5 fe 65 bd 6e 56 42 3f
       -1.17905 -0.09761857 -0.05615105 0.7591313
000020 ba 39 09 3e 44 44 b0 bd ef e7 c5 bd e2 9f fe bc
       0.13400927 -0.08606771 -0.096633784 -0.031082097
000030 b6 0d 92 bd 2e 2e ea 3c 5b 25 59 3f 30 9a 5d 3f
       -0.071315214 0.028586473 0.84822625 0.86563396
000040 1b 6c 08 be 72 a9 62 3f d5 14 1f 3d 4e 16 3f 3f
       -0.13322489 0.88539803 0.038838226 0.7464341
000050 04 b4 92 bf 17 80 3e 3f 8a e3 35 3f 46 48 46 3f
       -1.1461186 0.744142 0.7105032 0.7745403
000060 1e 42 e9 3c 22 d5 96 bd 0c b7 0b 3d 76 43 46 3f
       0.02847391 -0.073648706 0.034110114 0.7744669
000070 10 08 36 3d 8c 86 06 be 89 db 81 bf bd 0a 1c 3d
       0.044441283 -0.13137263 -1.0145122 0.03809618
