data/PPO_runs/20220509-022656/model.pth (torch, 8399 bytes, 7 tensors)

weight f4 [32, 4]
00000000: de11 03be 5823 8cbd ee4e e1bd f885 543d
00000010: 0e0b a2be fee9 db3d 4236 a2be cf55 25be
00000020: 5e5c 6c3e 46a8 dabe c9c1 cd3e 7889 b9be
00000030: 28df b93d c87c b73e 40be a33e 283e 9c3d
00000040: d3eb 88be d665 30bd 0336 05bf 8131 94be
00000050: 276b 66be 5fe7 873e 19dc 28bd eb4f 79be
00000060: aea6 893e c330 85be fc6f dfbe 9994 053e
00000070: 1da2 bcbe 9e08 e53d 9484 b43e e4a5 e6be
00000080: 1db7 cc3e 8357 c53d c7f3 993d 201d 37be
00000090: 6039 d73c 4655 66be 8401 9a3e 8b03 93be
000000a0: 7f9b 5d3c 4dd1 92bd 6da0 383d 3047 06bd
000000b0: 433f 813c dfe7 0abe 9d36 81be 0525 503e
000000c0: 027c 8dbe 8687 7f3e 4c98 c0bd d0a1 a53e
000000d0: 1bd3 ba3e cd8d bd3c 831c b3be 561f b2be
000000e0: 61c5 ca3e 73ec 27bd c8d1 8abb b8d2 6ebe
000000f0: b6ea 9f3e f538 6b3e a1fd e73d 248c 473e
00000100: 2f62 d5bd 2dc6 c7be c154 dc3e 3c80 ae3e
00000110: c1d8 613d abfd 393d decb d8be d3fa adbe
00000120: 1a9b c53e 8727 4b3e 280f afba 438b c8be
00000130: d7bb 4f3e a43a 07bf b5f2 663e 0241 003f
00000140: 4b1e 46be 1e2c c3be 25bb 29be 6024 113e
00000150: 1818 a53e fe4d a13d 50dc b0be 96bd ba3d
00000160: 8d48 923d 7b9c a2be d29f 043d 4135 813e
00000170: 775b 7a3e 1c95 203e 1e9e ce3e c227 d73e
00000180: 65fc 313e 4ebd 383e c042 1dbe b062 c8be
00000190: a18f 1fbd 6905 aa3e 6d31 94bd 5e51 cdbe
000001a0: 770d 1a3d 6d00 9dbe e17b 6d3d c927 3ebe
000001b0: 9e6f a8be 2c9c 933e c0a5 6dbe 6077 a53c
000001c0: bc85 15be 9a67 5c3e 0571 d73d 54fd 08bf
000001d0: 0de8 e2be 6f9c 313e b130 c6be 633b b0be
000001e0: 370c 8b3e 5352 b2be 3a53 64be 4722 973e
000001f0: 5175 babe a301 0dbf 3696 14bf 2668 59bd
-0.12799785 -0.06842679 -0.11001383 0.051885575 -0.3164906 0.1073799 -0.3168202 -0.16146015
0.2308211 -0.42706507 0.4018691 -0.36237693 0.09075767 0.35837388 0.31981087 0.07629043
-0.2674242 -0.04306587 -0.5203554 -0.28944018 -0.22501813 0.2654371 -0.041225526 -0.24346893
0.2688498 -0.26013765 -0.43640125 0.13044967 -0.36842433 0.11183284 0.352574 -0.4504844
0.39983454 0.09635832 0.075172 -0.17882204 0.026272476 -0.22493467 0.3007928 -0.2871364
0.013525843 -0.07168827 0.04507487 -0.032782733 0.015777236 -0.13565014 -0.2523698 0.20326622
-0.27633673 0.24954042 -0.09404048 0.32350016 0.36489186 0.023138905 -0.3498269 -0.34789532
0.39603713 -0.04099698 -0.0042364337 -0.2332257 0.31233758 0.22970946 0.11327673 0.19487053
-0.10419118 -0.39018384 0.43033412 0.3408221 0.055138353 0.045407932 -0.42343038 -0.33980426
0.38594896 0.19839297 -0.0013355957 -0.39168748 0.20286499 -0.52823853 0.22553523 0.50099194
-0.19347493 -0.38119596 -0.16575296 0.14174032 0.32244945 0.07876204 -0.34543085 0.09118192
0.07142744 -0.3176001 0.03237898 0.25235942 0.24448954 0.1568188 0.4035501 0.4202252
0.17381437 0.18040964 -0.15357494 -0.39137793 -0.038955335 0.33207253 -0.0723599 -0.4010114
0.037610497 -0.30664387 0.05797947 -0.18569864 -0.32897657 0.28830087 -0.2320776 0.020198524
-0.14601797 0.21523896 0.10519604 -0.5351155 -0.44317666 0.17344831 -0.38709024 -0.34420308
0.27157757 -0.34828433 -0.22297373 0.2951834 -0.3641763 -0.5508062 -0.58041704 -0.05307784

bias f4 [32]
00000000: c699 f3be 8917 993e 119e b13d 9871 b2be
00000010: 248d f13b 516a 63bd 52ba 203d 270d 50be
00000020: 2aeb 5fbe 9c48 953e e7b7 ac3e 5d17 fd3e
00000030: 70fa 8b3e 81c6 b7bc 0c70 003f b361 b4bd
00000040: dd64 0f3e 3fbf 163f e85f af3e 54d0 c2be
00000050: ae4c a5be ea18 0e3f a9be 633e baa7 af3c
00000060: fad7 ad3e b5d3 ffbe 2255 3b3d 4c99 edbe
00000070: deb8 7ebe 7f12 103e a1cc 2fbe 65b2 1ebe
-0.47578257 0.29900768 0.08672727 -0.3485229 0.0073715616 -0.055521313 0.03924019 -0.20317517
-0.21867052 0.2915696 0.33734056 0.49431887 0.27339506 -0.022433521 0.5017097 -0.08807697
0.1400332 0.5888557 0.34252858 -0.38049567 -0.32285064 0.55506766 0.222407 0.021442283
0.3395384 -0.49966207 0.045735486 -0.4640602 -0.24875209 0.14069556 -0.17167903 -0.1549774

weight f4 [32, 32]
00000000: 5f3c fbbd 8e79 7c3e cf88 7e3d 9cf4 d3bd
00000010: ec65 5c3e e343 013e 0932 223e 7519 d1bd
00000020: 04cd c5bd 04b7 3b3e 716a e0bc 262a 883b
00000030: 43c0 7bbd d644 a83d 32fc 123d 6886 c63c
00000040: 908a 4d3e 36cd 773e 0083 a0bc 6559 5c3e
00000050: b3fe 4f3e 7622 833e 7677 8f3d f2c4 fd3d
00000060: 1262 4f3d aa2e 9bbc 3aba 77bd 48e2 1abd
00000070: fa43 3a3c 0f4a 55bd f68d b7bd fff9 553e
00000080: 525d bf3d 0370 1e3e ee00 973d 6b58 03be
00000090: 9953 eb3d cd46 5b3c da2b 62bd d656 033e
000000a0: b8c5 4cbd 1329 0a3e 25c8 8b3d 3dee 113e
000000b0: 981f 0a3e 4c0f 1e3d 0f16 f5bc 8be9 bd3d
000000c0: f946 54be f24f 0dbe f84d 2f3e 6d7c 44be
000000d0: 14d6 1dbe fd81 17bd 37df 35be 2334 1cbd
000000e0: 8bc7 623d 423a 0d3e 8d9f e7bd c1cd 123e
000000f0: a1e4 ad3d 1f9c 8c3d e6f1 d7bd 8ef8 1f3e
00000100: d53e 043e 163e 713d 163d 86bb f8b5 033d
00000110: f3e1 11be 201e aa3c 9766 fc3d a327 c3bc
00000120: b736 a5bd ad91 d1bd a981 b4bd df3a d0bd
00000130: c07a 9d3c f04f 4bbe 6e1e 21bd 2813 f9bc
00000140: faa3 64bd 0db0 b13d 35e7 8cbd c615 cfbc
00000150: b064 cf3c 0a7a 97bd 5614 b9bb 1161 17be
00000160: 53e2 e5bd 1c3b b63d 13e3 13bd 0280 cc3d
00000170: 5adb ddbd f3e5 ddbd 08ab 9bbd 0ff0 10be
00000180: 5358 303d 956b 923e fbce d3bc 8083 88bc
00000190: 8e4c fd3c 647b 72bd f16d a8bd 82ba 3bbd
000001a0: 5ba6 eabd d23c ed3c e06f 6e3d f801 2f3e
000001b0: 46a1 793e c73b c3bc 8f44 653c a351 d2bc
000001c0: 1824 b2bd 6431 5c3d cf66 113e 65c7 213e
000001d0: da5f 413d c212 773e c2b1 223e 58cc a43d
000001e0: 41f6 7a3e cb57 05be 8567 25bd 00de 8b3b
000001f0: 8c54 363e 2707 f23d bfed fd3d 7e48 2d3b
00000200: b015 10be 9bbb aabd ff56 cabd 92aa 1dbe
00000210: cea8 f53d a846 a0bc 6e51 25be 20a6 703c
00000220: 150a 88bd bc35 20be 0157 f93c e875 ca3a
00000230: 8755 80bd 3659 c93d c151 db3c 3b1d b6bd
00000240: 40db 33be 7c7e 5fbd a506 0ebe 2287 0ebe
00000250: 61f7 ed3d fd1e fb3d fcf4 8e3d 4e2a c53d
00000260: 21d6 e1bd 862c a9bd 178b fe3d f883 7b3d
00000270: 7f32 0abe 9c76 4b3d 3fc5 703d 0476 29be
00000280: 74a8 163e c80c 273e 7009 f13d e21f d63d
00000290: ad5f 703e b6a7 b1bb bb03 2f3e 4a7f dd3d
000002a0: 8128 debc 4410 93ba fc19 89bd 9f67 b93d
000002b0: 0175 41bd 6589 89bd 67d7 463e 216a babd
000002c0: 63ee 23bd c189 883e 58f2 673d f204 893c
000002d0: ad54 5e3e e383 db3d 4a8f bd3b e76f 383d
000002e0: 84b2 743e 3ed6 7c3d 6029 6cbd 62b1 d43d
000002f0: c0f0 473e ff80 8d3d cc88 5e3e 8a57 eb3d
00000300: 3740 12be b697 ffbd 06ed ba3d 4622 823d
00000310: b016 50bd 2250 d93d 9500 953d 80f6 42bb
00000320: 53f4 26be a74a bfbd 5eba a8bc 37cc 18be
00000330: 009a 1ebe d6e3 aebd 0b70 4cbe 8bcd af3d
00000340: e9e0 99bd a1f8 20be 4163 bcbd a4ba 2abc
00000350: fa39 c13d d0be 67be 0b3a 01bb cea1 32be
00000360: e057 fe3d b27d d5bd b6ba 07be 46e4 b63d
00000370: 6a4f 833d 318f 21be b437 6b3c d5a0 313d
00000380: d259 6cbd 5ffc bb3d c7ed ad3d da33 fd3d
00000390: c935 8f3d ce3e 13be 5ace 8e3c 81d3 223e
000003a0: eeb9 8c3d 03aa 21be 93c9 9fbc 8350 183d
000003b0: a6f4 33bc a380 08bd 625b 54be c840 833d
000003c0: 9343 683d 5f05 6abe e46d 7dbc 258a 00be
000003d0: 1638 383d 8080 783d a372 84be a267 773c
000003e0: 441b 2bbe 866a c03d 72e8 c7bc e35e 1e3e
000003f0: 6cbe 21bd b99a 3ebe 750e 05bc 30a5 4cbe
-0.12267374 0.24655744 0.06214219 -0.1034939 0.21523255 0.12623553 0.158394 -0.10209934
-0.09658244 0.18331534 -0.027394505 0.004155415 -0.061462652 0.082162544 0.035885043 0.024234012
0.20072389 0.24199376 -0.019593716 0.21518476 0.20312004 0.2561223 0.07005207 0.1239108
0.050630637 -0.01894315 -0.060480334 -0.037813455 0.011368746 -0.05207258 -0.08962624 0.20896147
0.09343971 0.15472417 0.07373224 -0.12826698 0.11490554 0.013383579 -0.0552176 0.12826094
-0.049993247 0.13492231 0.06825284 0.14251037 0.13488615 0.038588807 -0.029917745 0.092730604
-0.20730199 -0.13800028 0.17119586 -0.1918809 -0.15413696 -0.0369892 -0.17760931 -0.03813566
0.05536608 0.13791755 -0.11309729 0.14336301 0.08490873 0.06865715 -0.10544185 0.1562216
0.12914594 0.0588971 -0.0040966375 0.03215596 -0.14246349 0.020766318 0.12324255 -0.023822611
-0.08067077 -0.102328636 -0.08813793 -0.10167479 0.01922357 -0.19854712 -0.03933566 -0.030404642
-0.055820443 0.08676157 -0.06880037 -0.025278937 0.025316566 -0.07396324 -0.005648176 -0.14783122
-0.112248085 0.08897993 -0.036105227 0.09985353 -0.108328536 -0.10834875 -0.07600981 -0.14154075
0.043052983 0.28597704 -0.025855532 -0.016664267 0.030920293 -0.059199706 -0.08224095 -0.045832165
-0.11457511 0.028959665 0.05821216 0.17090595 0.24377927 -0.023832215 0.013993396 -0.025673693
-0.086982906 0.05375804 0.14199375 0.15798719 0.04721055 0.2412825 0.15888122 0.08046788
0.24508001 -0.13021772 -0.040381927 0.004268408 0.1780569 0.118177705 0.12398862 0.0026440914
-0.14070773 -0.08336564 -0.098798744 -0.15397099 0.119950876 -0.019564942 -0.16144344 0.014688045
-0.06642548 -0.15645498 0.030436995 0.0015446516 -0.06266313 0.09831469 0.026772382 -0.08892294
-0.17564106 -0.054563984 -0.13869722 -0.13918737 0.116194494 0.1226177 0.06980321 0.096272096
-0.1102717 -0.08260445 0.12428873 0.061405152 -0.13495825 0.04967366 0.05878186 -0.16548926
0.14712697 0.1631347 0.11769378 0.104553 0.23473997 -0.005421604 0.17091267 0.10815294
-0.027118923 -0.0011220057 -0.06694409 0.09052967 -0.047230724 -0.06715659 0.19418107 -0.09102274
-0.040022265 0.26667598 0.0566276 0.01672599 0.21711989 0.10718515 0.0057849037 0.045028593
0.23896223 0.061727755 -0.057656646 0.103853956 0.19525433 0.0690937 0.21731871 0.11491306
-0.14282309 -0.124801084 0.0912724 0.063541934 -0.050802886 0.10610987 0.07275502 -0.0029748976
-0.1630414 -0.09340411 -0.02059668 -0.14921652 -0.15488434 -0.0853955 -0.19964616 0.08584126
-0.07513601 -0.15719844 -0.09198619 -0.010420475 0.09434886 -0.22631383 -0.0019718434 -0.17444536
0.124191046 -0.10424365 -0.13254818 0.089302585 0.064116314 -0.1577728 0.014356542 0.043366272
-0.057702847 0.09178995 0.08492618 0.123634055 0.069926806 -0.14379427 0.01743238 0.15900995
0.06871401 -0.1578751 -0.019505298 0.037186157 -0.010983622 -0.033325803 -0.20737985 0.064088404
0.05670507 -0.22853611 -0.0154680945 -0.12552698 0.044975363 0.060669422 -0.2586871 0.015100392
-0.1670962 0.09395318 -0.02440283 0.15465884 -0.03948824 -0.1861371 -0.008121123 -0.19984889

bias f4 [32]
00000000: dd32 2c3e 7c80 153b 72dd 87bd 44de b33d
00000010: 14e1 21be a64c 423e bacb d53d 3730 343d
00000020: 2373 893e b26d fbbd cb25 e7bd e5b5 7b3e
00000030: e300 b43d 0a6d 18be e7ce f33d 712b abbd
00000040: 377c dbbd bab1 643b ed1a 573e bd5c 853e
00000050: 2279 17be cc0d 9e3d fe68 2dbe 4bbd 0fbe
00000060: 04ca 41bd 79e8 e3bd 07b9 00bd 1184 93bc
00000070: 01ac b23d b26d 253d 3eb4 e6bc a74b 02bc
0.16816278 0.0022812178 -0.06634034 0.08782628 -0.15808517 0.18974552 0.104392484 0.043991294
0.26845655 -0.12276782 -0.11286505 0.24581106 0.08789232 -0.14885345 0.11904698 -0.08357895
-0.107170515 0.0034895972 0.21006365 0.26047316 -0.14792302 0.07717475 -0.16934583 -0.14037053
-0.047311798 -0.11128325 -0.031426456 -0.01800731 0.087242134 0.040387817 -0.028162118 -0.007952607

weight f4 [2, 32]
00000000: 9765 223e 8e15 753e 6b9c d63d 9f8d 533e
00000010: f80d bbbc 6c1b 333d ee4a 45be 6855 b8bd
00000020: 78ba 0d3c 472a 0cbe bc6b 463e 4fd8 153e
00000030: 8ef0 4abe 9f3d 1ebe 2761 573d b8a6 afbd
00000040: ced9 d8bd a64f 6cbc dc98 383e c150 2b3e
00000050: 8886 fa3c bbfb 473e 0026 e7bb aca5 963d
00000060: 21a2 323e 80b1 c9bd e8c0 d63d 80c4 0d3e
00000070: 2615 e7bd cfd4 45be f272 f5bc c837 05be
00000080: 9dd2 8f3d a2f9 e1bd ad69 c7bd 94de e2bb
00000090: 3eec 21be de56 36be f3a8 393d e536 f7bd
000000a0: 74b2 d33d 1a4e f53d 3931 4ebd c67e f63d
000000b0: fdf8 6c3e ce04 cbbd 474e 0abe 803f 203d
000000c0: 8d11 61be cdd4 8bbd 304a 8abd db50 f53d
000000d0: c096 893b 55d8 e5bd 444e 34be f9be 153e
000000e0: 680f 07bd f2e5 e93d 6624 dfbd cb2d d53d
000000f0: b67b 02bd f5e8 513e 9350 173c c9a0 6f3c
0.15859066 0.23934004 0.10479053 0.20659493 -0.02283381 0.043727323 -0.19266865 -0.09000665
0.008650415 -0.13688003 0.19377035 0.14633296 -0.19818327 -0.15453194 0.052582886 -0.08576721
-0.10588418 -0.014423287 0.18027061 0.16730024 0.030581728 0.19529621 -0.0070540905 0.07355818
0.1744466 -0.098483086 0.10486013 0.1384449 -0.112833306 -0.19319461 -0.029962037 -0.1300956
0.07022593 -0.11033942 -0.09736953 -0.006923506 -0.15812775 -0.17806575 0.04532714 -0.12071017
0.103367716 0.11977787 -0.05033991 0.12035899 0.23141856 -0.09913026 -0.13506423 0.03912306
-0.21979351 -0.06827698 -0.067524314 0.119783126 0.004198879 -0.11222903 -0.17607981 0.14623632
-0.032973677 0.11420812 -0.10895614 0.10409125 -0.03185626 0.20499022 0.009235519 0.0146257365

bias f4 [2]
00000000: e57e 5ebd 016d 263d
-0.054320235 0.040631298

weight f4 [1, 32]
00000000: 23ac 253e 2ea4 293d fd93 e5bd b4ec db3d
00000010: 72f6 7abd d2c2 493e d5e3 a1bd 9448 b3bd
00000020: 86b4 5a3e e065 613c 1e21 263c d921 683e
00000030: 04be d93d 9ca9 c6bd e52e 853e 73e5 c1bd
00000040: 6412 10bc 9f5e 5f3e c073 dd3d dca7 203e
00000050: e2d0 7cbd 8ad8 213e 2647 fe3d 8edb 2f3e
00000060: b809 e2bd 8891 8e3c 8b94 9ebd 9e03 0f3e
00000070: d043 613e 0869 953c c798 c9bd 8ca3 763d
0.16178946 0.04141634 -0.11209867 0.10738507 -0.061270185 0.19703224 -0.07904784 -0.087540776
0.21357927 0.013757199 0.010139732 0.22669162 0.10631946 -0.09700319 0.2601234 -0.09467592
-0.008793447 0.21813439 0.10813093 0.15689033 -0.061722644 0.1580526 0.12415914 0.17173597
-0.1103701 0.01740338 -0.07743176 0.13966224 0.21998525 0.01823856 -0.09843593 0.060214564
