data/PPO_runs/20220509-030347/model.pth (torch, 8399 bytes, 7 tensors)

weight f4 [32, 4]
000000 dc 1b b5 bd 61 2d 32 be 8b d0 f3 3e 0a 33 50 3d
       -0.088432044 -0.17400123 0.47620043 0.050829925
000010 8f 65 5e be 29 df b1 3e 35 c1 06 3f b8 71 79 3f
       -0.21718429 0.3474057 0.5263856 0.97439146
000020 96 76 2e 3f 7e b5 6a 3e 6d c6 4b 3f c6 91 9c 3e
       0.681497 0.22920796 0.7959965 0.30579966
000030 85 f4 20 3e 4d 9d 35 bf 26 1b a2 be 77 a1 bc 3e
       0.15718277 -0.70943147 -0.31661338 0.36841938
000040 16 1d 29 be 33 ab aa 3e 20 2d 5a 3f 2f 8d 73 3f
       -0.16515002 0.3333374 0.85225105 0.95137304
000050 2f b7 82 bd cb d9 a0 3e 95 4d 79 3e 63 32 ab be
       -0.06382596 0.31416163 0.24346001 -0.3343688
000060 ee 2f b1 be b4 c7 2f bf a2 e0 7b bd ab 18 19 bf
       -0.3460688 -0.686641 -0.061493523 -0.59803265
000070 93 b8 e4 bd 42 b1 d7 3d 17 a0 3a 3e 8c de f1 3e
       -0.11168017 0.10531856 0.18225132 0.47240102
000080 14 bf b6 be ed a7 cf be 49 eb b6 3e 8d 19 be 3e
       -0.35692656 -0.40557805 0.35726383 0.3712887
000090 c5 99 19 be a6 8a fe bd ca 7c e3 be 94 5e 63 be
       -0.15000065 -0.12428789 -0.44431144 -0.22204047
0000a0 55 a3 ba 3e 39 1e 11 bf 86 1d 20 bf ff 1e a6 3e
       0.36452737 -0.5668674 -0.6254505 0.32445523
0000b0 30 f3 11 3e a8 1a aa 3b 9f b5 b7 3e 30 27 6a 3d
       0.14252925 0.005191166 0.35880753 0.05716628
0000c0 a1 83 1e 3e 20 00 db bc fe e1 04 bd ae 45 4c 3e
       0.154799 -0.026733458 -0.032442085 0.19948456
0000d0 3c 7c 72 3e 40 0e cf bd c8 c9 98 be ba 45 93 be
       0.23680204 -0.1011014 -0.29841447 -0.28764135
0000e0 ec 89 ab be 64 5a b4 3e f4 78 0d 3f 6f 8e 4a 3e
       -0.33503664 0.35225213 0.55262685 0.19780897
0000f0 e0 70 aa 3d 84 a8 0c be ac 78 26 3e dc 64 0e be
       0.083223104 -0.13736159 0.1625697 -0.13905662
000100 6c 2b 05 bf 23 5b f5 be ef f5 88 3f ff 87 9a 3e
       -0.5201938 -0.47921094 1.0700053 0.30181882
000110 de 5c 3c 3d ec 78 85 be 64 02 c5 3e fb 1e df 3e
       0.045987003 -0.2606882 0.38478386 0.43578324
000120 2c 3c c4 3e 14 cf 16 3f 5f 2f 19 3f 4c 00 8f be
       0.38327157 0.58909726 0.5983791 -0.27929914
000130 f1 98 b9 be da 47 a4 be 58 56 87 bf e5 27 3f bf
       -0.36249498 -0.32086068 -1.0573225 -0.7467025
000140 2e 00 00 3f 6c 01 36 3e c9 d9 94 3e 71 f5 8c bc
       0.50000274 0.1777398 0.29072407 -0.01720688
000150 a1 44 60 be a4 be fb 3d 33 b1 b6 bd d8 d1 7e be
       -0.2190118 0.12292221 -0.08920517 -0.24884737
000160 fc 0e b7 3d a1 9b a8 3c 6e 71 f2 bd d5 b5 be 3e
       0.08938405 0.020582022 -0.11838041 0.37248102
000170 9b ac 75 be 56 03 22 3e 7c 9e 17 3f 88 a4 bf 3e
       -0.23991625 0.15821585 0.592262 0.37430215
000180 2d 9c d7 bd a0 78 1a 3c a5 83 c3 3d 6b e3 f4 be
       -0.10527835 0.009428173 0.095465936 -0.47829756
000190 37 bd ad be 50 0b dc 3e 3f f9 f0 be 94 1d e0 bd
       -0.33933422 0.4297738 -0.4706516 -0.109431416
0001a0 66 cc 05 be d5 79 ac bc 81 f8 19 be 43 18 0f be
       -0.13066253 -0.021054188 -0.15036203 -0.13974099
0001b0 96 df bd 3d 2e 31 a2 be a5 de be be 0c 37 4f be
       0.09271161 -0.31678146 -0.3727924 -0.20235842
0001c0 da 09 64 3e 29 c6 df be 65 01 39 bf 90 e2 8a 3e
       0.22269383 -0.43705872 -0.7226775 0.27125978
0001d0 c0 d9 24 3e 3e 3c 25 3f 35 01 24 3e 2e f0 c8 be
       0.1609869 0.6454505 0.16016085 -0.39245743
0001e0 98 6b 07 3f a0 f9 24 3e 14 ca 2c 3f 76 7d c6 3d
       0.5289855 0.1611085 0.67495847 0.096918985
0001f0 3e 03 63 3e 3d ab a0 3e fe a7 26 3e f0 33 a4 3e
       0.22169206 0.31380644 0.16275021 0.32070875

bias f4 [32]
000000 22 d5 56 3f c4 1d 8a bd 84 fe 12 be 5d a7 51 3e
       0.83918965 -0.067439586 -0.14354903 0.20474
000010 a4 7a ea bd 7d 70 41 3f 57 85 84 be d1 54 23 3f
       -0.11449173 0.7556227 -0.2588298 0.63801295
000020 8a 97 04 bf bc 85 37 3f 2f be 07 3f 1a 84 f4 be
       -0.5179373 0.7168844 0.5302457 -0.47757035
000030 27 01 1e 3f a6 f4 42 3f 66 dd 05 3f 02 ad c7 be
       0.6172051 0.76154554 0.5229095 -0.38999182
000040 ac d1 0d bf a5 7b 5c 3f 07 6b 0a 3f 3d 81 4b be
       -0.5539806 0.86126167 0.5406956 -0.19873519
000050 80 23 f5 be 26 9b 6d 3f 45 06 32 3f 5e 1d 34 3f
       -0.47878647 0.9281486 0.69540817 0.7035731
000060 dd bb a1 3e a5 e6 0b 3f c4 b9 17 3f d3 7f 70 3f
       0.3158864 0.5464881 0.5926783 0.93945044
000070 e0 f7 9a 3e fc 7d e4 3d 67 49 f1 be 2c 8c 60 3f
       0.3026724 0.11156842 -0.47126314 0.87713885

weight f4 [32, 32]
000000 92 6f e8 3e 21 93 f5 be cf 5e eb be 56 23 0d 3e
       0.4539762 -0.47963813 -0.4597077 0.13783011
000010 62 32 05 bf 22 ab 12 3f 3a 24 2b be 0e 20 5e 3e
       -0.52030003 0.5729238 -0.16713038 0.21691915
000020 d5 c0 10 ba 46 62 13 3f e3 07 95 3e a7 f8 82 bd
       -0.0005521898 0.5757183 0.2910758 -0.06395083
000030 57 69 dd 3e 62 71 0f 3f bb 7f ba 3d 2b cc 18 3e
       0.4324443 0.56032383 0.09106394 0.14921634
000040 44 c4 f6 be d1 c9 04 3e 80 43 a5 3e 15 7e 82 be
       -0.48196614 0.12967612 0.3227806 -0.25486818
000050 fe f7 b6 bd cf a6 ed 3e bb 68 18 3e 1d 28 eb 3d
       -0.089340195 0.46416327 0.14883702 0.114822604
000060 60 4b 50 3e 29 34 0d 3f fe d2 07 3f bd 8e 00 3f
       0.20341253 0.55157715 0.53056324 0.502178
000070 ac 5c 18 3e 3e 9d c8 3d 93 2a b4 be ef fd 7c 3e
       0.14879102 0.097956166 -0.35188732 0.24706243
000080 44 13 d5 bd b6 16 c9 bd 90 7c 95 bd ed d6 6e bc
       -0.10404065 -0.09818785 -0.07299149 -0.0145776095
000090 1f 4a 98 3d c6 e8 0e 3d e0 69 a9 3b 05 f0 a1 3d
       0.074360125 0.03488996 0.005170092 0.07907108
0000a0 32 9d b6 bd c8 e5 bf 3d 41 fc a7 bd 96 35 1e 3e
       -0.089167014 0.09369999 -0.082024105 0.15450129
0000b0 0d 13 82 be d6 2d 4f be bb 4e 60 3c b1 bd ca bd
       -0.2540516 -0.20232329 0.013690646 -0.09899462
0000c0 40 1f 00 be f6 16 3c bd 7d 42 12 be db 8f 1f 3e
       -0.12511921 -0.045920335 -0.14283176 0.1558222
0000d0 5a 0d ef 3d 84 45 0e be 52 b7 07 be af 8e 8e bc
       0.116724685 -0.13893706 -0.13253525 -0.017402021
0000e0 b0 2b b3 bd 2f 8c 25 bc 2d e8 e8 bd 45 d5 24 be
       -0.08748567 -0.010104223 -0.11372409 -0.16096981
0000f0 60 17 f9 bd 71 6d ed 3b d0 69 31 3e a0 e6 e2 bd
       -0.121626616 0.0072457124 0.1732552 -0.110791445
000100 6b f8 3d bd 20 7d d3 bc 4d b4 b1 bd 80 6a f7 bd
       -0.046379488 -0.0258165 -0.08676968 -0.1208086
000110 06 25 87 3d 32 0a 7a bd d1 ec 2a 3d 5f d1 dd bd
       0.065988585 -0.06104488 0.041729752 -0.1083095
000120 3c cb 07 3b df 26 19 be 0a 8f 2b be 5b 63 08 3e
       0.0020720502 -0.14956234 -0.16753784 0.13319151
000130 fd a1 fb 3c 20 39 9f 3b 24 a7 2a bd 31 42 04 3e
       0.03071689 0.0048591048 -0.041663304 0.12915875
000140 1d 7b 6d 3d 73 3c bb bd 7b 5b ec bd 22 42 a6 3c
       0.057978738 -0.09142389 -0.11540886 0.020295206
000150 ff 96 28 3e 2d f0 45 be 28 d2 80 bc 10 a5 38 be
       0.1646385 -0.19329901 -0.01572521 -0.18031716
000160 59 aa dd bd 1c d9 d3 bc fa aa 5c be 31 5c 2f 3d
       -0.10823507 -0.025860362 -0.21549597 0.04281253
000170 95 80 82 be 84 bb 39 3d a0 88 5a 3c 88 07 9c bc
       -0.25488725 0.045344844 0.013338238 -0.01904656
000180 ee 48 39 3d 5a 66 82 bd a4 14 5b bd f1 51 04 be
       0.045235567 -0.06367178 -0.05348648 -0.12921883
000190 32 05 78 be dd d5 e1 3c 80 0b 4d bd 4d 27 2e 3d
       -0.24220732 0.027567798 -0.050059795 0.04251795
0001a0 e2 20 8c bd f4 0a 19 be 0b 9b 02 be 60 e4 7a be
       -0.068422094 -0.14945585 -0.12754457 -0.2450118
0001b0 dc bd 1e 3c 45 29 94 3d 63 65 b6 bd c2 1e 0a be
       0.009688821 0.07234434 -0.08906057 -0.13488296
0001c0 84 3a 84 be ab 34 2f 3b ac c8 08 3b 6a db e1 3d
       -0.25825894 0.0026734273 0.0020871563 0.11028178
0001d0 78 ad 1f bd a9 45 ec bd d9 0d 6f be ee 4c 21 bc
       -0.038983792 -0.11536724 -0.23345126 -0.009845002
0001e0 f4 41 b6 3d 4e 1b bb bd 15 fe 81 be e2 2c 2b be
       0.08899298 -0.09136067 -0.25389162 -0.1671634
0001f0 6d 1e 12 be 4e e2 12 bd 81 87 4b be 24 c3 13 be
       -0.14269419 -0.035860352 -0.1987591 -0.14429909
000200 a6 61 db 3e 5c 0b c4 be 82 fa 99 be ec b8 96 3e
       0.42847937 -0.38289917 -0.30073935 0.2943796
000210 11 c6 00 bf d8 d3 84 3e 98 dc dd be a6 d2 d1 3e
       -0.50302225 0.25942874 -0.43332362 0.40981025
000220 b8 cb d9 be 8b 56 0a 3f d4 ec 58 3e 37 26 84 3d
       -0.42538238 0.54038304 0.21184093 0.064526014
000230 29 05 05 3f 7e 30 04 3f 1d 1d aa 3e 4a d6 bd bd
       0.51961 0.51636493 0.33225337 -0.09269388
000240 8c 69 94 be 60 a9 c1 3e 2a d8 02 3f 7f 8d 29 bf
       -0.28986776 0.37824535 0.5111109 -0.6623153
000250 93 29 8a be 4b a1 06 3f b9 a1 b0 3e 4b 5f fd 3e
       -0.26984844 0.52589864 0.34498385 0.49486765
000260 bc a1 25 bd 50 e6 e3 3e dc 19 8f 3e 5f d4 02 3f
       -0.040437445 0.44511652 0.27949417 0.511053
000270 c0 f6 4f 3e 6c ae 82 3e d8 81 d4 be 85 ea a2 3e
       0.20308971 0.25523698 -0.41505313 0.3181955
000280 c9 c3 b6 3e d2 63 a2 be fa 93 a1 be 1d bc e9 3d
       0.35696247 -0.31716782 -0.3155821 0.11412833
000290 77 e2 08 bf 3d 0d b3 3e df b4 bc be 95 64 56 3e
       -0.5347056 0.34971038 -0.36856744 0.20936806
0002a0 d5 0f 01 be 2e da df 3e 55 81 19 3e 8c 7f 9e 3d
       -0.12603696 0.43721145 0.14990743 0.077391714
0002b0 3f 8e db 3e 98 1b ce 3e 90 8f 5d 3e 08 c9 65 3d
       0.42881963 0.40255427 0.21636796 0.05609992
0002c0 d3 c5 a4 be 05 ad e0 3e 2d 00 d0 3e 9b 87 0e bf
       -0.32182178 0.43882003 0.40625134 -0.5567567
0002d0 14 df 9f be 23 b5 b8 3e 4c 2f 83 3e cc cb b5 3d
       -0.31224883 0.36075696 0.25622022 0.08876762
0002e0 32 72 7e 3e ca 92 b8 3e 21 5e d5 3e 18 e3 8c 3e
       0.2484825 0.3604949 0.41673377 0.2751701
0002f0 fb 5b de 3e 9d af 9b 3e a3 61 1c be 8a 69 9d 3e
       0.4342955 0.3040742 -0.1527162 0.30744582
000300 03 6f c1 3e 3c fc 7f be 48 40 c7 be 5d b6 85 3d
       0.37780008 -0.24998564 -0.3891623 0.06528924
000310 2c b1 08 bf 4d fb dd 3e 59 3a a5 be fd 7b 10 3e
       -0.5339534 0.4335579 -0.32271078 0.14109798
000320 52 a0 c2 be b1 ae bc 3e 99 5c ae 3e ab c5 46 be
       -0.3801294 0.3685203 0.3405502 -0.19411342
000330 ce 0a b4 3e c8 21 98 3e 34 43 cb 3e c0 45 27 bd
       0.35164493 0.29713273 0.3969971 -0.040838003
000340 59 66 8c be 44 25 0b 3e 92 90 5a 3e f2 00 1d bf
       -0.27421835 0.13588434 0.21344212 -0.6132957
000350 a3 91 83 be 74 4f 10 3f 4d c0 90 3e 94 e0 c3 3d
       -0.2569705 0.56371236 0.28271714 0.09564319
000360 fd ad 8a 3d ef 3f 0b 3f 31 fb a4 3e 10 fd 03 3f
       0.06771467 0.5439443 0.32222894 0.5155802
000370 da d5 97 3e 5d 70 0a 3e 52 24 b2 be 7d e2 e1 3e
       0.29655343 0.13519426 -0.34793335 0.4411811
000380 e8 7b 19 be ee 39 db 3d 68 d9 da 3c d8 5e d0 bd
       -0.14988673 0.107044086 0.026714996 -0.1017434
000390 e0 c1 93 bc d2 66 03 3e a9 fe 05 3e 14 6f 71 3d
       -0.018036783 0.12832192 0.13085426 0.058943823
0003a0 40 e3 88 bc b1 30 0e 3e 88 a1 02 be fb 9f a9 bd
       -0.016709924 0.13885762 -0.12756932 -0.08282467
0003b0 cf eb 13 be 59 ff db 3d e3 c3 f9 bd f5 c0 29 3e
       -0.14445423 0.10742063 -0.121955656 0.16577514
0003c0 56 ea b9 3d 20 35 43 be df 4c 16 bd 46 c6 c2 bd
       0.09077899 -0.19063234 -0.036694404 -0.09510474
0003d0 a1 08 f6 bd fe 24 b1 bd b2 69 73 bc f3 4f e4 bd
       -0.120133646 -0.08649634 -0.014856743 -0.111480616
0003e0 53 b8 94 bc d9 5d 58 be 6b 8b a9 3d 24 72 d5 bd
       -0.018154299 -0.2112955 0.08278545 -0.10422161
0003f0 e1 55 2d be 2b 4f 8f bb 26 c4 c9 bd 82 18 5a be
       -0.16927291 -0.004373451 -0.098518655 -0.21298411

bias f4 [32]
000000 dc e8 a7 3e c2 4e 2b 3d 56 77 2d be a6 33 a7 bd
       0.32794845 0.041823156 -0.16940054 -0.08164148
000010 ce 90 e9 3e c1 c1 9a 3e 8e 90 c3 3e 45 10 18 be
       0.4561829 0.30225947 0.38196224 -0.14849956
000020 51 d4 fa bb 9f e5 df 3e 7d 9b 08 be eb 91 fe 3c
       -0.0076547046 0.43729874 -0.13340564 0.031075438
000030 28 9d df 3e 73 3b 07 3f e9 5c 1d be 40 6b 31 bb
       0.43674588 0.5282509 -0.15367474 -0.0027071983
000040 6f 1c fc 3e cf 45 a3 3e 22 e6 1d be eb 81 fc 3e
       0.49240443 0.31889197 -0.1541982 0.4931787
000050 d2 e0 13 be 12 52 ef 3e f9 d5 a0 3e f9 dd ba 3d
       -0.14441231 0.46742302 0.31413248 0.09124369
000060 6e 3b 03 bd a1 7f f9 bb 4b 25 c3 3e e2 19 61 3d
       -0.0320391 -0.0076140915 0.3811439 0.054956324
000070 6c 54 72 3e d6 5f 53 be 5f 13 ee bd ac 7f 4d 3e
       0.23665017 -0.20642027 -0.116247885 0.20068234

weight f4 [2, 32]
000000 23 77 6d 3e 78 55 47 be 35 b3 24 bd 7d 7f 4b 3d
       0.23189978 -0.19466197 -0.040209968 0.04968213
000010 75 da 84 bc 3c 33 3b 3e 3f d3 fc 3d fc 67 04 3e
       -0.01621745 0.18281263 0.123449795 0.12930292
000020 90 f1 45 3c 6c 99 4e be 06 3c a7 bd 11 68 cc bd
       0.012081519 -0.20175713 -0.081657454 -0.099807866
000030 fb f4 cd bd b3 b0 ae bd 5d 73 15 be 06 d8 d1 3d
       -0.10056492 -0.085297965 -0.14594789 0.10246281
000040 a4 b1 b3 bd 7e fc d4 be a4 3b 4f 3d 92 1f ae 3d
       -0.08774117 -0.41598886 0.050593987 0.08502115
000050 5f f0 37 3e 9c 3d b0 be 90 af fb 3e eb 65 77 3d
       0.17962788 -0.34422004 0.4915738 0.06039993
000060 a1 6f 7e bd c1 69 25 be fa 08 a5 be 3d ed 0d 3f
       -0.062118176 -0.16153623 -0.3223341 0.5544012
000070 80 01 c4 3d ec df 35 be c9 81 31 3e 5d b6 91 3e
       0.095705986 -0.177612 0.17334665 0.28459445
000080 fb ad d2 bd a2 2c 00 bd e8 83 0f 3e 7d aa 16 bd
       -0.102870904 -0.031292565 0.14015162 -0.036783684
000090 1d 45 8a 3d 44 54 c6 3c 96 f9 c2 bd 59 5d c3 bc
       0.067514636 0.024210103 -0.09520261 -0.023848223
0000a0 d0 f3 4e bc d2 9f 6d 3a c7 2f f1 bc df 74 59 3d
       -0.012631372 0.00090646476 -0.029441727 0.053089973
0000b0 b7 f0 cf bd 13 8a d3 bd ec 89 8e bd fa 65 1a be
       -0.101533346 -0.1032907 -0.069599 -0.15077963
0000c0 64 d9 0e bb 77 d2 cf 3d f0 b4 7b 3d b1 cc 0b be
       -0.0021797055 0.10147565 0.061451852 -0.13652302
0000d0 b3 24 c0 3d 47 72 fd 3d e7 0b e5 be 66 ef 48 be
       0.09382 0.12375312 -0.44735643 -0.19622573
0000e0 d0 78 8b bd 64 8a 81 3e 80 f0 a3 3e d1 83 1b bf
       -0.068101525 0.25300896 0.32019424 -0.6074801
0000f0 e9 ab ac bc 78 c8 0f 3d 4b c8 fd 3c 75 0f eb bd
       -0.021078067 0.03510329 0.030979296 -0.114775576

bias f4 [2]
000000 68 06 e7 bd 43 8a 8d 3e
       -0.11280519 0.27644548

weight f4 [1, 32]
000000 80 99 de 3e 25 27 aa bd 53 92 81 3c 00 2d a0 bd
       0.43476486 -0.083082475 0.015816843 -0.07821083
000010 e8 3c f1 3e d4 27 07 3f a4 23 18 3f b2 b8 38 bd
       0.4711678 0.5279515 0.59429383 -0.045098014
000020 95 e5 65 3d 83 3c fe 3e 11 5e b8 bc e6 57 1b bd
       0.05612715 0.49655542 -0.022505792 -0.037925623
000030 72 83 01 3f 2e 98 00 3f 00 93 55 bd 2d f2 9d bd
       0.50591195 0.5023221 -0.052142143 -0.07712207
000040 61 ca 0d 3f cd 14 e9 3e 44 42 41 bd 70 57 11 3f
       0.5538693 0.45523682 -0.047182336 0.56774044
000050 85 9c 5c bd 7a 19 1e 3f 92 8b 8a 3e 10 a7 b3 3e
       -0.053860206 0.61757624 0.2705961 0.35088396
000060 9c a0 d0 3c 67 96 22 bd 0e 42 ea 3e c1 99 06 3d
       0.02546721 -0.039694216 0.4575352 0.032861475
000070 65 27 0d 3f 77 69 6d bd 3e 3e 90 3c cd 21 0a 3f
       0.55138236 -0.057961907 0.017607804 0.53957826
