data/20220509-030621/model.pth (torch, 8399 bytes, 7 tensors)

weight f4 [32, 4]
000000 02 56 e4 be 1c 12 18 3f b6 bb 00 40 c2 45 07 3f
       -0.4459687 0.5940263 2.011457 0.52840817
000010 6a d5 a3 3e c6 3c e8 3d b4 6f 8b 3f f1 5e 20 3f
       0.3199876 0.113397166 1.0893464 0.6264487
000020 ed ea f9 3d 1e c6 51 3f d5 76 7a 3f e5 1e 04 3e
       0.12203012 0.8194293 0.97837573 0.1290241
000030 a1 e3 47 3e ca 0b a4 3e 29 d8 28 3f 1b 52 4a 3f
       0.19520427 0.32040244 0.65954834 0.79031533
000040 ac b8 25 3e aa f8 84 3a 0a 82 e4 3f c4 5e ba 3e
       0.16183728 0.0010144908 1.7852185 0.36400425
000050 a1 68 a0 be fb 6a 74 3f f1 b3 8c 3f 7e 75 e0 3e
       -0.31329826 0.9547574 1.0992414 0.4383964
000060 1b ca 86 3e 45 6d 5f 3f fb 4d 86 3f e9 78 80 3e
       0.2632607 0.8727611 1.0492548 0.25092247
000070 c0 df 35 be 59 b2 ff 3e af b3 d6 3f 8b 09 1f 3f
       -0.17761135 0.49940756 1.6773585 0.62123936
000080 f1 c5 9e bc ac d2 94 bc 1e 89 9c 3f 31 91 b9 3e
       -0.019381495 -0.018166862 1.2229345 0.36243585
000090 ea b0 05 3e e9 ad 93 be 95 d3 b2 bd 63 5e 44 bd
       0.13055769 -0.2884362 -0.08731762 -0.047941577
0000a0 1d d5 ea 3d f1 72 4d 3e 47 57 1a 3f df 43 2e 3f
       0.114664294 0.20063378 0.60289425 0.68072313
0000b0 f9 82 2f be f7 9d b2 3e c5 9a b8 3f ea bb 95 3e
       -0.17139806 0.34886143 1.4422232 0.2924493
0000c0 20 1c 91 3d c8 20 bf 3d ab 7f 6c 3f d7 1b 4b 3e
       0.070854425 0.093324244 0.92382306 0.19834839
0000d0 c6 de dd 3e 89 47 62 3d 82 bd 81 3f d7 c6 04 3f
       0.43334025 0.055244002 1.0135958 0.51865906
0000e0 a5 d7 ad be 00 c8 bb 3e b9 e5 97 3f 6f 48 53 3d
       -0.33953586 0.36676025 1.1866981 0.05158275
0000f0 2e af fe bd 66 ef 29 3f e0 fe 07 40 e4 61 18 3f
       -0.124357566 0.6638092 2.1249313 0.5952437
000100 aa b4 6c 3e 42 db 59 3f 02 64 99 3f 0e 48 b6 bc
       0.23115793 0.85100186 1.1983645 -0.022251155
000110 c5 28 80 3e 57 43 4b 3f 55 92 5e 3f c7 a5 56 3e
       0.25031105 0.7939963 0.86942035 0.20961677
000120 b5 a6 36 be e3 6e 0c 3f 3a 19 63 3f 12 7d 27 3f
       -0.17837031 0.548567 0.8871037 0.6542522
000130 27 8b cb 3e c0 08 49 3f 7e 6f fc 3f 3d 85 41 3f
       0.39754602 0.78528976 1.9721525 0.7559393
000140 da a7 8a 3e d6 88 a1 3f 6b 95 f9 3f b1 00 85 3f
       0.27081186 1.2619884 1.9498724 1.0390836
000150 ba 07 1f be d4 3e 95 3e d2 56 90 bd d8 3d 5d 3e
       -0.15530291 0.29149497 -0.0704781 0.21605623
000160 1b 39 32 3b 3b 79 93 be b1 37 fa be 29 5e c9 3e
       0.0027194682 -0.2880343 -0.48870614 0.3932965
000170 66 de 12 3e f5 43 86 3f 89 7b cb 3f 25 20 7a 3f
       0.14342651 1.0489489 1.5897075 0.977053
000180 2d 2a 3a bd 3f ed 9b 3e 13 c5 11 40 f5 de 40 3f
       -0.04545038 0.30454442 2.2776535 0.75340205
000190 8c ac 79 bd 20 45 3a 3f ce 7f b4 3f be 41 37 3f
       -0.06095557 0.72761726 1.4101503 0.7158469
0001a0 e9 1f b7 3e 9b c8 47 3f 7a 68 10 40 96 f7 36 3f
       0.35766533 0.78040475 2.2563767 0.71471536
0001b0 10 38 2e be 34 e0 77 3e 0a 69 6c 3e 00 b5 08 3e
       -0.17013574 0.2420662 0.23086944 0.13350296
0001c0 54 a9 90 3e 9f 28 87 3f 57 27 cc 3f 4d bc 19 3f
       0.28254187 1.0559272 1.5949506 0.6005295
0001d0 75 be 5e 3e 0b 89 ad be 8c b3 86 be 55 c0 2d 3f
       0.21752341 -0.33893618 -0.26308858 0.678716
0001e0 e5 74 a3 bc 93 c6 18 bb 02 3e 25 be 57 ea 6a 3d
       -0.0199532 -0.0023311719 -0.16136935 0.05735239
0001f0 77 ec 8a bc ed 13 dc 3e 24 72 b2 3e f0 d6 2a 3f
       -0.016958458 0.42983952 0.34852707 0.6673422

bias f4 [32]
000000 26 c5 f7 bd 89 9c 52 3f ba 0a 09 3f e6 a6 4c 3f
       -0.1209815 0.82270104 0.5353199 0.79942167
000010 21 2d c9 be c8 ea 04 3f 16 04 34 3f a2 f6 59 3f
       -0.39292243 0.5192075 0.70318735 0.85141957
000020 51 b2 44 3f 47 5a 3c bf df 9f 19 3f 0e f8 30 3f
       0.7683459 -0.7357525 0.6000957 0.691285
000030 30 69 23 3f 2f 9e 6e 3f dd c6 68 3f 84 04 0c ba
       0.6383238 0.9321012 0.9092844 -0.0005341249
000040 55 eb 5e 3f 2c 33 1b 3f 98 ac 39 3f 19 03 d4 be
       0.8707784 0.6062496 0.7252898 -0.41408613
000050 54 65 78 be f6 ad c6 be b8 ad 93 be d5 50 09 be
       -0.24257404 -0.38804597 -0.28843474 -0.13409741
000060 eb 7d 1c be 75 50 3a 3f 90 f5 af be 39 b7 de be
       -0.15282409 0.7277902 -0.34367037 -0.43499163
000070 9a 04 65 3f fb c9 94 3e 26 eb 4b bf d1 0e 06 3f
       0.89460146 0.2906035 -0.79655683 0.5236636

weight f4 [32, 32]
000000 28 39 b4 bd 19 bb 51 bd 88 71 66 bc 00 11 6d bd
       -0.08799964 -0.05120382 -0.014065154 -0.05787754
000010 c1 28 61 bd 75 42 d9 bd 37 6a 4c be 34 46 63 be
       -0.054970507 -0.10608379 -0.19962393 -0.22194749
000020 3e 33 5b bd 08 c7 ff bd 1d 2d 1c be e4 92 fe bc
       -0.053515665 -0.12489134 -0.15251584 -0.031075902
000030 cd 22 1e bd 25 c8 12 bd 18 af ad bc 54 51 9f 3d
       -0.038607407 -0.035835404 -0.021201655 0.07779184
000040 39 6f 44 bd c8 9d fb bd ed 56 10 be 66 d6 17 bd
       -0.047957633 -0.12285954 -0.1409566 -0.0370697
000050 7e d0 56 be 08 0a 6e 3e 66 27 35 bd eb e9 33 3d
       -0.20977971 0.23246014 -0.044227026 0.043924253
000060 1d ce 71 3d 34 39 15 be 32 d6 aa 3c 72 b2 4e 3c
       0.059034456 -0.14572603 0.02085409 0.012615787
000070 5b e3 74 3d 11 b0 e2 3c 05 c0 de bd fb 9a 86 be
       0.059787136 0.027671846 -0.108764686 -0.26290116
000080 13 a8 82 bd dc 2d 19 3c 00 97 58 3b d5 81 13 bd
       -0.06379714 0.009349313 0.0033048987 -0.03601249
000090 80 99 21 bd 99 aa c2 bd 19 df b0 bd d0 e1 82 bd
       -0.03945303 -0.09505195 -0.086363025 -0.063907266
0000a0 50 b8 76 bc 06 cf b0 3d 87 10 09 be 43 00 01 be
       -0.015058592 0.086332366 -0.13385211 -0.12597756
0000b0 96 b1 37 be a7 24 2d be 45 16 e6 bd 8e 91 ce bd
       -0.17938837 -0.16908513 -0.11234716 -0.10086356
0000c0 20 03 bf bb 0e 0c ac bd 36 10 ca 3d 47 38 a5 bd
       -0.00582923 -0.08400737 0.09866373 -0.08067375
0000d0 af 6f 0c 3e a0 c8 f3 bc 20 15 38 be 08 f5 04 3d
       0.13714479 -0.029758751 -0.17976809 0.032460243
0000e0 30 9e ef 3c a0 79 c7 bc 22 a6 fa 3d 48 8b 28 3d
       0.029250234 -0.024349988 0.122387186 0.041148454
0000f0 9e b8 2f be 5b 8c 8e 3d 44 94 0d 3d 04 67 3e bd
       -0.1716027 0.069603644 0.034565225 -0.046484962
000100 64 14 71 bf 89 cb f3 3e 8c 49 86 bd 1b 02 1e 3f
       -0.9417174 0.47616223 -0.06556997 0.6172196
000110 dd 30 4f bf 34 8b 5b 3f 03 26 33 3e 64 b8 72 3f
       -0.80933934 0.8575928 0.17494969 0.9481261
000120 45 a6 b6 3e 2a 66 7c be 14 f0 d0 3e c7 ec 2f 3f
       0.3567373 -0.24648347 0.40808165 0.6872067
000130 5b 61 61 3e ef d0 0d 3f 7d 00 88 3e 48 ec 66 bf
       0.22009794 0.5539693 0.26562873 -0.90204287
000140 21 21 e4 3d f9 b0 04 be 33 0d 80 3f 79 ae 80 bf
       0.11139131 -0.12958135 1.0004028 -1.0053245
000150 f6 ca ae bf 1d 29 a8 3a 58 1b 0a 3c cd 73 92 bf
       -1.3655689 0.0012829636 0.008429371 -1.144159
000160 cd a5 2f bf e8 b6 76 3f 2b b4 8f bf a6 32 94 bd
       -0.68612367 0.9637284 -1.1226858 -0.07236223
000170 ce 39 43 3f fc 95 b7 3e 0c a8 b4 bd 48 fe 43 3f
       0.7626008 0.35856616 -0.08821115 0.7655988
000180 92 ab 99 bf 9a 05 97 3e c2 e5 d0 3e 32 e9 9a 3e
       -1.2005484 0.2949646 0.4080029 0.3025604
000190 6b 01 4b bf fd eb 1b 3f bc 6d bf 3e 20 21 ce 3e
       -0.7929904 0.60906965 0.37388408 0.40259647
0001a0 04 29 ae 3e d2 57 90 be 7e 35 23 3e 52 75 f2 3e
       0.34015667 -0.28192002 0.15938374 0.47355133
0001b0 a4 bc f7 3e 35 7e 0d 3f e2 21 cb 3e 5d f1 a1 bf
       0.4838611 0.552707 0.39674288 -1.2651783
0001c0 53 66 0c 3f b6 59 77 3e d8 2a 9b 3e 23 d8 85 bf
       0.54843634 0.24155316 0.30306125 -1.0456585
0001d0 fe 29 b3 bf 1f f1 a8 bd 2e ab 9e 3c b7 80 a9 bf
       -1.399719 -0.08249115 0.019368734 -1.3242406
0001e0 8d f3 7f bf c6 c4 f6 3e 0f 89 94 bf 7a bb 7f 3d
       -0.99981004 0.48197 -1.1604327 0.06243465
0001f0 5f 54 15 3f ac 61 3c 3e cc 2d 28 be 91 a0 04 3e
       0.58331865 0.18396634 -0.1642372 0.12951876
000200 aa ea 96 bf 31 e1 1e 3f dd 9e 67 3e 50 ab db 3e
       -1.1790364 0.62062365 0.22619195 0.4290414
000210 74 69 15 bf d0 42 2f 3f 0c 1d 1a 3e 0e 4f 36 3f
       -0.58364034 0.6846132 0.15050143 0.7121438
000220 27 ee e8 3e af 19 f6 bc 6a cd 06 3f 1b ee 23 3f
       0.45494196 -0.030041544 0.52657187 0.64035195
000230 57 ba 9e 3e 49 f2 df 3e ea 9b dd 3e 88 ea 86 bf
       0.3100154 0.43739536 0.43283015 -1.0540323
000240 1c 0e 0b 3e 15 1a a5 3e 19 e4 11 3f 2e db 77 bf
       0.13579601 0.32246462 0.56988674 -0.96818817
000250 68 cf c5 bf 71 46 0f be e3 56 9c 3d 87 b9 a3 bf
       -1.545392 -0.13991715 0.0763376 -1.2790993
000260 1a a8 63 bf 35 f4 35 3f 36 cf ac bf 26 65 98 3c
       -0.8892838 0.71075755 -1.3500736 0.018602919
000270 4b 0c 24 3f 8c 7a 93 3e 5b 3c 88 be 0a 40 1c 3f
       0.6408126 0.28804433 -0.26608548 0.61035216
000280 40 5a 61 3d 3c fa 49 bd 48 14 96 bd 21 1d 1b be
       0.05501771 -0.049310908 -0.07328087 -0.1514783
000290 d0 2c 0b 3d a1 a9 95 bd 19 78 be bd 7f f7 08 3e
       0.033978283 -0.07307745 -0.093002506 0.13375662
0002a0 ed dc 30 be 24 8b cd bd 08 4e a1 bc 73 98 2e be
       -0.17271776 -0.100363046 -0.019690529 -0.17050342
0002b0 4b 88 eb bd 91 7a 2e be cc df 1b be 90 99 d6 bc
       -0.11500605 -0.17038943 -0.1522209 -0.026196271
0002c0 09 d7 ce 3d 74 05 25 bd 14 ce 3e bd 7d de 29 3e
       0.100996085 -0.040288404 -0.04658325 0.16588779
0002d0 43 22 1e 3e 30 2e 8c bd ae d9 01 be 47 c3 a5 bd
       0.15442757 -0.06844747 -0.12680694 -0.08093887
0002e0 75 cc b6 bd 78 c2 f6 bd b3 0f e1 bd e1 fa 0d be
       -0.08925716 -0.12048811 -0.109893225 -0.13865234
0002f0 64 48 e0 3d 62 61 f8 bd fd 52 1a be ba e6 c1 3d
       0.109513074 -0.12127949 -0.1507072 0.09467836
000300 40 54 7b bf d2 02 f6 3e af 79 d9 3e 19 a3 24 3f
       -0.9817543 0.48049027 0.4247565 0.6431137
000310 1e 65 3b bf 0c 13 20 3f cf a7 a6 3e 24 6f 50 3f
       -0.7320117 0.62529063 0.32549903 0.8141959
000320 19 af dc 3e 24 c3 de bd 91 72 d8 3e fa 58 43 3f
       0.4310234 -0.10877064 0.42274907 0.7630764
000330 1f de 19 3f b3 f8 f1 3e c1 2f 0c 3f 1e aa 53 bf
       0.60104555 0.47260055 0.54760367 -0.82681453
000340 29 39 08 3f 74 39 97 3e a2 42 2c 3f e9 fe 55 bf
       0.5321222 0.2953602 0.67289174 -0.8359209
000350 13 77 a4 bf 14 9a 70 3d b8 45 25 be 1a 3a 7a bf
       -1.2848839 0.05874069 -0.16139877 -0.97744906
000360 3d 6d 44 bf 89 f5 19 3f c7 cd 7f bf c1 4e d6 bb
       -0.76729184 0.6014028 -0.99923366 -0.00654015
000370 eb 3e 07 3f ae 1f e4 3d c4 ab 8b be 28 df f5 3e
       0.5283038 0.11138855 -0.27279484 0.48021817
000380 a9 34 62 3d c5 7d 6f be 9e 27 94 bd 23 f8 09 be
       0.055226002 -0.23387821 -0.07234119 -0.13473563
000390 8d 7c 86 bd c1 da 90 bc 5c ec 49 be c5 f6 81 be
       -0.06566725 -0.017682435 -0.1971907 -0.25383583
0003a0 51 1d 1d 3d 18 4f 33 3d 3c 35 8e 3d 6c ad 9f 3d
       0.038358036 0.0437766 0.069437474 0.077967495
0003b0 f2 c4 20 bc fd 20 ad 3d b3 f0 00 3d d5 c0 a6 3d
       -0.00981258 0.08453558 0.03147955 0.081422485
0003c0 60 e5 84 3c 58 b1 14 be 84 25 5b be 7a 16 93 bd
       0.016222656 -0.14520776 -0.2140103 -0.071820214
0003d0 c5 c3 d8 3c 04 5e 96 3d b0 81 ef 3c c1 47 25 bd
       0.026460538 0.07342151 0.029236645 -0.040351633
0003e0 97 1d 49 be 9f c6 36 3d 42 95 34 3d 36 24 a9 bd
       -0.19640194 0.044623014 0.044087656 -0.0825886
0003f0 47 80 27 bd 31 4c 1b be f6 a7 af 3d 69 a3 c6 3d
       -0.04089382 -0.15165783 0.08576958 0.09699137

bias f4 [32]
000000 25 c6 f6 bd 13 b7 e0 bd 4e 6b 00 3f 55 90 c0 3e
       -0.12049512 -0.10972419 0.50163734 0.37610117
000010 5c 1c b0 3e e9 cc 6b be 5f 84 08 3f fc d0 10 be
       0.34396636 -0.23027386 0.5332698 -0.14142221
000020 58 d2 0b bd 4a e3 be 3e 51 33 a8 3d 20 df 02 3f
       -0.034136146 0.37282783 0.08212913 0.5112171
000030 e2 6b 32 bc f1 6a 02 3f 76 4e 94 3e f8 ad 17 bc
       -0.010889979 0.5094443 0.2896611 -0.009257786
000040 ed fd 1d be f9 26 03 3f 36 39 1b bd 1e 64 c7 bd
       -0.15428896 0.5123134 -0.037896357 -0.09735893
000050 02 7a 67 3d c8 8d f0 3e f6 08 46 3e 21 e2 4f be
       0.05651284 0.4698317 0.19339356 -0.20301105
000060 a8 64 ef 3e f7 3f ec 3e a9 7d 0c 3f 65 24 10 3f
       0.46756482 0.4614255 0.5487924 0.56305534
000070 44 79 98 3e 31 b1 21 be 28 25 07 be 75 26 88 bd
       0.29780018 -0.1579025 -0.13197768 -0.0664796

weight f4 [2, 32]
000000 42 44 a9 bd aa 5f 21 3e 7e 80 a1 be 8b 1d b8 3e
       -0.08264972 0.15759149 -0.31543344 0.3596004
000010 19 93 ba bd 3d 4b 9a bc 4c 29 d9 3c 32 f2 da 3d
       -0.09110088 -0.018834705 0.02650895 0.10690726
000020 08 c8 72 be 81 94 98 bd 24 fe 87 3e 33 93 99 bc
       -0.23709118 -0.074502 0.2656108 -0.018746948
000030 07 d4 55 be e4 81 42 3e d6 82 ff 3e b8 e4 00 bd
       -0.20881663 0.18994862 0.49904507 -0.031468123
000040 c0 b2 f6 3c f5 07 37 3e 00 26 a2 bd 1e be 8c 3c
       0.030114532 0.17874129 -0.07917404 0.017180499
000050 ce 0a 46 3d e7 85 89 3d 78 10 ac bc ce f8 12 be
       0.048350148 0.06714993 -0.021003947 -0.14352724
000060 15 fa ab 3e 59 43 9b be 10 8b 4c bd 3b c3 09 3b
       0.33589235 -0.3032482 -0.049937308 0.0021020907
000070 ee 96 1c 3e 7f a6 84 3e 68 c8 8f bd 99 88 30 bd
       0.1529195 0.25908276 -0.07020646 -0.04309902
000080 ac 7b 8d bd b0 dd 50 bd 70 3c 95 3e f7 cf 66 be
       -0.06908354 -0.050992668 0.29147673 -0.2254027
000090 62 7b f1 3c 54 04 57 be 12 e2 bf 3d bf 17 1c 3c
       0.029477779 -0.20997745 0.09369291 0.009527146
0000a0 7d 4d 14 3d a5 e2 4b 3e 2e 79 4d bd 1c d7 b5 3e
       0.03620671 0.19910677 -0.050164394 0.35515678
0000b0 22 44 95 3d bb 61 f0 3d 52 98 d9 be ce 07 8d 3d
       0.07288386 0.117373906 -0.42499024 0.06886254
0000c0 0c 96 04 3d af 24 d6 3d ae 1c 60 3e 1f b2 b6 3d
       0.03236966 0.104562156 0.2188594 0.08920693
0000d0 8e 12 4c 3d b6 30 80 be c2 33 05 bc 40 83 fa bd
       0.049822383 -0.25037163 -0.008130016 -0.12232065
0000e0 23 15 78 be e7 ca a4 3e b5 7a 6a be 82 5d 23 bb
       -0.24226813 0.32186052 -0.22898372 -0.0024927561
0000f0 6c 2f bc bc a9 c2 82 be be 55 99 3d 6f 41 4c bd
       -0.022971831 -0.2553914 0.07487057 -0.04986709

bias f4 [2]
000000 3d a2 ab 3d a9 01 91 3c
       0.08380554 0.017700987

weight f4 [1, 32]
000000 8b 58 56 bd 8a fa e0 bc 92 7e 57 3f 4c d0 59 3f
       -0.052330535 -0.027463216 0.84177506 0.8508346
000010 2a 77 5c 3f 69 fd 58 bd ce 57 3b 3f be ff 3f 3d
       0.8611933 -0.052976046 0.73180854 0.046874754
000020 c4 b6 e7 3c 04 9c 4d 3f ec 14 51 bd 53 58 3e 3f
       0.028285392 0.80316186 -0.051045343 0.7435352
000030 d8 16 a2 bd f0 55 3a 3f cd 83 36 3f 87 9f b9 bd
       -0.07914513 0.7278738 0.7129486 -0.090636306
000040 40 92 0e be 7b 3b 40 3f 27 05 82 bd 52 03 0f be
       -0.13922977 0.7509076 -0.06348639 -0.1396611
000050 c4 89 d0 bb e9 51 31 3f 19 1a 55 3f 66 5c 7a bd
       -0.006364079 0.6926561 0.83242947 -0.061123274
000060 8a 65 39 3f d0 dd 41 3f 01 41 55 3f 89 ae 37 3f
       0.7242056 0.75729084 0.83302313 0.71750695
000070 06 1e 4d 3f d5 c3 f6 ba ea 91 9b bd 95 e8 87 bd
       0.8012394 -0.0018826673 -0.0759619 -0.066361584
