data/20220509-030618/model.pth (torch, 8399 bytes, 7 tensors)

weight f4 [32, 4]
00000000: 08ab 863d 2aad b7be 95b7 abbe f5ef 9cbd
00000010: dc7c 78be 3f13 8d3d e2df 3a3e f5ac 2e3d
00000020: 03a6 24be 3fa2 57be 7eae fbbe eeef f0be
00000030: 0718 473e bcea 9fbe 27f8 d5be 84c3 4dbe
00000040: c9ad b73e 1f0b 103f a4e2 1940 6afa 463f
00000050: f61e 7dbe 35b1 26bf ad71 25c0 244e 38bf
00000060: 9782 03bf cf9b 0f3e 5590 73c0 06a5 98be
00000070: d470 e83d 1a6a 7abd 625c d0be 8c8d e23e
00000080: 3e80 c9bc 7a4e 1cbe c48c c63d e611 143d
00000090: d088 663e bc73 afbe db56 953e 856e 673e
000000a0: a7ce fdbe a07f 143f 863b 00bf 037d 923e
000000b0: 921e 8bbd 2c58 b43d 9dcf 713e 860c 04bf
000000c0: c1fc c03e c6d6 483f 4460 2440 f7c5 4b3f
000000d0: 8942 74be 3077 cc3e 677a db3e 3b23 febe
000000e0: ff0c 9d3e e36e e1be ef5b d3be ecee ab3e
000000f0: 252c 553e 380e 75be eac1 20bf e06c 93be
00000100: 9aa9 883e e971 e23d f5c2 bcbe faea 673e
00000110: ed8a 333f bb22 133e 5ff7 0cc0 4c3e 25bf
00000120: 6ddb 60be f2bc ce3e f06b 49bd 266f e73e
00000130: a7c0 15bb eb3d 833d 8401 cdbe 25cf ce3d
00000140: 05e3 6a3f dfd3 ccbe e936 94bf 5b70 e9be
00000150: c2f4 4ebf f8c6 ef3d 3440 24c0 7510 ddbd
00000160: d4c4 c0be 147d ff3d fc04 e0be 7260 9d3e
00000170: e921 373f fd1a 7d3e 181a 3140 a4ad 9a3e
00000180: 5179 4abe fe07 d5bd 7702 01be e0b4 8fbe
00000190: 2b35 163e e407 2fbf be8c 8fbf ff40 8dbf
000001a0: d984 403e cbdb 8f3c 3b06 41bf 9e0e 99be
000001b0: 5a88 b5be 6c9f f13d 7281 e43d 2aba 993e
000001c0: eee0 943d c547 903e a787 fb3d f244 903e
000001d0: 2300 ffbe e0df 36bb 711f 0d40 38a9 193f
000001e0: e69b 1e3e 53a6 df3d 6741 563e 27a6 97be
000001f0: 2982 c93e 2b59 0bbf 91af 7ebe ae85 753e
0.0657559 -0.358743 -0.335385 -0.07662956 -0.2426638 0.068884365 0.18249467 0.042645413
-0.16078953 -0.21057986 -0.49156564 -0.47058052 0.1944276 -0.31233776 -0.41790888 -0.20094115
0.35874775 0.5626697 2.404458 0.7772585 -0.24718842 -0.65114146 -2.5850632 -0.71994233
-0.5137114 0.1402428 -3.8056843 -0.29813403 0.11349645 -0.061136343 -0.40695482 0.44248617
-0.024597283 -0.15264311 0.09694818 0.03614988 0.22513127 -0.34267986 0.29167828 0.22600754
-0.49571726 0.5800724 -0.50090826 0.28611 -0.0679294 0.0880588 0.23614354 -0.5158161
0.37692836 0.7845272 2.5683756 0.79598945 -0.23853506 0.39934683 0.42866823 -0.49636254
0.30673978 -0.44029912 -0.41281077 0.3358072 0.20817621 -0.23931205 -0.6279589 -0.28794003
0.26691896 0.11056883 -0.3686749 0.2264823 0.7013386 0.14368717 -2.2025983 -0.6454818
-0.21958704 0.4037853 -0.049175203 0.45201987 -0.0022850425 0.06408294 -0.4004022 0.100981034
0.91752654 -0.40005395 -1.1579257 -0.45593533 -0.8084222 0.11707872 -2.5664186 -0.107941546
-0.37650168 0.12475029 -0.43753803 0.30737644 0.7153612 0.24717326 2.7672176 0.30210602
-0.19772841 -0.10401915 -0.12598597 -0.28067684 0.1466872 -0.68371415 -1.1214826 -1.103546
0.18800677 0.01756086 -0.7540013 -0.29893965 -0.3545559 0.117979854 0.11157502 0.30024844
0.072694644 0.28179756 0.12281733 0.281776 -0.49804792 -0.0027904436 2.205044 0.6002383
0.15489158 0.10920396 0.20923387 -0.29618952 0.39357117 -0.54432935 -0.24871661 0.23976776

bias f4 [32]
00000000: 8e68 4d3f cf3b 613f f0af 843f 7236 3b3f
00000010: 91f5 c3be 65e5 5cbe 8f60 eebe be64 203f
00000020: 2488 623f 93e0 823f be2c 663f 5134 153f
00000030: e29f 66be e727 f23e 33ff 3f3f c0d2 393f
00000040: ae5e 6c3f dbcc 9cbe 0738 713f 68ee 42be
00000050: c75c 9ebe b532 57be 2038 853f ab55 ffbe
00000060: 00bf 443f 7c77 a73d be12 8c3f 8e8d 863f
00000070: 3ada 723f 4e79 31bf 31c1 893f 26cd ea3e
0.8023766 0.87981886 1.0366192 0.7312995 -0.3827329 -0.21571882 -0.46558043 0.6265372
0.88488984 1.0224785 0.8991202 0.58282954 -0.22521928 0.47296068 0.7499878 0.72587204
0.9233197 -0.30625042 0.94226116 -0.19036257 -0.30930158 -0.21015437 1.0407753 -0.49870047
0.7685394 0.08177087 1.094322 1.0511949 0.9486424 -0.6932572 1.0762082 0.4585964

weight f4 [32, 32]
00000000: 53a0 d53e 781d 2d3f 2aca 4b3f ef23 393f
00000010: 380b afbf f9bc 6bbf f4fc 21bf 7aea 833e
00000020: f68a f63e 83eb d73e 0f11 d63e 711d 073f
00000030: 63c7 4fbf fde0 153f 88a2 b83e ccce 173f
00000040: eb8d 013f 9dc8 63bf 9883 e73e a6db 6f3c
00000050: e236 80bf 6fb2 71be 3c5c b33e df44 6ebf
00000060: d5ae 213f c198 793f 1013 223f c6dd 953e
00000070: 72be 183f 3a6d a7bf 1409 233f a405 afbc
00000080: a7c1 64be b3b5 61be 6bb0 56bd 5914 03be
00000090: 724c 173d 6661 6fbd 0080 66bc 38a8 47be
000000a0: efcf da3d 1776 aebd 448c c4bb 2a0e 8f3d
000000b0: a396 47bc 470b ddba 0a62 ccbd 02c3 2abe
000000c0: 6837 4ebe 94cc 9abd 023e 623d 35cc 4f3d
000000d0: 29f5 5ebe fc0d adbd aa7b 653d d3b9 ccbc
000000e0: b3ca 05be bbec c7bd 29a0 4c3d c329 d93b
000000f0: bd46 77bd 071b 123e 2007 61bd a0b0 f6bc
00000100: 1057 3dbe 7b2f 05be 2f72 47bd 672c 02be
00000110: 185c 2dbd d147 2abe 9bb2 023e e0b9 733c
00000120: 405b 823c 1f92 80be 03ab 1bbe 2a10 1cbe
00000130: 072e 58be 428e 82be 9845 86bc 1b43 ca3c
00000140: 3b1f 60be ab59 c73d f5fa 05be f599 813d
00000150: 9808 00be b9e4 ecbc 9735 1abe 98a9 1dbe
00000160: 1ac3 843d d492 a03d 4ffe edbd b884 65bd
00000170: 64ec 4bbd ac90 03bd aad2 29be 1ea8 47be
00000180: 800c 093f 0a89 003f d7f3 2a3f 02d2 fe3e
00000190: 1a3b 8dbf 076a 77bf ecd0 45bf e209 ae3e
000001a0: f786 f93e eb40 a13e 35c9 fa3e eada 7d3e
000001b0: 8b06 0abf 5e49 b03e f80c 873e 50c3 253f
000001c0: 9355 fa3e c531 35bf f849 1b3f aa56 483e
000001d0: e5bc 83bf 8895 38be 4e75 e03e 2b70 48bf
000001e0: 2eb8 3e3f ce5d f63e cb59 2b3f 3440 de3e
000001f0: 34a3 2c3f ae6c 7dbf 7a22 043f a231 a33e
00000200: 492b 11bd a3d4 373c 9bc8 c7bc f4de 13be
00000210: 4302 01be 527c cb3d a726 bc3d 9a4d 87bd
00000220: e0f8 29be 1ad5 9f3d e951 65bd 7666 04be
00000230: d953 2cbe 165c a33d 1384 bdbc 9b6f 85bd
00000240: 47b7 22be a83f 753d db73 d0bb 0865 5ebe
00000250: e0aa 823b 9ac1 93bd 98d4 bebc 1723 31be
00000260: 3076 9cbc 2f12 32bd cb3e 5ebe e998 9c3c
00000270: 59f2 61be ae81 af3d bdd3 3abd 19eb 4bbd
00000280: a01c 9e3e 557c 143f 9b3f 9d3e 5a54 da3e
00000290: 4de7 56bf a23b a5bf a838 9cbf a27a 093f
000002a0: e8fc da3e a0ad 253f 67cb dd3e 48e0 433e
000002b0: 4bcf 03be fe79 2f3e acd7 1d3f 82ef fb3d
000002c0: 9601 e63e 2686 6dbf b821 513f 32a5 953d
000002d0: 14a2 8dbf 2cc5 2dbf 807c e03e 02e6 1dbf
000002e0: cf96 d93e 8d14 6dbd 4a4d c43e 5102 4f3f
000002f0: 3823 163f 4a1a 66bf f243 643e 1cd0 d23e
00000300: e409 f03e 4d41 1f3f 80cb 333f 26da 383f
00000310: b249 b6bf 1815 9ebf da62 aabf 4ca1 7a3e
00000320: 5b46 063f 1c13 503e 5f2d 283f ffd5 073f
00000330: c5ea 8bbf d4dc 103f acc2 863e b61b 053f
00000340: b432 b13e 4765 56bf 5844 ba3e 3ad2 083d
00000350: 5659 a2bf 1341 13bf 4d09 fa3e 1e32 a4bf
00000360: 245e 203f 06d2 fd3e 89c7 273f 6578 1a3f
00000370: 3ee5 1a3f 28a7 9bbf 3464 e73e 933e 333e
00000380: 262a c1bd 40c3 883d f460 94b9 df91 9abd
00000390: 3e9a f73d e149 b03d cc12 7d3d 0068 2039
000003a0: 396e 6abe 1050 1dbe a8fc 503d bf88 39be
000003b0: 6894 6c3d 376e 433d 0382 82bd 7b65 6a3a
000003c0: c862 0abe 7dea 5d3d 7b9d 11be 4dd0 00be
000003d0: 03cd b83b 85bf 2cbe d306 e43d 76e4 4ebe
000003e0: 31d3 6ebe 57b0 423d 9b33 81bd 0507 c43a
000003f0: 6d14 df3d fa4c 17be 298c 0cbe 529d 0fbe
0.4172388 0.6762309 0.7960535 0.72320455 -1.3675299 -0.92085224 -0.632766 0.2576483
0.48152894 0.4217187 0.4180989 0.527793 -0.81163615 0.5854643 0.36061502 0.5929992
0.50607175 -0.88977987 0.45217586 0.014639771 -1.0016749 -0.23603223 0.35031307 -0.9307384
0.631574 0.9749871 0.6331034 0.29270762 0.59665596 -1.3080208 0.6368573 -0.021364994
-0.22339498 -0.22041969 -0.05241434 -0.12800731 0.03693814 -0.058442496 -0.0140686035 -0.19497764
0.106841914 -0.085186176 -0.0059981663 0.069851235 -0.012181911 -0.0016864323 -0.09979637 -0.16675952
-0.20138323 -0.075585514 0.055234917 0.050731856 -0.21773209 -0.08449933 0.05602614 -0.024990952
-0.13065605 -0.0976195 0.049957428 0.006627293 -0.060370196 0.14268123 -0.054938436 -0.030113518
-0.18490243 -0.13006394 -0.04869288 -0.1271225 -0.042324156 -0.16628958 0.12763445 0.014875859
0.015912652 -0.25111482 -0.15201955 -0.15240541 -0.21111308 -0.2549916 -0.016390607 0.024690202
-0.21886913 0.097339 -0.13084014 0.06328193 -0.12503278 -0.028917657 -0.15059505 -0.15396726
0.06482525 0.07840505 -0.11620771 -0.056034774 -0.049785987 -0.03212039 -0.16584268 -0.19497725
0.535347 0.50209105 0.6677832 0.49769598 -1.1033661 -0.9664616 -0.77271914 0.33991915
0.48735783 0.3149484 0.48981634 0.2479054 -0.53916234 0.34430975 0.26377082 0.6475115
0.48893413 -0.7077907 0.6065974 0.1956431 -1.0292021 -0.18025792 0.43839496 -0.78296155
0.74499786 0.48118442 0.6693389 0.43408358 0.6743653 -0.9899396 0.5161511 0.31873804
-0.03544167 0.01122013 -0.024387648 -0.14440519 -0.12598519 0.099358216 0.0918706 -0.06606598
-0.16598845 0.07804318 -0.05598632 -0.12929711 -0.1682886 0.079765484 -0.023134267 -0.06515428
-0.15890227 0.05987516 -0.0063614673 -0.21718228 0.003987655 -0.07214661 -0.023294732 -0.17298542
-0.019099325 -0.043474372 -0.21703641 0.019115882 -0.22065105 0.08569656 -0.045612086 -0.049784753
0.30881214 0.58002216 0.3071259 0.4264248 -0.83946687 -1.2908823 -1.220479 0.5370275
0.42771077 0.64718056 0.43319246 0.19128525 -0.12872045 0.1713638 0.61657214 0.12301542
0.44923085 -0.9278282 0.81692076 0.07306899 -1.1065087 -0.67878985 0.43844986 -0.6167909
0.4249787 -0.057880927 0.38340217 0.8086291 0.5864749 -0.89883864 0.22291544 0.411744
0.46882546 0.62209016 0.7023239 0.7220787 -1.424124 -1.2350187 -1.3311417 0.24475592
0.52451104 0.2031979 0.6569423 0.5306091 -1.0931021 0.56586957 0.26320398 0.5199541
0.34608996 -0.83748287 0.36380267 0.033403613 -1.2683513 -0.5752117 0.4883522 -1.2827795
0.6264365 0.49574298 0.6553884 0.6033996 0.60506046 -1.2160387 0.45193636 0.17504339
-0.09431867 0.06677866 -0.00028300995 -0.07547354 0.12089966 0.08607841 0.061785504 0.00015297532
-0.22893609 -0.15362573 0.0510222 -0.1811857 0.05775872 0.04771253 -0.06372454 0.00089415134
-0.13514245 0.054178704 -0.1422023 -0.1257946 0.0056396737 -0.16869934 0.11134114 -0.20204338
-0.2332275 0.047531452 -0.06308671 0.0014955705 0.10892568 -0.14775458 -0.13725342 -0.14024857

bias f4 [32]
00000000: ac92 e83e 56f0 2bbe abc2 9b3d f864 203f
00000010: 91ee 00be 7cf5 1a3f fb6b ea3e a2e9 27be
00000020: 5602 82be 54b7 653d 1bff 0a3f fa01 7ebe
00000030: fcda 3e3d 7549 7abd 4863 26be e2fd 043f
00000040: 626f 943c 6315 0ebd 3011 093f f77e 90be
00000050: e655 1f3f fe00 ca3e 1dd5 00bc fd92 a0bc
00000060: f76b 10be ee9f 283f 5db7 a2bb a3b6 0a3f
00000070: e8ee 083f 90c6 f63e 9ddd 183d 0357 073c
0.45424402 -0.167909 0.07605489 0.62654066 -0.12591006 0.6053083 0.45785508 -0.16397718
-0.25392407 0.05608304 0.5429551 -0.24805441 0.04659556 -0.06110521 -0.1624881 0.51949894
0.018119518 -0.034688365 0.5354185 -0.28221866 0.62240446 0.39453882 -0.00786331 -0.01960134
-0.14103685 0.65869033 -0.0049657063 0.5418493 0.5348954 0.48198366 0.037320722 0.008260491

weight f4 [2, 32]
00000000: aeeb 273e 7a1a 04be feab 9fbc 7d1d 863d
00000010: 26c1 b6bd 2f8f 8dbe 06d6 7b3c 3bcc cfbd
00000020: 29c4 603e a032 7f3c ece1 4cbe 69b0 21bd
00000030: 03c4 d43b f190 24be 0856 ce3d 0314 d1bc
00000040: 089d 2c3e abcc c43d 3201 76be 80bf 5c3e
00000050: 4f47 1d3c 8cef 79be c49f dc3d 4496 603e
00000060: 143d 26be 62c6 b6bd 58d8 ccbc e690 823c
00000070: de4e c53e ba9e 283e 74dd 843d df23 42be
00000080: 3078 67be d7da c7bd 50f3 4e3d b460 8fbc
00000090: 7b23 b43d e11d d13e 3b0f 51be 0162 353d
000000a0: bab6 5ebe 2e04 0ebe 0797 853e b53a 983d
000000b0: 80fd d53c bfea 513e 4f78 8b3d 80f6 19be
000000c0: 0520 b0bc c42b 20be 92cd 943e bba6 1cbe
000000d0: f9a3 a23d 89cb bc3e ea93 b53b b74d cabd
000000e0: a5e3 c7bc d937 9b3d 9bb3 81bd 3adc 9abe
000000f0: 9b52 dabe 97fd 9dbe 2c0f 423d 87e1 153e
0.16398498 -0.12900725 -0.019491192 0.06548593 -0.08923559 -0.27648303 0.015370851 -0.10146376
0.21949829 0.015576035 -0.20008057 -0.03947488 0.006493093 -0.16070916 0.10075003 -0.025522238
0.16856778 0.0960935 -0.24023893 0.21557426 0.009599521 -0.24407786 0.107726604 0.21932322
-0.16234237 -0.08924557 -0.025005504 0.015938234 0.38536733 0.164668 0.06487551 -0.18958996
-0.22604442 -0.09758537 0.05052501 -0.017502166 0.0879583 0.40843108 -0.20415966 0.044282917
-0.21749392 -0.13868782 0.26091787 0.074330725 0.026121855 0.20499705 0.068100564 -0.15035439
-0.021499643 -0.15641695 0.29063088 -0.15297978 0.079414316 0.36874035 0.0055413144 -0.09878104
-0.024400542 0.075790115 -0.06333085 -0.30246145 -0.42641148 -0.30857536 0.04737775 0.14636813

bias f4 [2]
00000000: 8a2c ac3d e2d0 62be
0.08406933 -0.22149995

weight f4 [1, 32]
00000000: 82e9 553f d285 0ebc a9f8 dbbc 6a74 3e3f
00000010: c5d4 cf3b ee55 233f 717d 5e3f 5be4 0fbd
00000020: 5f24 c2bd 0347 063e ec80 293f ca7b 37be
00000030: c8f0 5cbd a152 8e3c ea27 363d 5a76 6c3f
00000040: 5653 b63b 6aff 093d 47a3 2d3f f8b6 8fbd
00000050: 7f9c 3f3f 68ee 3e3f 2e46 8dbd 6ec7 c5bd
00000060: 98df 2b3d 7f93 2e3f 42ba abbc 4759 573f
00000070: f48e 533f 408f 573f d242 a5bd b0de 3bbd
0.8355943 -0.008698897 -0.026851969 0.74396384 0.006342503 0.63802993 0.8691016 -0.035129886
-0.094795935 0.13113026 0.66212344 -0.17918316 -0.053940564 0.017373385 0.04447166 0.9236809
0.0055641336 0.033690847 0.67827266 -0.070173204 0.7484817 0.7458253 -0.06898151 -0.09657179
0.041961282 0.6819381 -0.020962838 0.841206 0.82640004 0.8420296 -0.080693856 -0.04586667
