data/20220509-011855/model.pth (torch, 8399 bytes, 7 tensors)

weight f4 [32, 4]
0	0x3e5c9a15	0.21543153
1	0xbedbe0ab	-0.42944846
2	0xbdc5ff5a	-0.09667845
3	0x3e4b7b94	0.1987136
4	0x3dbb6c65	0.09151534
5	0xbd068494	-0.03284128
6	0x3f7576ea	0.95884573
7	0x3e37aebf	0.17937754
8	0xbec06158	-0.37574267
9	0xbec9ce0f	-0.39415023
10	0xbf28a6f4	-0.6587975
11	0x3e4e76b4	0.20162469
12	0x3d8756d7	0.0660836
13	0xbea489ab	-0.32136282
14	0x3ec870c0	0.3914852
15	0xbec15e4b	-0.37767252
16	0xbd792be3	-0.06083287
17	0xbc80af70	-0.015708655
18	0x3eeffd57	0.4687297
19	0xbb28a8cb	-0.0025735374
20	0x3ea2250a	0.31668884
21	0xbed040e6	-0.40674514
22	0xbf09127c	-0.5354383
23	0xbe3088ef	-0.17239736
24	0x3da14a80	0.07875538
25	0x3ecbfd14	0.3984152
26	0x3e49b31a	0.19697228
27	0xbe5e5b5a	-0.21714535
28	0xbe511075	-0.20416434
29	0x3de5deab	0.11224111
30	0x3e830beb	0.2559503
31	0x3b9ba160	0.004749462
32	0xbdf0eb6d	-0.11763654
33	0xbc70c05e	-0.014694301
34	0x3ebd1304	0.3692857
35	0xbd5ad5fe	-0.053426735
36	0x3e5b5343	0.2141848
37	0xbf09597e	-0.5365218
38	0xbf1791fc	-0.5920713
39	0x3ee691a3	0.45032987
40	0x3c025402	0.007954599
41	0x3ed83c8f	0.42233703
42	0xbeb8c6d1	-0.36089185
43	0x3ea5fc3a	0.32418996
44	0x3de5c59e	0.11219333
45	0x3ef8b00f	0.48571822
46	0x3ee3df8a	0.44506484
47	0xbef57be5	-0.47946087
48	0x3d5a2b73	0.053264093
49	0x3e454390	0.19264054
50	0x3f516220	0.8179035
51	0x3ebf0853	0.37311038
52	0x3ddb2c95	0.10701863
53	0xbe745735	-0.23861392
54	0x3e496554	0.1966756
55	0x3e6ee3ae	0.2332904
56	0x3f05b8d2	0.5223514
57	0x3e45ff0d	0.19335575
58	0x3ea49d0e	0.32151073
59	0x3e813e16	0.2524268
60	0x3ef2c3ec	0.47415102
61	0x3ecad033	0.39611968
62	0x3db02eec	0.086027
63	0xbead4e12	-0.33848625
64	0xbe4a127d	-0.19733615
65	0x3f017102	0.5056306
66	0x3f369d0d	0.7133339
67	0xbe393d77	-0.18089853
68	0x3e96a7ea	0.29424983
69	0xbec4b19f	-0.38416764
70	0xbdef0264	-0.11670378
71	0x3e12ce0c	0.14336413
72	0x3e8e86c3	0.2783719
73	0x3ea9a66e	0.33134788
74	0x3fc71ccd	1.5555664
75	0x3ed281fa	0.4111479
76	0xbe5c9f7f	-0.21545218
77	0x3ea6c76e	0.32574028
78	0x3ea15b73	0.31515083
79	0x3e8e70f6	0.27820557
80	0x3e6ca9da	0.23111668
81	0xbe07d324	-0.13264138
82	0x3e85d1f9	0.2613676
83	0x3ec11b23	0.37716016
84	0xbf89d8d6	-1.0769298
85	0xbedce899	-0.43146208
86	0x3e8e698a	0.27814895
87	0x3eb995cf	0.36247107
88	0x3da764b8	0.081735075
89	0x3e33f56a	0.17574087
90	0x3daa44af	0.083138816
91	0xbeca84db	-0.39554486
92	0x3e85ca3a	0.2613085
93	0xbd34f7b0	-0.044181526
94	0x3e9ccfb2	0.3062721
95	0xbea89c0d	-0.32931557
96	0xbea0074d	-0.3125557
97	0x3eaf0127	0.34180567
98	0x3e3574a9	0.17720284
99	0x3eaaea8c	0.3338207
100	0xbe43d03d	-0.19122405
101	0x3e97c64a	0.2964347
102	0x3f251888	0.64490557
103	0x3e302c37	0.17204367
104	0xbd82913a	-0.06375356
105	0xbd94e9ee	-0.07271181
106	0x3ec593a5	0.38589206
107	0xbe63dd81	-0.22252466
108	0x3e4e04c2	0.20119002
109	0xbd79d0a5	-0.060989995
110	0x3fe17c19	1.7615997
111	0x3f34dfcd	0.7065399
112	0x3ea65f2e	0.3249449
113	0x3f20ee4c	0.6286361
114	0x3fb6fa9b	1.4295229
115	0x3f274c6b	0.6535098
116	0xbe9730c4	-0.29529393
117	0x3edbecff	0.4295425
118	0xbe633667	-0.22188722
119	0x3f086d51	0.53291804
120	0x3ee51afa	0.44747144
121	0xbf1c45b8	-0.6104388
122	0xbf6f0cbc	-0.93378806
123	0x3eb76ac6	0.3582365
124	0x3df5a33e	0.119940266
125	0x3d90a741	0.07063151
126	0x3e862e94	0.2620741
127	0x3cfead44	0.031088479

bias f4 [32]
0	0x3f1b763e	0.607273
1	0x3f2f27f4	0.6842034
2	0xbf1878f0	-0.59559536
3	0x3f64a3f7	0.8931269
4	0x3f2e58e4	0.68104386
5	0x3f352b80	0.707695
6	0xbcddc98d	-0.027073646
7	0x3f638c1d	0.8888567
8	0xbf0eb0b8	-0.557384
9	0x3e09f6bb	0.13473026
10	0x3f44f58d	0.7693718
11	0x3edf0aee	0.43563026
12	0x3f4a2bc7	0.7897305
13	0x3f78023b	0.96878403
14	0xbf35b1a9	-0.7097421
15	0xbf4f18f2	-0.8089744
16	0x3eefff18	0.4687431
17	0x3f2b8d42	0.6701242
18	0xbe7e7360	-0.248487
19	0x3f7dd086	0.99146307
20	0x3f69bc4f	0.9130296
21	0xbe3f691e	-0.18692443
22	0x3f437ca1	0.76362044
23	0x3f752901	0.9576569
24	0x3f743aca	0.95402205
25	0x3f2c0438	0.6719394
26	0x3f1c53d5	0.6106542
27	0xbe0442d2	-0.12916115
28	0xbe8746d1	-0.26421216
29	0x3f7addda	0.9799477
30	0x3f208a27	0.62710804
31	0x3f452ded	0.770232

weight f4 [32, 32]
0	0x3ec1b7f9	0.37835672
1	0x3ef3150b	0.47476992
2	0xbf1480ff	-0.5800933
3	0x3edd6c07	0.4324648
4	0x3eb2fa2c	0.3495649
5	0x3f0b5529	0.5442682
6	0xbe21c278	-0.1579684
7	0x3ed418aa	0.41425067
8	0xbd798198	-0.060914606
9	0x3d8aca6d	0.06776891
10	0x3f1ac1e6	0.60452116
11	0x3d992876	0.074784204
12	0x3f003b6f	0.5009069
13	0x3edf5fed	0.43627873
14	0xbe99f0c2	-0.30066496
15	0xbf065deb	-0.5248706
16	0x3ec0a723	0.37627515
17	0x3ed34299	0.41261747
18	0xbf47a7e0	-0.7799053
19	0x3f13c47a	0.57721674
20	0x3ee7c903	0.45270547
21	0xbed2b62e	-0.41154617
22	0x3efd88e6	0.49518508
23	0x3f068355	0.52544147
24	0x3f0e05ee	0.554778
25	0x3f3adddc	0.7299478
26	0x3ee09ad7	0.43868133
27	0xbef74620	-0.4829569
28	0xbf2fd812	-0.6868907
29	0x3f0659ca	0.5248076
30	0x3eb05a99	0.3444412
31	0x3f07f34e	0.5310563
32	0xbe1ed227	-0.15509854
33	0xbd4a28b8	-0.04935524
34	0x3e30eb65	0.17277296
35	0xbd521250	-0.051286995
36	0xbc34ad86	-0.011027699
37	0xbd9011f4	-0.07034674
38	0xbddec2b9	-0.10876984
39	0x3d2ca088	0.042145282
40	0xbdb53311	-0.08847631
41	0xbd35b930	-0.04436606
42	0xbbdc96fa	-0.006731865
43	0xbe112468	-0.14174044
44	0xbe4f0595	-0.20216973
45	0xbe42e2dd	-0.19031854
46	0xbdd099b8	-0.101855695
47	0xbe15b35f	-0.14619206
48	0xbe0fadfa	-0.1403121
49	0x3d8f4c10	0.0699693
50	0xbc5ee306	-0.013603931
51	0xbddec373	-0.10877123
52	0xbe6247c3	-0.22097687
53	0xbdcbf0c1	-0.099580295
54	0xbda99dec	-0.08282074
55	0xbdf3c4f2	-0.11902799
56	0xbdefe04c	-0.11712703
57	0xbde47210	-0.11154568
58	0xbd981915	-0.07426659
59	0x3e2a1a99	0.16611709
60	0xbd7a062d	-0.061041046
61	0xbdba8f9f	-0.09109425
62	0xbe5e8866	-0.2173172
63	0xbe8241c4	-0.254408
64	0x3e2c0d6a	0.16801992
65	0x3e5c2d0d	0.2150156
66	0xbecde408	-0.40213037
67	0x3f2b3a33	0.6688568
68	0x3ea96e87	0.33092138
69	0x3f2dfda9	0.6796518
70	0x3df0df58	0.117613494
71	0x3f0c7994	0.54873013
72	0xbcbd6322	-0.02311856
73	0x3dc91b73	0.09819689
74	0x3ed159d8	0.40888858
75	0x3e8ee583	0.2790948
76	0x3e56c807	0.20974742
77	0x3ea08d3f	0.31357762
78	0xbf0a53f1	-0.54034334
79	0xbeaee49d	-0.34158793
80	0x3e85af01	0.2611008
81	0x3d83356b	0.06406673
82	0xbf4ed463	-0.80792826
83	0x3eafeab4	0.34358752
84	0x3e5941f2	0.21216562
85	0xbe36a588	-0.17836583
86	0x3f26314b	0.64918965
87	0x3f16ba05	0.58877593
88	0x3f100e2d	0.5627163
89	0x3e8a8cf1	0.27060655
90	0x3efa5c6f	0.48898646
91	0xbf3b0fb0	-0.7307081
92	0xbf5b3cc7	-0.85639614
93	0x3e8c9ad5	0.27461877
94	0x3e6c8efc	0.23101419
95	0x3f10555c	0.5638025
96	0x3e9505d6	0.29106015
97	0x3f1946f2	0.5987388
98	0xbeb7ebcb	-0.35922083
99	0x3ea12c7e	0.31479257
100	0x3f1e0df1	0.6174002
101	0x3f084461	0.5322934
102	0xbd88c4e8	-0.06678182
103	0x3f10a1b6	0.5649675
104	0xbd6d3977	-0.05791613
105	0x3e940f21	0.28917792
106	0x3f270f0a	0.6525732
107	0x3bd7de04	0.0065877456
108	0x3f2e5824	0.6810324
109	0x3f077b5d	0.5292261
110	0xbf14a33c	-0.58061576
111	0xbe9aff66	-0.3027298
112	0x3f073364	0.5281279
113	0x3ef63dcc	0.48094022
114	0xbf1be9b8	-0.609035
115	0x3ed8a533	0.42313537
116	0x3f2b7b25	0.6698478
117	0xbeac1b35	-0.33614507
118	0x3e00bb9e	0.1257157
119	0x3f118b0e	0.56852806
120	0x3f001d09	0.50044304
121	0x3f39721c	0.7243974
122	0x3f102fdd	0.56323034
123	0xbf00879b	-0.5020692
124	0xbef7149f	-0.4825792
125	0x3f1a378d	0.60241014
126	0x3ef797f4	0.4835812
127	0x3f18b374	0.59648824
128	0xbc77c62e	-0.015122933
129	0xbca423d0	-0.020036608
130	0xbe6e3873	-0.23263721
131	0xbde16c0e	-0.11006938
132	0xbe78c1da	-0.24292699
133	0x3ab263e7	0.0013610095
134	0xbe21c6fc	-0.15798563
135	0xbd338acc	-0.04383354
136	0x3da44686	0.08021264
137	0x3dc110a4	0.09427002
138	0xbccca764	-0.024982162
139	0xbd69336f	-0.056933817
140	0xbe30d7a1	-0.17269756
141	0xbe666b9f	-0.22501992
142	0xbd45b66b	-0.04826967
143	0xbe1c1262	-0.15241387
144	0xbcff0738	-0.031131372
145	0xbe11f859	-0.14254893
146	0x3cdd1b8f	0.02699068
147	0xbe27a071	-0.16369797
148	0xbda7b582	-0.08188917
149	0x3b540c73	0.0032356053
150	0x3d770c87	0.06031468
151	0x3d043720	0.032279134
152	0xbda43e6d	-0.08019719
153	0xbc763787	-0.015027887
154	0x3d8328cd	0.064042665
155	0x3c76b520	0.015057832
156	0x3d205ab6	0.03914901
157	0xbe0bb5d1	-0.13643576
158	0xbe2d8d2e	-0.16948387
159	0x3ce32a0f	0.027730016
160	0x3e9bc4ce	0.30423588
161	0x3ef5db14	0.48018706
162	0xbf3a0938	-0.72670317
163	0x3ef48cac	0.47763574
164	0x3f229f42	0.6352426
165	0x3edd97f6	0.4328
166	0xbe370560	-0.17873144
167	0x3f1f6436	0.62262285
168	0xbe3465be	-0.17616937
169	0x3e63c35d	0.22242494
170	0x3ecf9d11	0.4054952
171	0x3e2cfff8	0.1689452
172	0x3efee655	0.49785104
173	0x3f0e8ff9	0.55688435
174	0xbf2232c2	-0.633587
175	0xbedb7248	-0.42860627
176	0x3f0aff64	0.54295945
177	0x3ece00e2	0.4023505
178	0xbf4065c3	-0.75155276
179	0x3f25def7	0.6479334
180	0x3f0b491d	0.54408437
181	0xbe813fba	-0.25243932
182	0x3eb3bc0e	0.35104412
183	0x3f058353	0.5215351
184	0x3f033885	0.51258117
185	0x3f3f5402	0.7473756
186	0x3f0d0fde	0.55102336
187	0xbf16a856	-0.5885061
188	0xbf036ebc	-0.5134084
189	0x3f34c820	0.70617867
190	0x3ee4f0ef	0.44715068
191	0x3f1875b8	0.59554625
192	0x39f41500	0.00046554953
193	0x3e88c41f	0.2671213
194	0xbf3a54c4	-0.7278559
195	0x3f38a3ef	0.7212514
196	0x3ebe607d	0.3718299
197	0x3f574270	0.8408575
198	0xbb15285a	-0.0022759647
199	0x3f2c5d17	0.67329544
200	0xbe012392	-0.12611225
201	0x3d03a50c	0.032139823
202	0x3f1e076a	0.6173006
203	0x3e20f11b	0.15716974
204	0x393fbf88	0.0001828653
205	0x3e9c3cd9	0.30515173
206	0xbed3b1ce	-0.41346592
207	0xbeab01df	-0.33399865
208	0x3e579187	0.21051608
209	0x3ea208bc	0.3164729
210	0xbf291159	-0.66042095
211	0x3f1af726	0.6053337
212	0x3edddb66	0.4333145
213	0xbe81e781	-0.25371936
214	0x3e9d0465	0.30667415
215	0x3f16cb4a	0.58903944
216	0x3f0ac710	0.54209995
217	0x3eae914d	0.3409523
218	0x3f1107d8	0.56652594
219	0xbf384d9d	-0.7199343
220	0xbf174ff6	-0.59106386
221	0x3f0daffc	0.55346656
222	0x3ec475b4	0.3837105
223	0x3ee2f616	0.44328374
224	0x3e168844	0.14700419
225	0x3cf8f91d	0.030392224
226	0xbf451cec	-0.76997256
227	0x3f0be011	0.54638773
228	0x3e69eb1b	0.22843592
229	0x3f07cc44	0.5304606
230	0xbbdd46c2	-0.0067528198
231	0x3ef79b5c	0.48360717
232	0x3dbb943e	0.09159134
233	0xbb027dd5	-0.0019911428
234	0x3f1fd3e9	0.62432724
235	0x3e99c556	0.30033368
236	0x3d2581eb	0.040407103
237	0x3e8e9974	0.2785145
238	0xbe8d86a3	-0.27641782
239	0xbe8422a0	-0.25807667
240	0x3e9868cd	0.29767457
241	0x3d882797	0.06648176
242	0xbf6abf2f	-0.91697973
243	0x3f2475c9	0.64242226
244	0x3ed0cef7	0.40782902
245	0xbe977275	-0.2957951
246	0x3ef87cf4	0.48532832
247	0x3f2d27b6	0.6763872
248	0x3eb019de	0.34394735
249	0x3eaf7d02	0.3427506
250	0x3f3bffcd	0.73437196
251	0xbf487b2e	-0.7831296
252	0xbf2697c8	-0.6507535
253	0x3e978a52	0.29597718
254	0x3e7db6b6	0.2477673
255	0x3ece1869	0.40252998

bias f4 [32]
0	0x3ec6819b	0.38770756
1	0x3cd7ce9f	0.026343642
2	0x3eed767b	0.46379456
3	0x3f10d82d	0.5657986
4	0xbb77e8e2	-0.0037828018
5	0x3f00b3b1	0.5027419
6	0x3edaf010	0.42761278
7	0x3ed580b1	0.41699746
8	0x3f0696b7	0.5257372
9	0x3ebf1635	0.3732163
10	0x3f0bf43f	0.54669565
11	0x3e93c4c7	0.28861067
12	0xbe58ed3d	-0.21184249
13	0x3d83c40c	0.06433877
14	0x3ec849bd	0.39118758
15	0x3e99e4ba	0.30057317
16	0x3f1a45f0	0.60262966
17	0x3f18ab43	0.59636325
18	0xbe63791e	-0.22214171
19	0xbd8df0ee	-0.06930719
20	0xbdf4747b	-0.119362794
21	0xbdc08bf6	-0.094016954
22	0x3ecdd915	0.40204683
23	0x3e993b1a	0.29927903
24	0xbe5876a7	-0.21139012
25	0x3ccf3efd	0.02529859
26	0x3ef2b086	0.47400302
27	0xbc560610	-0.013062969
28	0xbdf72800	-0.12068176
29	0xbddcd982	-0.10783674
30	0x3f01e264	0.5073607
31	0xbdb081aa	-0.086184815

weight f4 [2, 32]
0	0xbdcf46f8	-0.10120958
1	0x3d1f040a	0.03882221
2	0x3eba7f44	0.3642522
3	0xbe6b53d3	-0.22981195
4	0x3e9f963b	0.31169304
5	0x3d03ab5b	0.03214584
6	0x3dbbd5bb	0.09171625
7	0x3ea0bafe	0.31392664
8	0xbed96fe5	-0.4246818
9	0x3e40e8ee	0.18838856
10	0x3e567b25	0.20945413
11	0xbea928a4	-0.3303882
12	0xbe6514ad	-0.22371168
13	0xbf19b1e1	-0.60037047
14	0x3eab2596	0.33427113
15	0x3d9a8c6f	0.07546317
16	0xbd7cf709	-0.06175903
17	0x3d89af62	0.06722905
18	0xbb898b04	-0.00419748
19	0xbc248390	-0.010041133
20	0x3d57dbde	0.052699916
21	0xbe8f4e19	-0.2798927
22	0xbe01d3d7	-0.12678467
23	0xbe1d4b45	-0.15360744
24	0x3d7cf30c	0.061755225
25	0xbe311c5f	-0.17295979
26	0xbd2cebef	-0.04221719
27	0x3ca42412	0.02003673
28	0xbdef20f0	-0.11676204
29	0xbdc8142c	-0.097694725
30	0x3d97a2de	0.07404111
31	0xbd5754b3	-0.05257101
32	0x3c41b05c	0.0118218325
33	0xbe3dd7ed	-0.185394
34	0xbe930f37	-0.28722546
35	0x3dffb67c	0.12485978
36	0xbe8d9095	-0.2764937
37	0x3e3093a7	0.17243825
38	0xbe4640bb	-0.1936063
39	0xbe409ca6	-0.18809757
40	0x3e892c3f	0.2679157
41	0xbeaa0c03	-0.3321229
42	0xbd86ff5a	-0.06591673
43	0x3e3baebf	0.18328379
44	0x3bf15e0b	0.007365947
45	0x3f527080	0.8220291
46	0xbdfbd360	-0.12296176
47	0x3dcfb185	0.10141281
48	0xbd2a94ef	-0.04164594
49	0x3db2a91c	0.08723661
50	0x3e6f9c54	0.23399478
51	0x3e22754d	0.15865059
52	0xbd10e89a	-0.035378076
53	0x3e40112e	0.18756554
54	0x3db1f0c9	0.08688504
55	0xbe246aaf	-0.16056322
56	0x3db461d4	0.08807722
57	0x3df8d183	0.12149336
58	0xbd71cb05	-0.059031505
59	0x3dd5b9da	0.10435839
60	0x3ded12be	0.115758404
61	0x3da0850a	0.07837875
62	0x3b902a40	0.004399568
63	0xbdfb30c3	-0.1226516

bias f4 [2]
0	0x3e199679	0.14998807
1	0xbe108d89	-0.14116491

weight f4 [1, 32]
0	0x3f2f3d46	0.6845287
1	0x3bd5f074	0.0065289084
2	0x3f34efaf	0.7067823
3	0x3f18a01d	0.59619313
4	0x3d3c1602	0.045919426
5	0x3f159463	0.58429545
6	0x3f1d2b64	0.61394334
7	0x3f3fe208	0.7495427
8	0x3f10ed29	0.5661188
9	0x3f366242	0.7124368
10	0x3f2efe32	0.6835662
11	0x3f39c1a5	0.72561103
12	0x3cbf4f26	0.02335317
13	0x3d67e0bb	0.056610804
14	0x3f19b5b5	0.6004289
15	0x3f2cd7f9	0.6751705
16	0x3f1a71d4	0.6032994
17	0x3f243b9c	0.64153457
18	0xbdaca2c5	-0.08429483
19	0x3cfbdb32	0.030744169
20	0x3d69d96b	0.05709211
21	0xbd179487	-0.03700688
22	0x3f2ff394	0.68731046
23	0x3f468e3a	0.7756077
24	0xbd8409a7	-0.064471535
25	0xbdbce525	-0.09223393
26	0x3f41d19c	0.75710464
27	0xbc2acf74	-0.010425437
28	0xbddca068	-0.107727826
29	0x3c784400	0.015152931
30	0x3f284c92	0.6574184
31	0xbc0c98e8	-0.008581378
